pre-trained/huawei.pth (torch, 562237 bytes, 226 tensors)

AmpNet.0.conv0.0.weight f4 [8, 3, 1, 1]
0	0xbf14d193	-0.58132285
1	0xbf41a6b4	-0.75644994
2	0x3eb35336	0.35024422
3	0x3dd029cd	0.10164223
4	0xbf22d601	-0.63607794
5	0x3ef8c0d4	0.48584616
6	0xbf1fa102	-0.62355053
7	0xbea374f2	-0.3192516
8	0x3e4ba6a2	0.19887784
9	0x3f25cd40	0.6476631
10	0x3f047407	0.51739544
11	0x3ec76d1f	0.3895044
12	0xbe73b9b3	-0.23801307
13	0x3ed6370c	0.41838872
14	0x3f0dd131	0.55397326
15	0x3edd708a	0.43249923
16	0xbebfa340	-0.37429237
17	0x3eaf229d	0.34206095
18	0xbe50f6df	-0.20406674
19	0xbf423994	-0.7586911
20	0xbf118128	-0.568377
21	0x3f0c5e9c	0.5483186
22	0xbe9c767b	-0.30559143
23	0x3da2ac47	0.079430155

AmpNet.0.conv0.0.bias f4 [8]
0	0x3ed94e17	0.4244239
1	0x3ea0717a	0.31336576
2	0xbda57c24	-0.080803186
3	0x3ed23ba1	0.41061118
4	0x3c97be12	0.01852325
5	0x3e0a1d8c	0.13487834
6	0xbc485f30	-0.012229726
7	0xbe971cca	-0.29514152

AmpNet.0.conv0.1.spatial_process.block.0.weight f4 [8, 8, 3, 3]
0	0x3dccb69d	0.09995768
1	0x3e343664	0.17598873
2	0x3cf9356b	0.03042098
3	0xbd624f43	-0.05525137
4	0x3ce51dc5	0.027968297
5	0x3d185b13	0.03719623
6	0x3dc0e650	0.094189286
7	0x3cdf526b	0.02726098
8	0xbdb4dcd8	-0.08831185
9	0x3db5fa42	0.088856235
10	0x3d9900a9	0.07470829
11	0xbd565581	-0.052327637
12	0x3dc7404c	0.097290605
13	0xbccef7ab	-0.025264582
14	0xbd9b03c1	-0.075690754
15	0x3d35e8d7	0.044411507
16	0xbdc1e4b2	-0.09467448
17	0xbc8a9e9b	-0.016921332
18	0x3e18e62a	0.1493155
19	0x3e17c950	0.14822888
20	0x3d85929d	0.06522105
21	0x3d345ffa	0.044036843
22	0x3e2cf83c	0.16891569
23	0x3d8cba12	0.068714276
24	0x3de84cdc	0.11342785
25	0x3d79e888	0.061012775
26	0x3e2aa5ca	0.16664806
27	0xbda792c9	-0.08182294
28	0x3c7ff8bd	0.015623269
29	0xbda9541d	-0.082679965
30	0xbd65e409	-0.056125674
31	0xbcabde7f	-0.020980118
32	0xbde2c041	-0.11071826
33	0x3db0812a	0.08618386
34	0x3d90141c	0.070350856
35	0x3cf5ca9c	0.030003838
36	0x3de0671f	0.10957169
37	0x3e474d43	0.19463067
38	0x3d41fbbb	0.04735921
39	0x3e038093	0.12842016
40	0xbcfa9d86	-0.030592691
41	0x3e053822	0.13009694
42	0x3c31bbc9	0.010847994
43	0x3de85ff8	0.113464296
44	0x3df16d45	0.1178842
45	0x3d80ac2d	0.0628284
46	0x3d7d3add	0.061823715
47	0xbdb0ca50	-0.08632338
48	0xba41f16a	-0.0007398339
49	0xbdcfbd98	-0.10143584
50	0xbc1f0031	-0.0097046355
51	0x3bc68d5a	0.006059331
52	0xbdbcf716	-0.092268154
53	0xbdc0c295	-0.094121136
54	0xbda3b737	-0.0799393
55	0xbcb89061	-0.022529783
56	0xbca451fb	-0.020058623
57	0xbd77f864	-0.060539618
58	0x3db36d85	0.087611236
59	0xbe0e6b0f	-0.13908027
60	0x3d9ebd27	0.07750922
61	0x3e093124	0.13397652
62	0x3b81b929	0.0039588404
63	0x3d883c64	0.066521436
64	0x3cbe8ddc	0.023261003
65	0xbe1c7511	-0.15279032
66	0xbbd8cab7	-0.0066159624
67	0xbe10f8f9	-0.14157476
68	0xbcfde5c0	-0.030993342
69	0xbd9a81f7	-0.0754432
70	0xbd82cee1	-0.06387115
71	0x3d5c784c	0.05382566
72	0x3cef1c35	0.029188255
73	0x3e1e0c74	0.15434438
74	0x3dafa5ec	0.08576569
75	0xbd7350d0	-0.05940324
76	0x3cf59b48	0.02998127
77	0x3d731353	0.0593446
78	0x3dcd9f58	0.10040158
79	0x3e4c080d	0.19924946
80	0x3e11bd09	0.14232267
81	0x3d25bf1c	0.04046546
82	0xbd868b8b	-0.065695845
83	0x3d8e6869	0.069535084
84	0xbd547571	-0.051869813
85	0xbd658359	-0.056033466
86	0x3c518505	0.012788062
87	0x3c9cb52e	0.019129362
88	0x3cee9d4c	0.02912774
89	0x3df8a85a	0.121414855
90	0x3e3d3d02	0.18480304
91	0x3db0de68	0.086361706
92	0x3c746ae1	0.01491806
93	0x3e52a9ae	0.2057254
94	0x3da31bca	0.07964285
95	0x3db35a77	0.08757489
96	0x3e059811	0.1304629
97	0xbc0c25f1	-0.008553968
98	0x3d32fb74	0.043696836
99	0x3abd9ed1	0.0014466887
100	0x3cf87ea4	0.030333824
101	0x3dd7e326	0.10541372
102	0xbde993ac	-0.11405119
103	0xbdae35cc	-0.08506355
104	0xbd96f3ef	-0.073707454
105	0xbddc9c1c	-0.10771963
106	0xbcab0b72	-0.020879481
107	0xbdabc892	-0.08387865
108	0x3c26eac3	0.0101878075
109	0xbcfe637f	-0.031053303
110	0xbd769b72	-0.060206838
111	0xbb4e1592	-0.0031445962
112	0xbe1ac9ee	-0.15116093
113	0xbd30c183	-0.043153297
114	0xbde9477c	-0.11390588
115	0xbdfcf32c	-0.12351069
116	0xbdd1480f	-0.10218822
117	0x3b1fb874	0.0024371417
118	0xbda9c25b	-0.082890235
119	0x3c944f23	0.018104142
120	0xbdcf17b9	-0.101119466
121	0xbcfc1ac3	-0.03077448
122	0x3e1aa285	0.15101059
123	0xbd13e2a8	-0.036104828
124	0xbc244dbf	-0.010028302
125	0x3d449a33	0.04799862
126	0x3e462300	0.19349289
127	0x3e8ad53b	0.27115807
128	0x3e003113	0.1251872
129	0x3e49c6fb	0.19704811
130	0x3deb71f6	0.11496346
131	0x3e89c51b	0.26908192
132	0x3eb74f83	0.3580285
133	0x3e495d59	0.19664516
134	0x3e9744c4	0.29544652
135	0xbd253edf	-0.04034316
136	0xbdf02c35	-0.11727182
137	0xbdeaa8d3	-0.11457982
138	0x3d87128a	0.06595333
139	0xbda4d446	-0.080483004
140	0xbe08c491	-0.13356234
141	0xbd7b73a8	-0.061389595
142	0x3d10a4f6	0.03531357
143	0xbc4bc253	-0.012436467
144	0xbe039355	-0.12849171
145	0xbd4b1cfe	-0.049588196
146	0xbe18f372	-0.14936617
147	0xbd977626	-0.07395582
148	0xbe284c7f	-0.16435431
149	0x3cd16f27	0.025565697
150	0x3cb0de11	0.021590265
151	0x3cf046f5	0.02933071
152	0xbd551b67	-0.052028086
153	0xbd80c0e2	-0.062867895
154	0xbd88e900	-0.06685066
155	0x3d29931e	0.041400068
156	0xbe00e566	-0.12587509
157	0xbd66c7fd	-0.056343067
158	0xbd820539	-0.063486524
159	0xbdf7d349	-0.12100846
160	0xbd8daecd	-0.06918106
161	0xbde949f9	-0.11391062
162	0x3b0e3043	0.0021696247
163	0xbc0b5942	-0.008505167
164	0xbdd3d06f	-0.1034249
165	0xbe3cabb7	-0.18424879
166	0x3d9ff61a	0.07810612
167	0xbe0393c6	-0.1284934
168	0xbe0a9bdd	-0.1353602
169	0x3a41bbb7	0.00073903374
170	0xbcb7a238	-0.02241622
171	0x3c7ffa1c	0.015623596
172	0xbd935a23	-0.071949266
173	0xbc35b94b	-0.011091541
174	0x3e0407ce	0.12893602
175	0xbc8d14cd	-0.017221833
176	0x3cf85bac	0.03031715
177	0x3cdf2b16	0.027242225
178	0xbd8b3324	-0.06796864
179	0xbdd0136f	-0.10159957
180	0x3ca2c150	0.01986757
181	0xbd795795	-0.06087454
182	0x3d2311bf	0.039811846
183	0x3df87f58	0.12133664
184	0xbca1a094	-0.01972989
185	0xbcf7adf0	-0.030234307
186	0xbb8893d0	-0.0041680112
187	0x3dd0c1e3	0.10193231
188	0x3ddce8db	0.10786601
189	0xbc34cf4e	-0.011035753
190	0xbcbe7814	-0.023250617
191	0x3cf46a89	0.029835956
192	0xbcd9525e	-0.026528534
193	0xbd4eb5d3	-0.05046637
194	0x3dbc19a3	0.09184577
195	0x3c43afba	0.011943752
196	0x3ccb917f	0.024849651
197	0xbcd99124	-0.026558466
198	0xbe7731d7	-0.24140106
199	0xbe0d2fc6	-0.13787755
200	0x3b0031b5	0.0019560878
201	0xbe4d8cf4	-0.200733
202	0xbdb6a91d	-0.089189745
203	0x3c59940d	0.013279927
204	0xbd7ea414	-0.062168196
205	0xbdab6611	-0.08369077
206	0xbe22adb5	-0.15886576
207	0x3d0ae19e	0.03390657
208	0x3ba833af	0.0051331143
209	0x3e3f082e	0.18655464
210	0x3e0ccfb4	0.13751107
211	0x3ca5ca16	0.020237964
212	0x3d87477f	0.06605434
213	0x3d99aace	0.075032815
214	0x3d4a04da	0.049321033
215	0x3d9b8ba6	0.07594995
216	0x3d12bc19	0.035823915
217	0xbe1c95f9	-0.15291585
218	0xbe10e37e	-0.14149281
219	0xbde1e597	-0.11030119
220	0xbb2b3a75	-0.0026127372
221	0xbc9f5404	-0.019449241
222	0xbdc05368	-0.093909085
223	0xbd9e5a8d	-0.07732115
224	0x3d30c5fd	0.043157566
225	0x3cf1f79d	0.029537017
226	0xbd1f4f8f	-0.038894232
227	0x3d8f69d1	0.07002605
228	0x3d2241e4	0.03961362
229	0x3d2f6804	0.042823806
230	0xbd6abd69	-0.05730954
231	0x3d9cd114	0.07657066
232	0xbdf21c05	-0.118217506
233	0x3d4dff75	0.05029245
234	0xbca12c73	-0.019674515
235	0xbd3cee00	-0.046125412
236	0xbd7d4b23	-0.061839234
237	0xbdf486b5	-0.11939756
238	0xbd8c6b2e	-0.068563804
239	0xbdcc5e74	-0.09978953
240	0xbd20e693	-0.039282393
241	0xbe34d640	-0.17659855
242	0xbd0ca9d4	-0.03434165
243	0x3d3675bc	0.044545874
244	0x3d988d7d	0.07448862
245	0x3dfeb3cd	0.12436638
246	0x3e0842a7	0.13306676
247	0xbcbd3bab	-0.023099741
248	0x3d614bfe	0.055004112
249	0x3c95cda8	0.018286541
250	0xbd5b637b	-0.05356167
251	0x3d713a40	0.058893442
252	0x3e193ec2	0.14965346
253	0x3e315229	0.17316498
254	0x3e16cafa	0.14725867
255	0x3dc64003	0.09680178

AmpNet.0.conv0.1.spatial_process.block.0.bias f4 [8]
0	0xbcd0535c	-0.025430374
1	0x3e103034	0.14080888
2	0xbe0be252	-0.13660553
3	0xbd7e6294	-0.06210573
4	0xbd86f73b	-0.06590124
5	0x3cac1814	0.021007575
6	0x3ddd5bb1	0.108085044
7	0xbc57d5bd	-0.013173518

AmpNet.0.conv0.1.spatial_process.block.2.weight f4 [8, 8, 3, 3]
0	0x3d96da4c	0.073658556
1	0xbdc64f1a	-0.09683056
2	0x3d958236	0.073002264
3	0x3dbfc639	0.0936398
4	0x3b489254	0.0030604796
5	0xbdc0ccb9	-0.09414048
6	0x3ac25cc0	0.0014828667
7	0xbd826061	-0.06366039
8	0xbc1e19fa	-0.009649748
9	0xbd868404	-0.06568149
10	0x3c2c0228	0.010498561
11	0x3d9a7c1a	0.07543202
12	0xbc61f0d5	-0.013790329
13	0xbdb18189	-0.08667285
14	0x3d67d09e	0.056595437
15	0x3d7cbeb5	0.06170531
16	0xbd9bbfa0	-0.07604909
17	0x3ceefe3e	0.029173966
18	0x3de78e8a	0.11306484
19	0x3def6ce4	0.11690691
20	0x3d7d0f34	0.061782077
21	0x3d87d3b4	0.06632176
22	0x3e32b0c4	0.17450243
23	0x3dc5928a	0.09647091
24	0xbc822492	-0.015886579
25	0x3e1d0e04	0.15337378
26	0xbd28d9a8	-0.0412232
27	0xbe1e012c	-0.15430135
28	0x3c41ab1d	0.011820582
29	0xbbb9ad24	-0.005666392
30	0xbd800211	-0.06250394
31	0x3d93845a	0.072029784
32	0xbe05d5de	-0.13069865
33	0xbe4bff5d	-0.19921632
34	0xbc18ada6	-0.009318745
35	0xbe1d5206	-0.1536332
36	0x3d5c929a	0.053850748
37	0xbd0a4a06	-0.033762
38	0x3ce72eab	0.028220495
39	0xbc84029d	-0.016114527
40	0xbdbad546	-0.0912271
41	0xbd4766c7	-0.048682
42	0xbdfe31e7	-0.12411862
43	0xbb8b0db8	-0.0042435788
44	0xbbad7927	-0.0052939835
45	0x3d6c5f41	0.05770803
46	0x3dbd9473	0.0925683
47	0x3cb120bc	0.021622054
48	0xbc1c8a09	-0.0095543945
49	0x3da14891	0.07875169
50	0xbd238dca	-0.039930142
51	0xbc78e525	-0.015191351
52	0x3da8c525	0.08240727
53	0x3df4d0ab	0.11953863
54	0x3d13d7a4	0.036094323
55	0x3c4bbdd3	0.012435394
56	0x3d07424f	0.03302222
57	0xbe2c2ec0	-0.16814709
58	0xbdfc8d13	-0.12331595
59	0xbdef0baa	-0.116721466
60	0x3cdd71ae	0.027031746
61	0x3d4b5105	0.049637813
62	0x3dac32a3	0.08408096
63	0xbde1e564	-0.11030081
64	0xbd348b5d	-0.04407822
65	0x3d0486c6	0.032355092
66	0x3d185947	0.037194517
67	0x3d8a324c	0.067478746
68	0xbd923d1d	-0.07140563
69	0x3aa5c18f	0.0012646186
70	0x3d91397d	0.07091043
71	0xbd929815	-0.071579136
72	0x3e0fdddf	0.14049481
73	0xbd0d90bb	-0.034561854
74	0x3cf68764	0.030093856
75	0x3d9b65ed	0.075878
76	0xbe1ebb96	-0.15501246
77	0xbd78c9fc	-0.060739502
78	0xbca4e23e	-0.020127412
79	0x3d17c536	0.03705331
80	0xbd9d10c5	-0.07669214
81	0x3d30d6a4	0.043173447
82	0xbe1ad71e	-0.15121123
83	0xbd56371f	-0.05229866
84	0xbdcf4b5c	-0.101217955
85	0x3dfca5cb	0.1233631
86	0x3d2983f0	0.04138559
87	0xbd8f00bf	-0.06982564
88	0x3dca11a3	0.09866645
89	0x3d50b982	0.050958164
90	0x3dc94672	0.098278895
91	0x3de0adac	0.10970625
92	0x3e051037	0.12994467
93	0x3cce6650	0.02519527
94	0x3e01f4b4	0.12691003
95	0x3d8574c3	0.06516411
96	0x3df84f0f	0.12124454
97	0xbd24a3d4	-0.0401953
98	0x3db05f5f	0.086119406
99	0xbd886c5a	-0.066612914
100	0x3d1edd1f	0.038785096
101	0xbe0b5c30	-0.13609385
102	0xbe41de1b	-0.18932383
103	0xbdb0a076	-0.086243555
104	0x3cb60752	0.022220287
105	0x3c513b8d	0.012770546
106	0x3dc5f616	0.09666078
107	0x3d2cc0c1	0.042176012
108	0x3d12a32a	0.035800137
109	0x3cafc6b9	0.021457063
110	0xbe0a5bd9	-0.135116
111	0xbd959689	-0.07304103
112	0x3bd59bde	0.006518825
113	0x3c013992	0.007887261
114	0xbdde184a	-0.108444765
115	0x3db223a9	0.08698208
116	0x3e0cd841	0.1375437
117	0xbd49dba9	-0.04928175
118	0xbd75840e	-0.05994039
119	0xbd6dae15	-0.058027346
120	0xbd79b195	-0.06096037
121	0x3e0790ae	0.13238785
122	0x3e183301	0.14863206
123	0x3e2ff29b	0.1718239
124	0xbc40002e	-0.011718793
125	0x3c920601	0.017825129
126	0xbd4180b1	-0.04724187
127	0x3d45381a	0.048149206
128	0xbd77c5ed	-0.06049149
129	0xbe1880d4	-0.14892894
130	0xbe64e1d1	-0.22351767
131	0xbe1e8dab	-0.1548373
132	0xbcc6f3d8	-0.024286196
133	0xbd4b13cf	-0.049579438
134	0x3e22d6fc	0.15902323
135	0x3a7d4646	0.00096616556
136	0xbce68a7a	-0.028142203
137	0xbd0a800e	-0.03381353
138	0xbe03436f	-0.12818693
139	0x3d4e2103	0.05032445
140	0x3e4fbcd1	0.20286871
141	0xbe4c79dc	-0.1996836
142	0x3e26aa79	0.16275968
143	0x3b86ab89	0.004109804
144	0xbd7ae6df	-0.061255332
145	0xbe4384ef	-0.19093679
146	0xbdc4fa47	-0.09618049
147	0xbe22e512	-0.15907696
148	0x3bc2136b	0.005922725
149	0x3d80e6df	0.06294035
150	0xbdba59e6	-0.09099178
151	0x3d9a87e7	0.075454526
152	0x3bd6d698	0.0065563433
153	0x3db0bdbb	0.08629938
154	0x3e827653	0.254809
155	0xbc86317d	-0.01638102
156	0x3e782a86	0.24234971
157	0xbc02e9c6	-0.007990306
158	0x3db91ffb	0.09039303
159	0x3e64cbab	0.22343318
160	0x3e2bf5b0	0.16792941
161	0x3dcb89a0	0.09938359
162	0x3e6a36bf	0.22872446
163	0x3bc8f5eb	0.0061328313
164	0x3e182975	0.14859565
165	0x3e37ab95	0.17936547
166	0x3deced82	0.115687385
167	0x3dc510b5	0.09622327
168	0x3def8a07	0.116962485
169	0x3dc2aee7	0.09506016
170	0xbc12dec8	-0.008964248
171	0xbc9ddc07	-0.019269956
172	0x3e2ecd9a	0.17070618
173	0x3daa27d2	0.08308376
174	0xbcafd5fe	-0.021464344
175	0x3d9bba45	0.076038875
176	0x3becad2d	0.0072227926
177	0x3da8e46a	0.082466915
178	0x3e02838c	0.12745494
179	0x3cd00e63	0.025397485
180	0x3d8ae75d	0.0678241
181	0x3dd5e37c	0.1044378
182	0x3d23294d	0.03983431
183	0x3c1ad98e	0.009451283
184	0x3e16a92b	0.1471297
185	0x3ddc5994	0.10759273
186	0xbbbb3979	-0.0057136384
187	0x3dc7125e	0.097203
188	0x3d9cf7dc	0.07664463
189	0x3e16e5ee	0.14736149
190	0x3db12756	0.08650081
191	0x3d4c4ae2	0.0498761
192	0xbcfd03fa	-0.030885685
193	0xbded3fe4	-0.11584452
194	0xbdfd29bd	-0.123614766
195	0xbddf749a	-0.10910912
196	0x3c9d5884	0.019207247
197	0xbcda91b0	-0.026680797
198	0xbd8b9efc	-0.06817433
199	0x3c5fef29	0.01366786
200	0xbe072df2	-0.1320112
201	0xbe3dc6b6	-0.18532833
202	0x3e2dae73	0.16961078
203	0xbe1ec0ed	-0.15503283
204	0x3e7a1ea1	0.24425747
205	0x3d59518b	0.05305628
206	0x3dc7dde8	0.09759122
207	0x3db172a6	0.086644456
208	0x3dec0a6b	0.115254246
209	0x3d0c8136	0.034302913
210	0x3dbd4a31	0.092426665
211	0x3dfa02d0	0.12207568
212	0xbdcb51a4	-0.09927681
213	0x3e41f222	0.18940023
214	0xbd924ce5	-0.07143573
215	0xbe082e3a	-0.13298884
216	0xbdeb2d52	-0.114832535
217	0xbdb3cf7e	-0.0877981
218	0xbdf03198	-0.11728209
219	0x3cbeddc6	0.02329911
220	0x3daf0ff4	0.08547965
221	0xbd86d20f	-0.06583034
222	0xbcdae8c3	-0.026722318
223	0x3bd5080f	0.006501205
224	0xbd41cd27	-0.04731479
225	0xbd829a2a	-0.06377061
226	0xbe404888	-0.18777668
227	0xba7c71b6	-0.00096299814
228	0xbe9337eb	-0.287536
229	0xbe1ad9fb	-0.15122215
230	0xbb91165a	-0.0044277133
231	0xbe1506f6	-0.14553437
232	0xbe5465e6	-0.20741996
233	0xbe135cd5	-0.14390881
234	0x3cadeb70	0.02123043
235	0x3d8c310f	0.06845295
236	0x3d98b88a	0.07457073
237	0x3e01c87c	0.12674135
238	0x3dc304a7	0.09522372
239	0xbd53274c	-0.05155115
240	0x3d76d6c4	0.06026341
241	0x3e0a1a34	0.13486558
242	0xbd4d56e2	-0.050131686
243	0x3e0b571c	0.13607448
244	0x3b934fc9	0.004495595
245	0xbd1bf5db	-0.038076263
246	0x3df26dbe	0.11837338
247	0x3e0fad23	0.1403089
248	0x3d888a82	0.06667043
249	0xbd4ec19e	-0.050477616
250	0x3ab8f4e6	0.0014111071
251	0x3dc1efdf	0.0946958
252	0xbcd8fbe0	-0.02648729
253	0xbe0eb0d5	-0.13934644
254	0x3d06d85b	0.032921176
255	0xbdba71f1	-0.09103764

AmpNet.0.conv0.1.spatial_process.block.2.bias f4 [8]
0	0xbd721dd7	-0.05911049
1	0x3cfd048b	0.030885955
2	0xbdae107a	-0.084992364
3	0xbdd7f600	-0.10544968
4	0x3c98ad3f	0.018637298
5	0x3e00839d	0.12550206
6	0x3dc5dd18	0.09661311
7	0x3c04e825	0.008111988

AmpNet.0.conv0.1.frequency_process.fpre.weight f4 [8, 8, 1, 1]
0	0xbe0705c1	-0.13185789
1	0xbe5754b1	-0.21028401
2	0xbe4ca8a2	-0.19986203
3	0x3e5bafd0	0.21453786
4	0xbd56972e	-0.05239027
5	0xbd2a2e1c	-0.04154788
6	0x3e6a599f	0.2288575
7	0x3d889ba3	0.0667031
8	0xbeab759c	-0.33488166
9	0xbed88e29	-0.4229596
10	0x3d19ee52	0.037580796
11	0xbdfc55c3	-0.12321045
12	0xbe80cb1c	-0.2515496
13	0xbebe34b3	-0.3714958
14	0x3e1aded5	0.15124066
15	0xbe7a2974	-0.24429876
16	0xbe4f981f	-0.20272873
17	0x3e21180f	0.15731834
18	0xbdd6403f	-0.10461473
19	0xbd31b6e6	-0.043387316
20	0x3df43be6	0.11925487
21	0xbe63d0d8	-0.22247636
22	0x3d99df5c	0.075133055
23	0xbea6fb1a	-0.3261345
24	0x3ea56ec6	0.32311076
25	0x3f093448	0.535954
26	0xbe406326	-0.18787822
27	0x3ebe2b5f	0.37142465
28	0x3d5e84cc	0.054325864
29	0xbd5af95b	-0.05346046
30	0x3e2ded65	0.1698509
31	0xbd311ed9	-0.04324231
32	0x3d2a350f	0.041554507
33	0x3e7d5b22	0.24741796
34	0x3e7751d4	0.24152309
35	0x3dda303e	0.10653733
36	0x3e3e7e34	0.1860283
37	0xbd0811ca	-0.03322009
38	0xbe250a00	-0.16117096
39	0xbe43c25e	-0.19117114
40	0xbe9d0572	-0.30668217
41	0xbe7d465c	-0.24733871
42	0x3ea3e462	0.3201018
43	0x3e5df36a	0.21674886
44	0x3dc2002c	0.09472689
45	0xbea5ed79	-0.3240774
46	0x3e8a9dbc	0.27073467
47	0xbec26d4b	-0.3797401
48	0x3d76820d	0.06018262
49	0xbe364927	-0.17801343
50	0x3e79ee65	0.24407347
51	0x3e404462	0.18776086
52	0xbd1a4e9d	-0.037672628
53	0x3e8cf3c9	0.27529743
54	0x3e2ea816	0.17056307
55	0xbe3737d2	-0.17892388
56	0x3e2fe8cd	0.1717865
57	0x3e8e1457	0.27749893
58	0xbe916e21	-0.28404334
59	0x3e491a27	0.19638883
60	0xbdf05f86	-0.1173697
61	0xbe1bcad9	-0.15214099
62	0x3dc98548	0.098398745
63	0x3ec1bec1	0.37840846

AmpNet.0.conv0.1.frequency_process.fpre.bias f4 [8]
0	0x3d60812d	0.05481069
1	0xbe93c8b4	-0.28864062
2	0x3deb297f	0.11482524
3	0xbd7f5706	-0.06233885
4	0xbcefc501	-0.029268743
5	0xbea05411	-0.31314138
6	0x3dde1a8c	0.10844907
7	0xbd1eb0ba	-0.03874276

AmpNet.0.conv0.1.frequency_process.process1.0.weight f4 [8, 8, 1, 1]
0	0xbe646388	-0.22303593
1	0xbe9490be	-0.2901668
2	0x3e8e340c	0.27774084
3	0x3eb74719	0.3579643
4	0x3e4a4d29	0.19755997
5	0xbd17099e	-0.036874406
6	0x3e3409f7	0.17581926
7	0xbdf539ae	-0.11973892
8	0x3eb0cd1a	0.3453148
9	0xbdd8d323	-0.10587146
10	0x3e45ad8c	0.19304484
11	0x3e25e278	0.16199672
12	0xbdd8698a	-0.10567005
13	0x3cb84169	0.022492127
14	0xbea9dbb6	-0.3317544
15	0x3f098280	0.5371475
16	0x3e49da47	0.19712172
17	0x3d812fd3	0.0630795
18	0xbe446741	-0.19180013
19	0xbdc95bc8	-0.09831959
20	0x3e1aee50	0.15129972
21	0x3e015fe1	0.12634231
22	0xbd79d2c0	-0.060992002
23	0xbe7c588c	-0.24643153
24	0xbe4c0c4a	-0.19926563
25	0xbd697118	-0.05699262
26	0xbeb29727	-0.34880945
27	0xbe60d1fa	-0.219551
28	0xbe172544	-0.1476031
29	0x3db068c0	0.086137295
30	0xbd1ae942	-0.03782011
31	0xbed724dc	-0.4202031
32	0x3e92dd46	0.28684443
33	0x3e3c8b4c	0.18412513
34	0xbe7a8083	-0.24463086
35	0x3e8d9d80	0.27659225
36	0x3dffd735	0.12492219
37	0x3ecb4de4	0.39707863
38	0x3e2aca22	0.1667867
39	0xbdeaaedc	-0.11459133
40	0x3c83e1a4	0.016098805
41	0xbd453aa5	-0.04815163
42	0xbdc08c4b	-0.09401759
43	0x3ebb2cc3	0.36557588
44	0x3f052260	0.5200558
45	0xbda08836	-0.0783848
46	0xbe54e1c0	-0.20789242
47	0xbe37d59c	-0.1795258
48	0xbe82c8bd	-0.25543776
49	0x3e848d9a	0.25889283
50	0x3e82f931	0.25580743
51	0x3edc16f5	0.42986265
52	0x3dbe09e8	0.09279233
53	0xbe18cfb6	-0.14922985
54	0xbe9e888b	-0.3096355
55	0x3e639315	0.22224076
56	0x3e511f9a	0.20422211
57	0x3dcc6d76	0.099818155
58	0xbe69c4f2	-0.22829035
59	0x3e7631f1	0.24042489
60	0x3d138a7e	0.03602075
61	0xbdecd6d2	-0.11564411
62	0xbeb3f696	-0.35149068
63	0x3e35bd4d	0.17747994

AmpNet.0.conv0.1.frequency_process.process1.0.bias f4 [8]
0	0xbddb6a23	-0.10713603
1	0x3d9390ee	0.072053775
2	0x3e34ca32	0.17655256
3	0x3ef78a9b	0.48347935
4	0xbd7ba1dc	-0.061433658
5	0xbdd17107	-0.102266364
6	0xbe897503	-0.26847085
7	0xbf0714cb	-0.527661

AmpNet.0.conv0.1.frequency_process.process1.2.weight f4 [8, 8, 1, 1]
0	0x3e5b149a	0.21394578
1	0xbedcec3b	-0.4314898
2	0x3d270cdf	0.04078376
3	0x3ed949a6	0.42439002
4	0xbe9ab558	-0.3021648
5	0x3ed001fe	0.4062652
6	0x3d161a68	0.036646277
7	0xbe86bf99	-0.26318052
8	0xbdb745d6	-0.08948867
9	0xbe2cf166	-0.16888961
10	0x3e459c21	0.1929784
11	0x3f029905	0.5101474
12	0xbeabd007	-0.3355715
13	0x3eb948db	0.36188397
14	0xbc580bfc	-0.013186451
15	0x3e21f4ee	0.1581609
16	0xbe00a009	-0.12561049
17	0x3e7bafcf	0.24578784
18	0x3e9864c5	0.2976438
19	0x3e548d29	0.20756973
20	0xbd046f7d	-0.032332886
21	0x3bc19d84	0.00590867
22	0x3eb5e4b7	0.35526058
23	0x3e08e3aa	0.13368097
24	0xbd46b246	-0.04850986
25	0x3ea7333b	0.32656273
26	0xbddc3140	-0.10751581
27	0x3ef7c6ab	0.4839376
28	0xbd1d9b8d	-0.038478423
29	0xbe57320e	-0.21015188
30	0xbe9241d8	-0.2856586
31	0x3e490d94	0.19634086
32	0x3d0db858	0.034599632
33	0x3e53b3f3	0.20674114
34	0xbdc8df77	-0.098082475
35	0xbef2f274	-0.47450602
36	0x3e10c633	0.14138107
37	0x3e3e8511	0.18605448
38	0xbe2bfa34	-0.16794664
39	0xbe18c953	-0.14920549
40	0xbe85219b	-0.260022
41	0x3e7bf612	0.24605587
42	0x3c50585b	0.012716378
43	0xbdb32811	-0.087478764
44	0xbe1de6a8	-0.1542002
45	0x3cb098ab	0.021557173
46	0xbe59bdf1	-0.21263863
47	0xbe2fdbd5	-0.17173703
48	0x3e924ac6	0.28572673
49	0xbec457cb	-0.3834823
50	0x3d904dc3	0.07046082
51	0xbdaff687	-0.08591943
52	0xbd21ce55	-0.039503414
53	0x3e94beb7	0.29051754
54	0x3e4919ab	0.19638698
55	0x3ea6b197	0.32557365
56	0xbe048c74	-0.12944204
57	0x3e2fcfa0	0.17169046
58	0x3e087b00	0.13328171
59	0xbeb1f6c8	-0.34758592
60	0x3c6b43c8	0.014359422
61	0x3db12096	0.086487934
62	0xbd7bbf8e	-0.061461978
63	0x3ebdee5b	0.37095913

AmpNet.0.conv0.1.frequency_process.process1.2.bias f4 [8]
0	0x3e2c80e9	0.1684605
1	0x3e952986	0.29133242
2	0xbe047213	-0.12934141
3	0x3e06f200	0.13178253
4	0xbe6edb98	-0.23325956
5	0x3e9e9311	0.30971578
6	0x3e167458	0.14692819
7	0xbea73bdc	-0.32662857

AmpNet.0.conv0.1.frequency_process.process2.0.weight f4 [8, 8, 1, 1]
0	0xbcb5e4fb	-0.022203913
1	0xbecc543d	-0.3990802
2	0xbcb2a4d4	-0.021807112
3	0xbe99f11c	-0.30066764
4	0xbdf75f87	-0.12078767
5	0xbeb6b109	-0.35681942
6	0x3e008ada	0.12552968
7	0x3de58008	0.11206061
8	0x3d3f053d	0.046635855
9	0xbe2c8600	-0.16847992
10	0x3d2d6547	0.042332914
11	0x3e83fe75	0.25780073
12	0x3e32c197	0.17456661
13	0xbe9dcd80	-0.30820847
14	0x3e23ab07	0.1598321
15	0x3e6778c8	0.22604668
16	0x3d136527	0.03598514
17	0x3d7b44c9	0.061344896
18	0x3ecc2e89	0.39879254
19	0xbe856f66	-0.26061553
20	0xbccb5516	-0.024820846
21	0xbbd37b56	-0.006453912
22	0x3c3af7de	0.011411635
23	0xbd0d418b	-0.034486335
24	0xbea1f257	-0.31630203
25	0xbe650a35	-0.22367175
26	0x3e04c4e8	0.12965739
27	0xbd9c9fce	-0.07647668
28	0xbea7923c	-0.32728755
29	0xbef23088	-0.4730265
30	0xbd7e974a	-0.062156
31	0xbe9ab518	-0.3021629
32	0xbe10a93d	-0.1412706
33	0xbecaeab6	-0.39632195
34	0x3ed13af1	0.4086528
35	0xbe048859	-0.12942638
36	0x3ea2434a	0.31691962
37	0xbd36ff20	-0.0446769
38	0xbe8afd7d	-0.2714652
39	0xbd3c126e	-0.045916013
40	0xbb5c21d1	-0.0033589492
41	0x3e155c50	0.14585996
42	0xbe90c772	-0.28277165
43	0x3d19fd2b	0.037594955
44	0x3d816493	0.06318011
45	0xbd509d1f	-0.050931092
46	0x3decf38b	0.1156989
47	0x3e748b82	0.23881343
48	0xbee1fd9a	-0.44138795
49	0xbdde5b74	-0.10857287
50	0xbe3b5277	-0.18293177
51	0xbc64e017	-0.013969443
52	0x3ec4c798	0.38433528
53	0x3e0dcfa6	0.13848743
54	0xbe16c3ff	-0.14723204
55	0xbe8b8d8a	-0.27256423
56	0xbc59b10a	-0.013286838
57	0x3d97269d	0.07380412
58	0xbe4b9309	-0.19880308
59	0xbe3807ec	-0.17971772
60	0xbec02166	-0.3752548
61	0xbde605f2	-0.11231603
62	0xbd4c4266	-0.04986801
63	0x3e88740f	0.26651046

AmpNet.0.conv0.1.frequency_process.process2.0.bias f4 [8]
0	0x3df13594	0.11777797
1	0x3d95d0cc	0.073152155
2	0x3e0af3af	0.1356952
3	0xbc975766	-0.018474292
4	0xbd648342	-0.05578924
5	0x3e493991	0.19650866
6	0xbea05b4f	-0.31319663
7	0xbe4876bb	-0.19576542

AmpNet.0.conv0.1.frequency_process.process2.2.weight f4 [8, 8, 1, 1]
0	0xbcdc812f	-0.026917068
1	0x3e483b26	0.19553813
2	0xbca39232	-0.019967172
3	0x3e14a51e	0.14516112
4	0xbd30d177	-0.04316851
5	0xbe5c3f61	-0.21508552
6	0x3ef8f789	0.48626354
7	0xbd94ad62	-0.07259633
8	0xbe7b7664	-0.24556881
9	0x3e25d594	0.16194755
10	0x3e6eba05	0.23313148
11	0x3d0c3673	0.034231614
12	0x3cf59f57	0.029983206
13	0x3e5f566b	0.2181031
14	0x3c8f9256	0.017525833
15	0x3ec5a96f	0.3860583
16	0xbef5d831	-0.48016503
17	0x3d9d2f3c	0.07675025
18	0x3e455ed6	0.19274458
19	0xbed27799	-0.4110687
20	0xbec3d85c	-0.38251007
21	0x3e8bb185	0.27283874
22	0xbe947f1e	-0.29003233
23	0xbea32119	-0.3186119
24	0xbd6cd585	-0.057820816
25	0xbc1a8853	-0.009431916
26	0x3d66389a	0.056206323
27	0xbd910810	-0.07081616
28	0x3e92313a	0.28553182
29	0x3bcb5345	0.006204995
30	0x3d985164	0.07437399
31	0x3cf1b932	0.029507253
32	0x3eb9d543	0.36295518
33	0x3bbfcd88	0.0058533587
34	0x3e38fd9a	0.18065491
35	0xbe577d09	-0.21043791
36	0x3eba4644	0.36381733
37	0xbe3caff1	-0.18426491
38	0x3ecb54a2	0.39713007
39	0x3bed4498	0.007240843
40	0x3d535b89	0.051600967
41	0xbe5d3802	-0.21603397
42	0xbe140435	-0.1445473
43	0x3ea2ffac	0.31835687
44	0xbd513f3c	-0.051085696
45	0x3ea5d3cf	0.3238816
46	0xbe51d520	-0.20491457
47	0x3d54dcc2	0.051968344
48	0xbe652cf8	-0.22380435
49	0x3e115762	0.1419349
50	0x3dd3f784	0.10349944
51	0x3e79a115	0.24377854
52	0x3e7cf881	0.24704172
53	0x3cd7e17d	0.026352638
54	0xbe95e045	-0.29272667
55	0xbdbff060	-0.0937202
56	0xbe7bd895	-0.24594338
57	0x3ed99693	0.42497692
58	0x3e1a34de	0.1505923
59	0xbe2c3211	-0.16815974
60	0xbe94ca2d	-0.29060498
61	0xbe894586	-0.26810855
62	0xbe64ce8a	-0.22344413
63	0xbec97b13	-0.3935171

AmpNet.0.conv0.1.frequency_process.process2.2.bias f4 [8]
0	0x3d3044e9	0.043034468
1	0xbe6063d1	-0.21913077
2	0xbea35ad6	-0.3190524
3	0xbc9daa67	-0.019246293
4	0xbeab504f	-0.33459708
5	0x3c32b661	0.01090774
6	0x3e2ad20f	0.16681693
7	0xbe9892f4	-0.29799616

AmpNet.0.conv0.1.cat.weight f4 [8, 16, 1, 1]
0	0x3d15bc57	0.036556568
1	0x3e627844	0.2211619
2	0xbde46106	-0.11151318
3	0xbe1bd70d	-0.15218754
4	0xbd294962	-0.04132975
5	0xbded27ad	-0.11579833
6	0x3e957386	0.291897
7	0x3d6890aa	0.056778587
8	0x3cd43c40	0.025907636
9	0x3db4fe0c	0.08837518
10	0x3e792e6a	0.24334112
11	0x3e18534e	0.14875528
12	0xbe4d7817	-0.20065342
13	0x3b58bb33	0.0033070564
14	0xbc5cbb1f	-0.0134723475
15	0x3c020fad	0.007938308
16	0x3e142dc8	0.14470589
17	0xbd85283e	-0.06501816
18	0x3e3b4f64	0.18292004
19	0x3db3b0ee	0.08773981
20	0x3dd41231	0.10355032
21	0xbd7e8e63	-0.06214751
22	0x3e8e2e62	0.27769762
23	0x3dde59cd	0.10856972
24	0x3e2c29bc	0.16812795
25	0xbe2e97f7	-0.17050157
26	0x3c67e4d2	0.014153676
27	0x3da068d5	0.07832495
28	0xbe7960dc	-0.24353355
29	0xbe5ab4a3	-0.2135797
30	0x3df614f3	0.120157145
31	0xbdaaee9e	-0.08346294
32	0xbd66fc66	-0.05639305
33	0x3e6b8dd9	0.2300333
34	0x3e584dd4	0.21123439
35	0xbe4f919f	-0.20270394
36	0x3d87e9c7	0.06636386
37	0x3e5c9afb	0.21543495
38	0xbdad947f	-0.08475589
39	0xbe871959	-0.26386526
40	0x3e1a56db	0.15072195
41	0x3dafdd0b	0.085870825
42	0x3ceeb17d	0.029137367
43	0xbe5119cf	-0.20420001
44	0x3e9d27cc	0.30694425
45	0xbde3b574	-0.11118594
46	0x3e0ae651	0.13564421
47	0x3cb854d5	0.022501389
48	0xbe15291c	-0.14566463
49	0xbe6f63a8	-0.2337786
50	0xbe482841	-0.19546606
51	0x3ded23bf	0.11579084
52	0xbdefe854	-0.11714235
53	0xbe1ffc9f	-0.15623711
54	0xbe3279a8	-0.1742922
55	0x3d89e475	0.06733028
56	0xbe3f0240	-0.18653202
57	0x3de17f58	0.11010617
58	0x3e2790fd	0.16363902
59	0xbbf790fa	-0.0075551243
60	0xbe73f971	-0.23825623
61	0xbe03ab82	-0.12858394
62	0x3dcab138	0.09897083
63	0x3e9d5a89	0.30733135
64	0xbc7dd2ea	-0.01549218
65	0xbdbb997f	-0.091601364
66	0xbe35aedc	-0.17742485
67	0xbcbbc4b7	-0.02292095
68	0xbd2cf46e	-0.042225294
69	0x3e6e1dad	0.23253508
70	0xbe642b97	-0.22282253
71	0x3dc4b4ca	0.09604795
72	0x3e4bb84e	0.19894525
73	0x3eb6c7c6	0.3569929
74	0x3e2b61a7	0.1673647
75	0xbd83a7fd	-0.064285256
76	0x3df4c7e5	0.11952189
77	0x3c0628fb	0.008188481
78	0x3e4419f2	0.19150522
79	0xbe3ad00e	-0.18243429
80	0x3df57a8a	0.11986263
81	0x3e456643	0.19277291
82	0xbda93efd	-0.08263967
83	0xbd8e49e7	-0.069476895
84	0xbe92bcea	-0.28659755
85	0xbe20e6a5	-0.15712984
86	0xbe2e461b	-0.1701893
87	0xbe13c262	-0.1442962
88	0x3e7a5ecd	0.24450226
89	0x3ea80b24	0.32821
90	0xbe67112c	-0.22565144
91	0xbe1b1e34	-0.1514824
92	0xbdb0c07d	-0.08630464
93	0x3d0c0cdd	0.034191955
94	0x3e443186	0.19159517
95	0x3ca868eb	0.020557841
96	0x3dcbd86d	0.09953389
97	0x3d8639be	0.06553982
98	0xbdb92271	-0.09039772
99	0xbc246390	-0.010033503
100	0x3cf1fd3a	0.029539693
101	0xbe1c1734	-0.15243226
102	0xbe26e235	-0.16297229
103	0x3daea061	0.085266836
104	0xbe00a87a	-0.12564269
105	0xbdcf285e	-0.10115121
106	0x3e7d647b	0.24745362
107	0xbdcfb5ee	-0.10142122
108	0x3e0de820	0.1385808
109	0xbe61b40a	-0.22041336
110	0xbe625d51	-0.2210591
111	0x3dae33a6	0.08505945
112	0x3dcecb39	0.100973554
113	0xbd694253	-0.056948017
114	0x3e933b91	0.28756383
115	0x3d3f51b7	0.04670879
116	0x3e344857	0.1760572
117	0x3d9ef871	0.0776223
118	0x3c4a6b7d	0.012354729
119	0xbe34ae25	-0.17644556
120	0x3e3c26c7	0.18374167
121	0xbd90e5b6	-0.07075064
122	0x3e81aa5d	0.2532529
123	0xbe4cd30e	-0.20002386
124	0xbd111966	-0.035424612
125	0xbe85e176	-0.26148576
126	0x3db540cd	0.088502504
127	0x3e2fadcc	0.17156142

AmpNet.0.conv0.1.cat.bias f4 [8]
0	0x3e16f1fc	0.14740747
1	0x3e2e5ac9	0.1702682
2	0xbe4a6111	-0.1976359
3	0x3da50940	0.08058405
4	0xbe23c4a7	-0.15992986
5	0xbe39c2b7	-0.18140684
6	0x3dee9ca2	0.11650969
7	0xbd39c8a3	-0.045357358

AmpNet.0.conv1.spatial_process.block.0.weight f4 [8, 8, 3, 3]
0	0xbdb15941	-0.08659602
1	0xbd2d72c9	-0.042345796
2	0x3dde61e3	0.10858514
3	0x3cb4da6b	0.022076806
4	0xbd73179e	-0.059348695
5	0x3d705f4b	0.05868463
6	0x3dc64c41	0.09682513
7	0x3d039846	0.03212764
8	0x3db5127a	0.08841415
9	0x3d833620	0.06406808
10	0x3d2e0ba7	0.04249158
11	0xbd2a7659	-0.04161677
12	0x3d0c3bb6	0.034236632
13	0x3ced9226	0.029000353
14	0xbdf35beb	-0.11882766
15	0x3dae1d0c	0.08501634
16	0x3da21347	0.07913833
17	0x3dc1d0a9	0.09463627
18	0x3e208060	0.15673971
19	0x3e2d0259	0.16895427
20	0x3c700bfa	0.014651293
21	0x3dd16d24	0.10225895
22	0x3e1a375c	0.1506018
23	0xbd6304a0	-0.055424333
24	0xbc93f786	-0.018062364
25	0x3e062e85	0.13103683
26	0x3c808566	0.01568861
27	0xbe5a69f8	-0.21329486
28	0xbe4fa2f6	-0.20277008
29	0xbe031166	-0.12799606
30	0xbe5ac396	-0.21363673
31	0xbe12a790	-0.14321733
32	0xbdb777e6	-0.08958416
33	0xbddfef74	-0.10934344
34	0xbdbfa3ab	-0.09357389
35	0xbda748c6	-0.08168177
36	0xbe25a754	-0.16177112
37	0xbe0e0f6b	-0.13873069
38	0xbe5622db	-0.20911734
39	0xbe3e7beb	-0.18601958
40	0xbe249e4b	-0.16076009
41	0x3c163cbc	0.009169754
42	0xbe406115	-0.18787034
43	0xbdd0552f	-0.101724975
44	0xbbe64798	-0.0070275776
45	0x3dbb0a89	0.09132869
46	0xbd1436fc	-0.03618525
47	0xbe07dafa	-0.13267127
48	0xbc88ba15	-0.016690293
49	0x3d2711c4	0.040788427
50	0x3da5f2c2	0.08102943
51	0xbdefc86f	-0.117081515
52	0xbc468ac0	-0.0121180415
53	0x3d183887	0.037163284
54	0x3d8d4b30	0.068991065
55	0x3e1df323	0.1542478
56	0x3de55a2c	0.111988395
57	0xbce04aae	-0.02737936
58	0x3d982bc2	0.07430221
59	0x3d7f602c	0.062347576
60	0xbc6fe58b	-0.01464213
61	0x3d72c3b8	0.059268683
62	0x3e1fc2c0	0.15601635
63	0xbdaafc8f	-0.08348953
64	0x3c80e0fa	0.015732277
65	0x3c84e73c	0.016223542
66	0x3e002e01	0.12517549
67	0x3cc13a33	0.023587322
68	0xbd78e04d	-0.060760785
69	0x3dc96a5b	0.09834739
70	0x3df7ca93	0.12099185
71	0xbda4f02c	-0.08053622
72	0x3d44126d	0.047869135
73	0x3dc229c0	0.094806194
74	0x3dec99d9	0.115527816
75	0xbdc9a1e6	-0.09845333
76	0x3d903730	0.07041776
77	0x3dc87ef4	0.097898394
78	0x3dbdf73e	0.09275673
79	0x3db5df87	0.08880525
80	0x3ddf1c63	0.10894086
81	0x3e0111b5	0.12604411
82	0x3dc0a9ea	0.094074085
83	0xbdc23791	-0.09483255
84	0xbd71e29e	-0.05905401
85	0xbcaf0db0	-0.021368831
86	0x3cdc386f	0.026882378
87	0xbdb7af7f	-0.0896902
88	0xbb8ab24c	-0.0042326804
89	0x3d0dc890	0.0346151
90	0x3d5d1495	0.053974707
91	0xbd82bb6d	-0.06383405
92	0xbd6ba24b	-0.05752782
93	0x3ca60156	0.020264309
94	0xbd53738c	-0.051623866
95	0x3e183a5e	0.14866015
96	0x3c045157	0.008076034
97	0x3d03aa25	0.032144684
98	0x3ac90f00	0.0015339553
99	0xbda8ca08	-0.082416594
100	0xbc952a96	-0.018208783
101	0xbd47a5ab	-0.048741978
102	0x3cb309df	0.021855293
103	0xbe0d103d	-0.13775726
104	0x3aa4c48d	0.0012570784
105	0x3ce1c843	0.027561313
106	0xbdcecaa5	-0.10097245
107	0xbdd8c3eb	-0.105842434
108	0xbba7da01	-0.0051224236
109	0x3df2404b	0.11828669
110	0x3d89c88e	0.06727706
111	0x3dc31297	0.0952503
112	0x3cb14317	0.021638436
113	0xbd3e8057	-0.046509113
114	0xbc9d2b3f	-0.01918566
115	0x3ceb9ffc	0.02876281
116	0xbcf5e10e	-0.030014541
117	0xbe0c1207	-0.13678752
118	0xbe27801b	-0.16357462
119	0x3d1759d6	0.03695091
120	0x3c36c764	0.011155937
121	0xbd7108ab	-0.058846157
122	0x3d887354	0.06662622
123	0x3d4f2b6e	0.050578527
124	0x3d0fda7a	0.035120465
125	0xbdbea2ca	-0.09308393
126	0xbbcec0de	-0.0063096127
127	0xbd90a3d8	-0.07062501
128	0xbc401c26	-0.011725461
129	0xbcaba79d	-0.020953948
130	0xbd88cf03	-0.06680109
131	0xbdc1858b	-0.094492994
132	0xbda472af	-0.08029687
133	0x3bc0b59d	0.005881025
134	0xbd24ab5e	-0.04020249
135	0xbd09d73e	-0.033652537
136	0xbd44bf7e	-0.048034184
137	0xbd8c4b0b	-0.06850251
138	0x3de4b348	0.11167008
139	0x3cd7add6	0.026328009
140	0x3ddb02de	0.10693906
141	0x3df22d46	0.118250415
142	0x3dadd275	0.08487407
143	0x3bcfd6d7	0.0063427496
144	0x3ddd4009	0.10803229
145	0x3dec48fa	0.11537357
146	0xbe84cede	-0.25939077
147	0x3e3ab54d	0.18233223
148	0x3e29f1f3	0.16596203
149	0xbd89b8fc	-0.06724736
150	0x3d8f10e4	0.069856435
151	0x3e25a2cb	0.16175382
152	0xbc7581a7	-0.014984525
153	0x3cb4cb57	0.022069616
154	0x3d3509ed	0.04419892
155	0xbcb5e7a0	-0.022205174
156	0xbcd9dabe	-0.026593562
157	0x3ce3c8c1	0.027805688
158	0xbdf075c9	-0.11741216
159	0x3dab852d	0.08375011
160	0xbc061e9d	-0.00818601
161	0xbd4dfe5b	-0.0502914
162	0x3e136113	0.143925
163	0x3c85f19d	0.016350562
164	0xbcb0c07d	-0.02157616
165	0xbd061ed8	-0.03274426
166	0xbd2106b9	-0.03931305
167	0x3d7dd25c	0.061968192
168	0x3c821a44	0.015881665
169	0x3dc274df	0.09494948
170	0xbe00e2b4	-0.1258648
171	0xbe26c024	-0.16284233
172	0x3dd6d908	0.10490614
173	0x3e004eb2	0.1253002
174	0xbe108fe4	-0.1411739
175	0xbc20e995	-0.009821315
176	0x3dab88dd	0.08375714
177	0x3d299f99	0.04141197
178	0xbe3650dd	-0.17804284
179	0xbcd742ba	-0.026276935
180	0xbc017af5	-0.00790285
181	0x3d80a163	0.06280782
182	0x3dae0ced	0.08498559
183	0xbdd948c6	-0.106095836
184	0x3d0dc8f8	0.034615487
185	0x3e0a1ee8	0.13488352
186	0xbd2e56f2	-0.042563386
187	0xbe3536ee	-0.17696735
188	0x3df91c4f	0.121636026
189	0x3e381cfe	0.1797981
190	0x3c28d3f4	0.01030444
191	0xbe203d82	-0.15648463
192	0x3e93504c	0.287722
193	0x3dab6681	0.083691604
194	0xbd5d7d18	-0.054074377
195	0x3e83e033	0.25756988
196	0x3d1da246	0.038484834
197	0xbdb0b8f8	-0.0862903
198	0x3dfb1d15	0.12261406
199	0x3dfccbd6	0.12343566
200	0xbde17073	-0.11007776
201	0x3e133c02	0.1437836
202	0x3d97a494	0.07404438
203	0xbe17b715	-0.14815934
204	0x3e53c1db	0.20679419
205	0x3dde2a8f	0.10847961
206	0xbcedd648	-0.029032841
207	0x3d9cd684	0.07658103
208	0xbdc1d1ee	-0.09463869
209	0x3aa86c18	0.0012849597
210	0x3dabc25b	0.0838668
211	0xbd5dbd5a	-0.054135658
212	0x3d598636	0.05310651
213	0x3d55cc3b	0.052196722
214	0x3e0630f4	0.13104612
215	0xbd7c8832	-0.061653323
216	0x3deed344	0.116613895
217	0xbd33416d	-0.043763567
218	0x3d50fcb0	0.05102223
219	0xbdc194d7	-0.09452217
220	0x3bed9fc5	0.007251712
221	0xbd0919da	-0.03347192
222	0xbe020bef	-0.12699865
223	0xbd193833	-0.03740711
224	0xbe38e13d	-0.18054672
225	0x3d996121	0.07489229
226	0xbc274877	-0.010210148
227	0x3d35e75f	0.044410106
228	0xbd9392bf	-0.07205724
229	0x3dbccf26	0.09219198
230	0x3da8af6e	0.082365856
231	0xbdb0925d	-0.086216666
232	0x3ce40f8b	0.027839443
233	0xbda75c0a	-0.08171852
234	0xbd8abd11	-0.06774343
235	0x3d1f00ca	0.038819112
236	0x3d9eccfd	0.07753942
237	0xbdcba764	-0.099440366
238	0xbddf9869	-0.10917742
239	0x3c97929b	0.018502524
240	0xbe12d363	-0.1433845
241	0xbdc23b96	-0.09484021
242	0xbd6edc38	-0.058315486
243	0xbcf4d9e1	-0.029889049
244	0x3dd50889	0.104020186
245	0xbc8fdeea	-0.017562348
246	0xbd5d2ad6	-0.05399593
247	0xbd8a039e	-0.06738971
248	0x3d3eea41	0.04661012
249	0x3c71a236	0.014748147
250	0xbc57b540	-0.013165772
251	0x3de917cb	0.11381491
252	0xbd4e90fd	-0.05043124
253	0x3c1df50f	0.009640946
254	0x3daf63ef	0.08563983
255	0xbd9846b4	-0.074353606

AmpNet.0.conv1.spatial_process.block.0.bias f4 [8]
0	0x3db45891	0.08805955
1	0xbd158f7d	-0.036513794
2	0x3c2be2c5	0.010491078
3	0xbd15e303	-0.03659345
4	0x3e115b09	0.14194883
5	0xbddc77aa	-0.107650116
6	0x3d602149	0.054719243
7	0xbdbf20ad	-0.09332404

AmpNet.0.conv1.spatial_process.block.2.weight f4 [8, 8, 3, 3]
0	0x3c9f42d7	0.019441051
1	0xbd9159d4	-0.070972115
2	0x3dfa847b	0.122323
3	0x3d9577ca	0.072982386
4	0x3d4597b4	0.04824038
5	0xbdad0937	-0.08449023
6	0x3cff0680	0.03113103
7	0x3debd1ae	0.115146026
8	0xbd096dc2	-0.03355194
9	0x3d923200	0.07138443
10	0x3d5851cc	0.052812383
11	0xbd050042	-0.03247095
12	0xbdb84465	-0.0899742
13	0x3c3e7d3f	0.011626541
14	0xbd9bbe01	-0.076046
15	0xbda607e5	-0.081069745
16	0xbd27d5ce	-0.040975384
17	0xbcc7bed5	-0.024382988
18	0xbd173b12	-0.03692157
19	0xbd91ab3e	-0.0711274
20	0xbc8458f4	-0.016155697
21	0x3d88c0f3	0.06677427
22	0xbdda6b0b	-0.10664948
23	0xbdb8b458	-0.09018773
24	0x3e4fc15a	0.20288602
25	0x3d82398f	0.06358635
26	0xbe3224a7	-0.17396794
27	0xbdb4bbea	-0.08824904
28	0x3bbefca0	0.005828455
29	0x3e00cffc	0.1257934
30	0x3db2f4b7	0.08738082
31	0x3d512470	0.05106014
32	0x3e102a16	0.14078555
33	0x3d87f8a4	0.06639221
34	0x3dd813e5	0.105506696
35	0x3d158aef	0.03650945
36	0x3d865f91	0.065611966
37	0x3d18faf7	0.037348714
38	0x3d5b7a78	0.053583592
39	0x3dc6b583	0.09702589
40	0xbcf74d82	-0.030188326
41	0xbce98a6f	-0.028508393
42	0x3cdfd95e	0.027325328
43	0xbd0396f0	-0.032126367
44	0xbe221fdf	-0.1583247
45	0xbd6551e7	-0.05598631
46	0xbd529df3	-0.051420163
47	0x3cf2ac27	0.029623104
48	0xbb1ac355	-0.0023614962
49	0x3d2212f1	0.039568845
50	0xbd39b16a	-0.04533521
51	0xbd8a8d47	-0.06765228
52	0xbd60c3a7	-0.05487409
53	0x3e12de24	0.14342552
54	0x3d4d2884	0.050087467
55	0xbd023a21	-0.031793717
56	0x3c308121	0.010772974
57	0x3c12ef93	0.008968252
58	0xbe09ad5f	-0.13445042
59	0x3dc458e0	0.09587264
60	0x3dc33bbb	0.09532877
61	0x3d2fb5ce	0.04289799
62	0xbd0ede66	-0.034880064
63	0x3dcb9feb	0.09942611
64	0xbc9ea076	-0.019363623
65	0xbdb36b1f	-0.08760666
66	0x3daa9092	0.08328356
67	0x3e05e230	0.13074565
68	0xbdc241e2	-0.094852224
69	0x3cd36aeb	0.025807818
70	0x3c19f324	0.009396348
71	0xbceb5882	-0.028728727
72	0x3d67fc23	0.05663694
73	0x3d245723	0.040122163
74	0xbd379edf	-0.044829246
75	0xbd9aee18	-0.07564944
76	0xbd4f2c7f	-0.050579544
77	0x3db0ca57	0.08632343
78	0xbd55a2c8	-0.052157193
79	0xbae719fd	-0.0017631646
80	0x3afc9f77	0.0019273598
81	0x3cbc3d90	0.022978574
82	0xbd5998ec	-0.053124353
83	0xbe2965fc	-0.1654281
84	0xbd0762d7	-0.033053245
85	0xbe50f4ac	-0.20405835
86	0x3a03fe8b	0.0005035183
87	0xbda8fedd	-0.08251736
88	0x3ce11b5d	0.027478868
89	0x3d0b90a4	0.034073487
90	0x3ca1ef78	0.019767508
91	0xbdd958cc	-0.1061264
92	0xbdb5c86f	-0.0887612
93	0x3e65ca1e	0.22440383
94	0xbc6ef42d	-0.014584583
95	0x3af55b48	0.001871922
96	0x3e8b3714	0.2719046
97	0xbd2f4531	-0.042790595
98	0xbdb1dcd4	-0.08684698
99	0x3d047053	0.032333683
100	0xbe25fe2e	-0.16210243
101	0xbdb21794	-0.086959034
102	0x3d4edd4c	0.050504014
103	0xbe16e57d	-0.1473598
104	0xbd9ed9a3	-0.07756355
105	0x3dad566b	0.084637485
106	0x3d391f61	0.04519594
107	0xbdf95033	-0.121735
108	0x3d0d0802	0.034431465
109	0x3c6dcbfa	0.014513964
110	0x3d2ac680	0.04169321
111	0x3d4a3094	0.049362734
112	0xbdd78f2b	-0.10525354
113	0xbd5d13da	-0.05397401
114	0xbb7d96e5	-0.0038694676
115	0xbcf32704	-0.02968169
116	0xbded2ead	-0.11581168
117	0xbd88f4fb	-0.06687351
118	0xbd828641	-0.06373263
119	0xbd43d365	-0.047809023
120	0xbdc8988c	-0.09794721
121	0x3d872ed7	0.06600731
122	0x3d77e4d0	0.060520947
123	0xbd561201	-0.052263264
124	0xba47442c	-0.0007601406
125	0x3d304af3	0.043040227
126	0xbba55cd2	-0.0050464654
127	0xbca27d54	-0.019835152
128	0xbd65afe0	-0.05607593
129	0xbd56051c	-0.052250966
130	0xbd2900a9	-0.041260395
131	0xbd063b12	-0.032771178
132	0x3dd532f1	0.10410107
133	0x3df0f5d9	0.11765642
134	0x3e3e2c79	0.18571652
135	0x3d8734c2	0.0660186
136	0x3da84743	0.08216717
137	0xbd9f343c	-0.07773635
138	0xbddd3467	-0.108010106
139	0xbcdd12d7	-0.026986523
140	0x3da49292	0.080357686
141	0xbe1ecbed	-0.15507479
142	0xbce6522e	-0.028115358
143	0x3d756991	0.05991513
144	0xbd1c96f8	-0.038229913
145	0xbd8e3165	-0.06943015
146	0x3c9515c4	0.018198855
147	0xbca21c14	-0.01978878
148	0xbd7a7ef9	-0.061156247
149	0x3a9c6d9e	0.0011934524
150	0xbd23a95d	-0.03995644
151	0xbdda8719	-0.10670299
152	0xbde618d6	-0.11235206
153	0x3d150251	0.036379162
154	0xbd56dc7d	-0.052456368
155	0x3c268a60	0.010164827
156	0xbcb3aaca	-0.021932025
157	0xbde3b043	-0.11117604
158	0xbc3d1484	-0.011540536
159	0x3cc988fd	0.024601454
160	0xbd6d1c8c	-0.057888553
161	0xbd800e1a	-0.0625269
162	0x3e06428a	0.1311132
163	0x3cc1b711	0.023646863
164	0x3d5437d7	0.051811066
165	0x3e0bc9f0	0.13651252
166	0xbdbb745b	-0.091530524
167	0xbc520b48	-0.0128200725
168	0x3eaa2c53	0.33236942
169	0x3ca751cc	0.020424746
170	0x3ccefd4b	0.025267264
171	0xbe401e70	-0.18761611
172	0xbc25cfca	-0.010120342
173	0xbd4c4c57	-0.04987749
174	0x3c3c01c7	0.011475033
175	0xbe156cdf	-0.14592312
176	0xbcbe39d6	-0.023220938
177	0xbc9b89eb	-0.018986663
178	0x3d9da549	0.07697541
179	0xbd85ffff	-0.06542968
180	0x3c2a885b	0.010408486
181	0x3d9f78b4	0.07786694
182	0xbba52700	-0.0050400496
183	0x3ddbf5a3	0.10740211
184	0x3da9cbd9	0.08290834
185	0x3cd971eb	0.026543578
186	0xbd1d00ed	-0.03833096
187	0xbb84afce	-0.004049278
188	0xbd87cc6c	-0.06630787
189	0x3cd18d7a	0.025580157
190	0xbe21d277	-0.15802942
191	0xbe05b3ef	-0.1305692
192	0xbe24f9ba	-0.16110888
193	0xbd8f85a7	-0.07007914
194	0x3ced5d4e	0.028975155
195	0xbdc1ba94	-0.09459415
196	0x3d7e269c	0.06204854
197	0x3e6005be	0.2187719
198	0xbd2d284e	-0.042274766
199	0x3cd4f148	0.025993958
200	0xbd9d4427	-0.07679015
201	0x3d843228	0.06454879
202	0xbdb26482	-0.087105766
203	0xbd90c385	-0.070685424
204	0x3de08dcc	0.109645456
205	0xbd967da9	-0.073481865
206	0xbd3f243a	-0.046665408
207	0x3dfcfe85	0.12353233
208	0x3d368530	0.04456061
209	0xbd74258d	-0.059606124
210	0xbc114619	-0.00886681
211	0x3da6fd5c	0.08153793
212	0x3cd7159a	0.026255418
213	0x3d259cde	0.040432803
214	0x3e12bd94	0.14330131
215	0xbd06b2fb	-0.032885533
216	0xbd733c7a	-0.059383847
217	0xbd8d893b	-0.0691094
218	0xbc01e613	-0.007928389
219	0xbce35d78	-0.02775453
220	0x3e0777d3	0.13229303
221	0x3d3828b1	0.04496068
222	0x3cb501bf	0.02209556
223	0x3d6a71b7	0.057237353
224	0xbdad0156	-0.084475204
225	0xbdb671b8	-0.08908409
226	0xbe0f0cd7	-0.13969742
227	0x3d85dc22	0.065361276
228	0xbd6b371a	-0.057425596
229	0xbd8194c4	-0.06327203
230	0xbe3028d6	-0.17203078
231	0x3d938b9c	0.07204363
232	0x3d9eae5c	0.077481
233	0xbd9e8db5	-0.07741872
234	0xbe52c75b	-0.2058386
235	0x3de8aa68	0.113606274
236	0x3dad42b6	0.0845999
237	0xbdea1b38	-0.11430973
238	0x3d808e0b	0.062770925
239	0x3e3255c2	0.17415527
240	0xbe0252c4	-0.12726885
241	0xbe099bc4	-0.13438326
242	0x3e6a9600	0.22908783
243	0x3d4828f0	0.048867166
244	0x3cec59e7	0.028851463
245	0xbdee2215	-0.116275944
246	0x3e17524b	0.14777486
247	0x3d42a54a	0.047520913
248	0x3de3a562	0.11115529
249	0x3db1d54a	0.0868326
250	0x3d3b0225	0.045656342
251	0x3e1aab8b	0.15104501
252	0xbd52308b	-0.051315825
253	0x3da39f61	0.079893835
254	0xbd9434c2	-0.07236625
255	0x3dfabb44	0.12242749

AmpNet.0.conv1.spatial_process.block.2.bias f4 [8]
0	0xbd63716e	-0.055528097
1	0xbcc5ebf1	-0.024160357
2	0xbe183ba4	-0.14866501
3	0xbd07644b	-0.03305463
4	0xbd0eb78a	-0.034843005
5	0xbe48020f	-0.19532035
6	0x3de612cc	0.11234054
7	0x3b68ee51	0.0035542438

AmpNet.0.conv1.frequency_process.fpre.weight f4 [8, 8, 1, 1]
0	0x3e6a6b3d	0.2289247
1	0xbea6881c	-0.32525718
2	0x3b0c2c4a	0.0021388703
3	0x3e1c4d67	0.15263902
4	0xbe5a1b4e	-0.21299478
5	0xbe9058a8	-0.2819264
6	0x3d245ea2	0.04012931
7	0x3e69fb88	0.22849858
8	0x3d1ccca8	0.038281113
9	0xbe8cf616	-0.275315
10	0xbe44a834	-0.1920479
11	0xbeb924f5	-0.36161008
12	0xbe0e5d19	-0.13902701
13	0x3f1ebb07	0.6200413
14	0x3d6fc223	0.058534753
15	0xbe9aa9df	-0.30207726
16	0xbe334b9f	-0.17509316
17	0x3e9ba5e1	0.30399993
18	0xbec69c1f	-0.38790986
19	0x3d6e6e25	0.05821051
20	0xbd11475e	-0.03546845
21	0x3e45435a	0.19263974
22	0xbed56b6b	-0.41683516
23	0x3e24f6d2	0.1610978
24	0xbe19b490	-0.15010285
25	0x3d01ae28	0.03166023
26	0xbc594e3d	-0.013263282
27	0x3e89061b	0.2676247
28	0x3d6780ac	0.056519195
29	0x3dace988	0.0844298
30	0xbd7df0ed	-0.061997343
31	0xbe837592	-0.25675637
32	0x3c5c38eb	0.013441305
33	0xbe4019dc	-0.18759865
34	0xbe4b98f8	-0.19882572
35	0xbe91c4d0	-0.2847047
36	0x3ea17ce7	0.31540605
37	0x3ec855aa	0.39127856
38	0x3ee893ae	0.4542517
39	0x3ea484f7	0.32132694
40	0xbe1536ed	-0.14571734
41	0x3dd09e01	0.10186387
42	0xbe2655e9	-0.1624371
43	0x3d95d3c2	0.0731578
44	0x3e8ed724	0.27898514
45	0x3ea5b83f	0.3236713
46	0x3dbae9d6	0.09126632
47	0xbe8f785c	-0.28021514
48	0xbd5942e1	-0.053042296
49	0x3e90d3c0	0.28286552
50	0xbecced63	-0.40024862
51	0xbde9cfa5	-0.11416558
52	0xbe2a0df1	-0.1660688
53	0x3e83a29f	0.25710008
54	0x3ddab194	0.106784016
55	0xbeb69404	-0.35659802
56	0x3eb170ad	0.34656277
57	0x3ed78c12	0.42099053
58	0x3e136bf2	0.14396647
59	0xbd88bae8	-0.066762745
60	0xbd58d434	-0.052936748
61	0x3dd28178	0.102786005
62	0xbd689ecd	-0.05679207
63	0x3e4bc3b2	0.1989887

AmpNet.0.conv1.frequency_process.fpre.bias f4 [8]
0	0xbe960686	-0.29301852
1	0xbe632ebe	-0.221858
2	0xbbe74019	-0.0070572016
3	0xbc686fe2	-0.014186831
4	0x3df9757c	0.121806115
5	0xbd2cd211	-0.042192522
6	0xbe098a0a	-0.13431564
7	0x3da42c25	0.080162324

AmpNet.0.conv1.frequency_process.process1.0.weight f4 [8, 8, 1, 1]
0	0x3dbbefdf	0.09176611
1	0x3e16c540	0.14723682
2	0xbd9578b3	-0.07298412
3	0x3e691d79	0.22765149
4	0xbe787c0a	-0.24266067
5	0x3e86a2ea	0.2629617
6	0x3eb05bf7	0.34445164
7	0x3e940075	0.289066
8	0x3e8b997b	0.27265534
9	0x3d57a281	0.05264521
10	0xbe478066	-0.19482574
11	0xbe9050cd	-0.28186646
12	0xbe91f2ab	-0.28505453
13	0x3cd0b3f5	0.025476435
14	0xbe85449a	-0.260289
15	0x3e99d5d7	0.3004596
16	0xbe053dcf	-0.1301186
17	0xbe60c725	-0.21950968
18	0x3d84e2d1	0.06488574
19	0x3e98dd3a	0.29856282
20	0xbe29c602	-0.1657944
21	0xbe257500	-0.16157913
22	0xbce5b7b6	-0.028041702
23	0xbe03156c	-0.1280114
24	0xbe4d5aa7	-0.20054112
25	0x3dba8dfb	0.09109112
26	0xbddf3ce3	-0.10900285
27	0x3e85905a	0.26086694
28	0x3e8d508f	0.27600524
29	0xbed79fdf	-0.4211416
30	0x3c94ba44	0.018155225
31	0xbc286961	-0.010279031
32	0x3e6bb827	0.23019467
33	0x3ebe900e	0.3721928
34	0x3eb2702c	0.34851205
35	0x3cd791e5	0.026314685
36	0x3dbcee4f	0.09225141
37	0x3d7d6f17	0.06187352
38	0xbe4f4f36	-0.2024506
39	0xbee0f812	-0.43939263
40	0xbd5aa662	-0.05338133
41	0x3cd8e264	0.026475139
42	0x3e7c22a1	0.24622585
43	0xbec8c272	-0.3921085
44	0x3be07941	0.006850392
45	0xbddae430	-0.106880546
46	0xbe1721c3	-0.14758973
47	0xbdde66d4	-0.10859457
48	0xbe11c1e9	-0.14234127
49	0xbecb1f6f	-0.3967242
50	0xbcbd0f04	-0.02307845
51	0x3e215793	0.15756063
52	0xbee0b183	-0.4388543
53	0xbddefbb8	-0.10887855
54	0x3eaaccff	0.33359525
55	0x3e83db85	0.25753418
56	0xbbc71f7f	-0.0060767527
57	0xbd2ee6f2	-0.042700715
58	0xbdc21919	-0.09477443
59	0x3e8427c6	0.25811595
60	0x3c95820f	0.018250493
61	0xbd0f60d6	-0.03500446
62	0x3e03fa66	0.12888488
63	0xbd99a09d	-0.07501338

AmpNet.0.conv1.frequency_process.process1.0.bias f4 [8]
0	0xbe979a3a	-0.29609853
1	0x3d921536	0.07132952
2	0x3d8c3e66	0.06847839
3	0xbef0df15	-0.47045198
4	0xbd9b7256	-0.07590167
5	0x3e302b66	0.17204055
6	0x3e84d73b	0.25945458
7	0x3d8c62be	0.06854771

AmpNet.0.conv1.frequency_process.process1.2.weight f4 [8, 8, 1, 1]
0	0x3da0b717	0.078474216
1	0xbeb0ef30	-0.34557486
2	0xbe275d86	-0.1634427
3	0xbe1b348a	-0.15156761
4	0x3f0a87b5	0.5411332
5	0x3eae0542	0.33988386
6	0xbd9f13cf	-0.0776745
7	0xbe27bb3f	-0.16380022
8	0x3e4b1d4e	0.19835398
9	0x3e90cf10	0.28282976
10	0x3e3bac71	0.183275
11	0xbe80e1b5	-0.251722
12	0xbeadb1e4	-0.33924782
13	0xbe9820dd	-0.29712573
14	0x3e4feb5c	0.20304626
15	0x3db92bf4	0.090415865
16	0xbca606af	-0.020266859
17	0x3e940595	0.2891051
18	0xbe7bdaee	-0.24595234
19	0x3e6fdeb4	0.23424798
20	0x3c45145b	0.012028779
21	0x3e76270e	0.24038336
22	0x3dc3667d	0.095410325
23	0xbeae48d0	-0.34039927
24	0xbd3c4b23	-0.045970093
25	0xbe5f1185	-0.21784027
26	0x3e5159c6	0.20444402
27	0xbbee0b56	-0.007264535
28	0x3e773765	0.24142225
29	0xbe402f85	-0.18768127
30	0xbd449c13	-0.048000406
31	0x3e3cbce3	0.1843143
32	0x3e3ca653	0.18422823
33	0xbe29eb89	-0.16593756
34	0xbe6cef6f	-0.23138212
35	0xbd2032b7	-0.039110865
36	0xbe7ee22d	-0.24890967
37	0x3e098e68	0.1343323
38	0x3f013124	0.5046561
39	0x3df3e6d1	0.11909259
40	0x3dea162e	0.11430012
41	0x3f000a23	0.5001547
42	0xbcf79065	-0.03022022
43	0x3ce6f33d	0.028192157
44	0xbe3c0399	-0.18360747
45	0xbe9e333f	-0.30898473
46	0x3e93206d	0.28735676
47	0xbe9f410b	-0.3110431
48	0x3e9927f2	0.29913288
49	0xbe2a790f	-0.16647743
50	0x3e12842f	0.14308237
51	0x3eddc7fc	0.43316638
52	0xbea8ad55	-0.32944742
53	0x3e07ab31	0.13248898
54	0xbebda24b	-0.37037882
55	0x3e5fe13a	0.21863261
56	0x3df94945	0.12172178
57	0x3e7dc75c	0.24783081
58	0xbe8db61d	-0.27678004
59	0x3e2c926b	0.16852729
60	0xbf0bdadb	-0.5463082
61	0x3e9aac98	0.30209804
62	0xbebb5c87	-0.3659403
63	0xbcd693b2	-0.026193473

AmpNet.0.conv1.frequency_process.process1.2.bias f4 [8]
0	0xbe9f419c	-0.31104743
1	0x3e7c330c	0.24628848
2	0x3c1ebab8	0.009688072
3	0x3eb518c3	0.35370454
4	0x3cd2f463	0.025751298
5	0x3e452af3	0.19254665
6	0xbe97c21b	-0.29640278
7	0x3da51b7e	0.08061884

AmpNet.0.conv1.frequency_process.process2.0.weight f4 [8, 8, 1, 1]
0	0xbdead2fd	-0.11466024
1	0xbe79726c	-0.24360055
2	0x3ea14072	0.3149448
3	0xbec466b5	-0.3835961
4	0xbed04dc4	-0.4068433
5	0xbda242b7	-0.07922881
6	0xbedff978	-0.43745017
7	0x3e17d233	0.14826278
8	0x3dca0d83	0.098658584
9	0xbe96071c	-0.293023
10	0xbdfe5c35	-0.12419931
11	0x3e116228	0.141976
12	0xbe3c36e6	-0.18380317
13	0x3d94ea8d	0.072712995
14	0xbd42db2e	-0.047572307
15	0xbeaf6eae	-0.3426413
16	0xbe9820d0	-0.29712534
17	0x3e827079	0.25476435
18	0x3e59b262	0.21259454
19	0x3eb5eee8	0.35533834
20	0xbebab7f0	-0.36468458
21	0x3ec2932f	0.38002917
22	0xbd02deea	-0.03195087
23	0x3ccc90c0	0.024971366
24	0x3ebf858d	0.3740658
25	0xbe3caa10	-0.18424249
26	0xbe488dd6	-0.19585356
27	0xbdcd2bb5	-0.10018102
28	0x3dff0109	0.12451369
29	0xbe428777	-0.18996988
30	0x3e291fc0	0.16516018
31	0xbe1fca6e	-0.15604565
32	0x3eaef9bd	0.3417491
33	0xbe453a51	-0.19260527
34	0xbe465599	-0.1936859
35	0xbe8922af	-0.26784274
36	0xbe2a6fab	-0.1664416
37	0xbe417ec9	-0.18896021
38	0x3d8a3b36	0.06749575
39	0x3e361600	0.1778183
40	0x3e74d7da	0.23910466
41	0x3dfdd65e	0.12394403
42	0xbd8d5d58	-0.069025695
43	0xbd776ce1	-0.06040657
44	0xbe21f53e	-0.15816209
45	0x3eb4b330	0.3529296
46	0xbe8e715d	-0.27820864
47	0xbcdb0eeb	-0.026740512
48	0x3e3a2255	0.18177159
49	0xbe108b24	-0.14115578
50	0xbe97e8f4	-0.29669917
51	0xbdc1cceb	-0.09462913
52	0x3d026b0d	0.031840373
53	0xbe9d48de	-0.30719656
54	0xbe021e2a	-0.12706819
55	0x3eadf860	0.33978558
56	0xbe8d88c2	-0.276434
57	0x3d726ce7	0.05918589
58	0x3dab3ef6	0.08361618
59	0x3d65361f	0.055959817
60	0xbcd5ad80	-0.026083708
61	0x3ddaef7d	0.1069021
62	0x3defc0d9	0.11706705
63	0xbec19077	-0.3780553

AmpNet.0.conv1.frequency_process.process2.0.bias f4 [8]
0	0xbc8f58d4	-0.017498411
1	0xbe3c870f	-0.18410896
2	0xbcf4b91d	-0.029873425
3	0x3e9ff8ed	0.31244603
4	0x3dfb8b3f	0.122824185
5	0x3e40d8e5	0.18832739
6	0x3e84d0a5	0.25940433
7	0x3e85822a	0.2607587
