pre-trained/lol2-sys.pth (torch, 562237 bytes, 226 tensors)

AmpNet.0.conv0.0.weight f4 [8, 3, 1, 1]
00000000: 75bb afbe f538 813e e7ca df3e d4b1 8dbe
00000010: 44f1 903d ba11 2ebe 4e13 923e f4af 043f
00000020: 3e4f 25bf 28b3 1b3f 8b7b fd3e 696d 74be
00000030: 070e 173e a449 bcbe f0f0 11bf 34d7 87be
00000040: 6bda 043f 096e a1bb d29d acbe 12ba 153f
00000050: aa55 68be 5a2c ce3d cdb4 e0be 41b3 89be
-0.34322706 0.25238767 0.4370949 -0.27674735 0.07077268 -0.1699895 0.28530353 0.51830983
-0.6457404 0.60820246 0.49508318 -0.23869862 0.14751445 -0.36774933 -0.57008266 -0.26531374
0.5189578 -0.0049264473 -0.33714157 0.58487046 -0.22688928 0.10067053 -0.4388794 -0.26894572

AmpNet.0.conv0.0.bias f4 [8]
00000000: df1a 2d3b 55ec a63d 8cd6 debe c5b8 00bc
00000010: c5fc a9bd 76fe a23e 6b79 753e d8c4 1c3e
0.0026413721 0.081505455 -0.4352306 -0.0078565525 -0.08300165 0.31834763 0.23972099 0.15309465

AmpNet.0.conv0.1.spatial_process.block.0.weight f4 [8, 8, 3, 3]
00000000: 473b 863d e324 373e 5ee3 c63c fe5f 183c
00000010: 5f01 9b3d 40c9 71bd 89bf 763d dd8e 4bbd
00000020: 8a6a 46bd ba18 46bd 75a0 d8bc 7596 fbbd
00000030: 2a9e 8d3c b265 8fb9 0c35 b83d 3800 a7bd
00000040: c386 293c c6e6 d33d 5b34 893d 3075 95bb
00000050: cef8 a9bc 1463 043c 08d9 fb3c 8262 2b3d
00000060: ed27 a63d 78f6 46bc e2ad e23d d77f b33d
00000070: a2fe 8ebd 85f7 203c 68f0 af3d c95b 8f3d
00000080: 45d0 a6bc 3ef9 1a3e 0bc5 ed3d 6a27 8b3d
00000090: 4032 123b 8050 3ebd cc67 c83d 4e11 6cbd
000000a0: aa6b a5bd 65c8 9bbb 7738 74bc 3440 7e3c
000000b0: e654 b7bc d5d5 0f3e ebba 293e ba7f d33d
000000c0: d6e4 90bd 9799 d3bc a6e9 69bd 6edb 733b
000000d0: 3344 0bbd 2698 abbd 3f11 0cba 6b0d 5ebd
000000e0: e0de 82bd c885 57bd 9aec eaba 32b5 acbd
000000f0: cc88 9abd ab68 0e3e 9678 193d 7a18 34be
00000100: 7ca6 bdbd c1e5 91bd 98a5 fbbd f5c8 c5bd
00000110: cadc 0e3e de2b 92bd 0aef 913d 2bfb d53d
00000120: 4fed 9ebd 03c3 a6bd 659c 3c3b d58d 843d
00000130: 330a d5bd 8620 eabc 9afa cc3b 0207 0fbe
00000140: 69a4 1cbc 5046 a23e bd13 2fbd 2199 c03d
00000150: aa97 1f3e 9951 843d 9e71 093e 115f 903e
00000160: 82b4 023e b7c7 f23d d4f7 1cbe 586f 2b3d
00000170: a2f8 adbb 379e 82bc 2b28 cabc 12f8 213d
00000180: 8f89 55bc 4849 6ebd a8ef 3f3d ec0c abbd
00000190: 7efd 9e3d 3e5d 8dbe a129 6cbd ea53 06be
000001a0: dc95 abbe e3e4 62be 28ed 48be 4382 8ebd
000001b0: 8842 b0bd 9c56 a23d cfa1 f3ba 7143 e7bd
000001c0: 52cb 803d 7fec 9d3d fd6f 3abd a84e 3c3e
000001d0: c1d1 ef3d 3ed7 1abd 4b35 223d f554 9b3d
000001e0: d006 503e 42a0 903d 4fef ddbd 0af3 ae3c
000001f0: 88b7 fe3c 5dd9 0abd 5ea4 733d 74e5 13bd
00000200: e092 953d 5fd6 2e3e 2cfc a1bd 2593 ff3d
00000210: 6b8a b43c f947 aabd e589 343d dd3a 08bd
00000220: 3429 59bd 2100 5c3c 0543 ec3c d5f5 803c
00000230: 45dd e83c 567c 833e 5bba 173e c58a 8a3d
00000240: 5697 793e ee43 813e 1a6e 393e 1de6 543e
00000250: b737 063e 1365 c43d d162 45bc bfb4 5ebd
00000260: c147 803b e13a 19be 17a4 adbd 9c63 b5bd
00000270: ab73 5cbd 1d0d b03d d5c9 543d 7262 65bd
00000280: 2a2b c73d 013c 8d3c 7084 d13d 6add b33d
00000290: ffd5 eebd 6297 cfbd eadf 92bc 8f08 a2bc
000002a0: c67a f93b a6ec 8a3d 1b32 343d d86f 323d
000002b0: b55b 853c f247 353d f2d1 f4bd 233d f2bd
000002c0: 384e 953c d147 48bd f654 32be 34ab d4bd
000002d0: 2320 5cbe 0678 0dbe 6ffc 53be f583 12bd
000002e0: 4e77 03be 1f71 513d a88d d13c d844 ba3c
000002f0: 529a 75bd 0cc9 d0bb f9f6 d13d 7aff 89bd
00000300: 9b13 8fbd 0d44 3cbd 18e5 78bd 33dd 8ebc
00000310: 1546 21be 88a0 04be 1f65 603d 9bad 8bbc
00000320: ed49 0dbc 827e 44bd 69d3 86bd 21a7 9fbd
00000330: 2b7f f5bd a64a a03b ebd8 9b3d 628a 2bbe
00000340: f1f8 1cbe c580 25be e122 3cbd ccf1 a7bd
00000350: 0d37 27be 1c4e 2fbe 4863 0fbe 9748 9bbc
00000360: db37 ebbe f377 f2bd 4e1f 283c c0cf 96be
00000370: 586b 1ebe 1f87 163e d795 c7be 1609 03be
00000380: 5a67 f5bd 25c1 013e 8647 79bd 7bf2 5a3b
00000390: 4d16 7fbd 0207 b23c df89 30be e9e2 4fbd
000003a0: 3e7e 0fbd 9c88 71bd 9b91 a13d 0b82 1d3d
000003b0: 930b 0d3d 3964 a6bd e783 b6bc 79e6 dbbd
000003c0: 3377 6ebd f6ec 373d 9caf 833d 0396 693c
000003d0: e56a 823e 47e3 343d a4f6 403d a219 2abd
000003e0: 7f25 4f3d c142 ef3d f261 1f3e 26c2 5c3e
000003f0: 4ca0 853e 203b eb3d 95fa 22be 3ce4 053e
0.06554275 0.17885165 0.024278339 0.00930023 0.07568621 -0.059029818 0.060241256 -0.049696792
-0.048441447 -0.048363425 -0.0264437 -0.12284557 0.017287333 -0.00027350854 0.08994493 -0.081543386
0.010347071 0.10346751 0.06699439 -0.004561089 -0.020748522 0.008080263 0.030743137 0.04184199
0.08113084 -0.012143724 0.11068322 0.08764618 -0.06982161 0.009824638 0.08590776 0.069999285
-0.020362983 0.15134141 0.116098486 0.06794627 0.0022307783 -0.04646349 0.09785423 -0.05763369
-0.08077176 -0.0047541135 -0.01490604 0.015518237 -0.02237935 0.14046414 0.1657521 0.10327096
-0.07074897 -0.025830073 -0.05710759 0.0037209648 -0.034000587 -0.083786294 -0.0005343146 -0.054212015
-0.06390166 -0.052617818 -0.0017923296 -0.08432998 -0.07545623 0.13907115 0.037468515 -0.17587462
-0.0926027 -0.071239 -0.12287444 -0.0965747 0.13951412 -0.07137273 0.07125671 0.10448297
-0.07760107 -0.08142664 0.0028779742 0.06472365 -0.10402336 -0.028579962 0.00625546 -0.13967517
-0.009560683 0.3169427 -0.042743433 0.09404207 0.15585199 0.06460876 0.13422248 0.2819753
0.12764171 0.11854499 -0.15328914 0.041854233 -0.0053091804 -0.015944583 -0.024677357 0.03954322
-0.013033285 -0.058175355 0.046859413 -0.08352074 0.077631935 -0.276102 -0.057656888 -0.13117948
-0.3351277 -0.22157626 -0.19621718 -0.06958439 -0.0860644 0.07926676 -0.0018587651 -0.1129216
0.0628878 0.07711124 -0.045516957 0.1838938 0.11709929 -0.037802927 0.039601605 0.07584564
0.20315099 0.07061817 -0.1083666 0.021356124 0.031093374 -0.0338987 0.059482925 -0.036107495
0.07303405 0.17073964 -0.07909426 0.124792375 0.02203866 -0.08314509 0.04407682 -0.03325926
-0.05301781 0.013427765 0.028840551 0.015742222 0.028425822 0.25680798 0.14817183 0.067647494
0.24374136 0.2524714 0.18108407 0.20790906 0.13107191 0.09589591 -0.012047485 -0.05437159
0.0039148037 -0.14963867 -0.08478563 -0.088568896 -0.053821247 0.08596251 0.051950295 -0.056002088
0.0972503 0.017240526 0.102303386 0.08782466 -0.1166191 -0.10136296 -0.017929036 -0.019779472
0.0076135127 0.06783418 0.043993097 0.043563694 0.01627908 0.044258066 -0.119541064 -0.11828067
0.018225774 -0.048896614 -0.17415223 -0.10384217 -0.21496634 -0.13815317 -0.20701765 -0.035770375
-0.1283848 0.05113327 0.025580242 0.022737905 -0.059961624 -0.006371623 0.102521844 -0.067381814
-0.06986161 -0.045963336 -0.060765356 -0.01743946 -0.1574939 -0.12951863 0.054783937 -0.017050555
-0.008623582 -0.04797221 -0.06583292 -0.07795549 -0.11987146 0.0048917113 0.07609733 -0.16752008
-0.15329339 -0.16162403 -0.0459317 -0.08200416 -0.16329594 -0.1711964 -0.14002717 -0.018955512
-0.45941052 -0.11839285 0.01026137 -0.29455376 -0.15470636 0.14699982 -0.38981506 -0.12796435
-0.11982603 0.12671335 -0.060859226 0.003340869 -0.062277127 0.021731857 -0.17240094 -0.050753508
-0.035032503 -0.05896817 0.078891 0.038454097 0.034434866 -0.08124585 -0.022279693 -0.107373185
-0.058219146 0.044903718 0.06429979 0.014256957 0.2547218 0.04416206 0.047110215 -0.04152835
0.05057287 0.11682654 0.15564707 0.21558437 0.2609886 0.114858866 -0.15915902 0.13075346

AmpNet.0.conv0.1.spatial_process.block.0.bias f4 [8]
00000000: 25c8 e73d 97ce f6bb a8b8 39be 2dc1 ea3c
00000010: 9797 233d 7892 cfbd e9f6 7cbb 5d6b aebd
0.113174714 -0.0075319516 -0.18136847 0.028656567 0.03993949 -0.101353586 -0.0038599318 -0.08516572

AmpNet.0.conv0.1.spatial_process.block.2.weight f4 [8, 8, 3, 3]
00000000: 569a 46bd a7fe 94bd 112f f2bd 4ce5 b03b
00000010: 239a ff3c 47b7 583d 4a65 a4bd 7534 68bd
00000020: a535 fc3c 6335 79bd b031 ddba 8305 43bd
00000030: 44b0 b13d 4bc8 f7bd e485 8bbd 67c5 153e
00000040: f961 0dbe bf0b 05bd 5fc0 d43d 246b 8c3d
00000050: 8f98 ac3c 8b44 6f3d f756 e13d c58e 5fbd
00000060: c239 e43d a510 7a3e 9232 61bd a412 c63d
00000070: f82e 1e3d 861f 853e f83f 6e3e 948c ce3d
00000080: 4226 993e 1f0a 2e3d cbb7 b83b 2127 af3e
00000090: 7083 ae3d 4b27 853c 59be d8bd 45f1 d0bd
000000a0: e14b 0dbe 9584 a6bd 9469 9bbd 675a 2abe
000000b0: 06e9 92bd daca 43be 2c6b 13bb e18b 08be
000000c0: c050 c7bd 73a7 aabd 4245 353d 5b87 f8bb
000000d0: 100a 8ebd d1b9 533d d511 a3bd 676c 7ebc
000000e0: ffe3 923d 5e73 ff3d 65a6 d03d 608c 3a3d
000000f0: 380b d33d cab0 873d 7f98 82bc fb3d 073e
00000100: 32f5 dc3c af99 ec3d 6b5c 3a3d 9422 a03d
00000110: cd71 ab3d 9a09 bb3c f881 9d3d 5c48 d43b
00000120: d49d 4dbe 3196 0dbe 9201 cdbd d2f3 c7bd
00000130: e9fb e1bc 12b9 993d 8035 23be 6804 6c3e
00000140: 7553 b1bd 3d0c 5fbb f91d 063d ca07 1a3e
00000150: 61a8 603d f51f 0ebe 5e09 93bc df3d 1f3e
00000160: 34a1 13bd 63dc f6bb 0e62 743d ecdd f53d
00000170: 6383 9abc 906f af3d 273b 77bd 5127 87bd
00000180: 099b c43c 9da4 af3d 65ef 37bc 0a28 0e3d
00000190: 16fa 343e 6c8b 08bc abad 89be dfdd 95be
000001a0: d6ea 63bd 88b9 1f3e bbb1 ed3d a39a 1f3d
000001b0: 98fe 31be 4a3d 0cbe 5042 4ebd b3b1 40bd
000001c0: fd97 a33c 4780 5dbc 2f48 8b3d 67f2 14bd
000001d0: d400 793d a0f9 d9bd 4afd 4fbe d6eb 6dbe
000001e0: a372 c2bd b356 82bd 350d 11bc c8fb 6bbd
000001f0: bdde 79be 0855 36be 683d fb3b 030e 24bd
00000200: 6026 bdbc 1806 ab3d 102d 47bc 456f 00bc
00000210: 1d53 a1bd 97c4 89bc 2b4f a53d 11f7 0dbd
00000220: 665c 7f3d 82eb 62bb cbec 35be f4bd 3f3c
00000230: fd90 cebd 7eec 833b 04d0 79bc 181c 67bd
00000240: 95be ca3d 6c61 efbc dff6 223d c341 9f3d
00000250: 188c 443d 693d dabd 356d 71bd 0894 d5bc
00000260: 4947 a93c af3d 363e dcc5 3a3e c9d3 923d
00000270: 96be 5a3c 8950 273e 7de9 853c 4f69 e03d
00000280: b631 1bba c28a bebc 5eb3 133d ebd7 d23d
00000290: 24a1 343e 061b 1f3e 85a9 d53d f411 283e
000002a0: 405d ac3c e8a7 a0be 9c17 2dbe 8258 9dbd
000002b0: 1878 d03d c3e8 8dbd cac4 8cbd 74fe 2d3e
000002c0: 0c20 433e 7eff 5dbe 29aa 9ebd 40d7 01be
000002d0: 01f7 ab3d 74a3 0a3e 8e2b bf3c 2943 16bc
000002e0: c920 e8bd 7450 46bd 5e08 713b c3b0 663d
000002f0: ac3a f83c febe 6e3d df87 873e 0c09 1e3e
00000300: 15b0 6d3c 6591 ee3d 330d 2a3e 6ea5 f53d
00000310: d701 c03c d992 b43c f16f d83d 7a11 363e
00000320: ebb9 2a3e 34e8 fa3d cc6d 303e cc80 013e
00000330: 4d1a e7bc 0fac 98bc 8305 82bd 4d54 643d
00000340: fc9f 803d 1590 803d 5ed0 893d 39f5 583e
00000350: c005 3c3e 4108 353e 3722 8b3c 5353 c43b
00000360: 24fc e53d 97be 443d 7869 4a3b 4554 863d
00000370: e1e0 6cbd 35dd 2bbd e888 173d 6f7a 6ebd
00000380: feaf 233d 373c 1bbe 96f5 3dbe bf80 82be
00000390: 0bd5 57be c990 71bd 6c7c 563c 7e3d 96be
000003a0: a35b d03d c6fe 133d bb3b 133e a034 f9bb
000003b0: 1a78 fd3c a0e8 8ebc 872e e83a 3042 d4bc
000003c0: 29ee 1dbe c723 63be 4dd0 21be 0f6f 36bd
000003d0: c96d 6fbe 4e3b d43c 3c51 3dbd e110 c03d
000003e0: 1859 eb3b fb8f 52bd 0aa0 c5bd 5600 fa3d
000003f0: 064e bd3d 5f88 953d 0df5 d43d 15ab 4fbd
-0.04848703 -0.072751336 -0.118253835 0.005398428 0.031201428 0.052909162 -0.08027132 -0.056690652
0.030787298 -0.06084193 -0.001687577 -0.04761268 0.08676198 -0.1209875 -0.06812647 0.14626084
-0.13806905 -0.032481905 0.103882544 0.06856373 0.02106884 0.058414977 0.11002915 -0.054579515
0.11143829 0.24420412 -0.05497987 0.09671524 0.03861901 0.26000613 0.2326659 0.10085407
0.29912 0.04249012 0.005637144 0.3420954 0.085211635 0.016254088 -0.10583181 -0.102022685
-0.13798477 -0.08130757 -0.07588497 -0.16636048 -0.07173352 -0.1912035 -0.00224943 -0.1333461
-0.09732199 -0.0833272 0.044255503 -0.007584495 -0.06935513 0.05169088 -0.079623856 -0.015528775
0.07172393 0.124731764 0.10187987 0.04554403 0.10304874 0.06625517 -0.015941856 0.13207237
0.026972387 0.1155275 0.045498293 0.07819095 0.08371315 0.022831727 0.07690805 0.0064783525
-0.20079738 -0.13826825 -0.10010065 -0.09763302 -0.02758594 0.075060025 -0.15938377 0.23048556
-0.08658496 -0.0034034394 0.032743428 0.15042034 0.05484808 -0.13879378 -0.017948803 0.15550946
-0.036042407 -0.0075335964 0.059663825 0.12005219 -0.018861478 0.08566201 -0.060359146 -0.06599296
0.023999708 0.08576319 -0.01122651 0.034706153 0.17673525 -0.008334022 -0.2689031 -0.29270837
-0.05564388 0.15598118 0.11606165 0.038965832 -0.17382276 -0.13695255 -0.05035621 -0.047044467
0.019969935 -0.013519353 0.06800877 -0.036363985 0.060791805 -0.10643315 -0.20311466 -0.23234496
-0.094945215 -0.06364193 -0.008853246 -0.057613164 -0.24401374 -0.17805874 0.0076672323 -0.040052425
-0.023089588 0.08350772 -0.01215674 -0.007839029 -0.07877181 -0.016817374 0.08071741 -0.03465945
0.062343977 -0.0034625237 -0.1776611 0.011703003 -0.10086248 0.004025995 -0.015247349 -0.056423277
0.09899632 -0.029221259 0.039786216 0.07776215 0.047985166 -0.10656244 -0.05894204 -0.026071563
0.020663874 0.17796968 0.1823954 0.07169301 0.013351103 0.16339315 0.016346687 0.10957586
-0.0005920188 -0.023259524 0.03605973 0.10295089 0.17639595 0.15537652 0.10432724 0.16413099
0.021040559 -0.31378102 -0.16903538 -0.07682897 0.10179156 -0.069291614 -0.06873472 0.16991597
0.19055194 -0.21679494 -0.07747299 -0.12679768 0.08396722 0.13538915 0.023336198 -0.009171286
-0.11334378 -0.04841657 0.003677867 0.056320917 0.030301414 0.058287613 0.2647085 0.15433139
0.014507313 0.116488256 0.16606598 0.11994444 0.023438377 0.022042679 0.10568226 0.17780104
0.16672485 0.122513205 0.17229384 0.12646788 -0.028210783 -0.018636731 -0.063487075 0.055744458
0.062805146 0.062774815 0.06729196 0.21187295 0.18361568 0.1767893 0.016984088 0.0059913783
0.11229733 0.048033323 0.0030885618 0.06559042 -0.05783165 -0.041959006 0.0369958 -0.05822223
0.03996276 -0.15159689 -0.18550715 -0.2548885 -0.21077363 -0.05897597 0.013091188 -0.2934379
0.10173728 0.036131643 0.14378254 -0.0076051503 0.030941058 -0.017444909 0.0017714062 -0.025910467
-0.15422882 -0.22181617 -0.15802117 -0.044539507 -0.23381723 0.025907185 -0.04622005 0.093782194
0.0071822517 -0.05140684 -0.09649666 0.12207095 0.092433974 0.07301401 0.10398302 -0.050700266

AmpNet.0.conv0.1.spatial_process.block.2.bias f4 [8]
00000000: 690b 95bb 4593 893d 40f2 e5bd 85af 643d
00000010: 2681 de3d 1e5a d2bd ff8b 05be 4deb 663d
-0.0045484793 0.067175426 -0.11227846 0.05583145 0.10864477 -0.10271095 -0.13041686 0.056376744

AmpNet.0.conv0.1.frequency_process.fpre.weight f4 [8, 8, 1, 1]
00000000: 2ff9 653e 3f76 8dbe 19c2 ac3e 2f89 9b3e
00000010: 41f3 8c3e 85aa 9abb f24c 893d 8147 67bd
00000020: e88b ef3e cf75 69be 1a0c 95be 4292 c6be
00000030: e732 b03d d2ac bc3e 1224 613e a636 313d
00000040: db91 153e 7527 9f3e 9f0f 79be 162f 043d
00000050: 6746 b5bd 8ff9 853e 346c 193e 7484 063e
00000060: 9f00 763e d073 2fbe e4e3 973e 234b 873e
00000070: f80f 80be ee0e d13c b87b 72be 5002 883e
00000080: 07b4 3f3e b39b 893c e83c d0be f7a3 f43d
00000090: ae47 b0be 2948 4cbe 7950 b5bd 5114 d33d
000000a0: 6b4d 56be 8b3e 093c fab2 17bd 2071 283e
000000b0: edf5 003e 140d a03e 2750 e43d 75a9 9dbe
000000c0: c8bb 37bd e3fb d3bd 5692 9f3d 7d01 863c
000000d0: 04e8 013e ff1e 69bc 57d6 47be 2749 963e
000000e0: b42a d83d e99d 663e 2270 b4be e220 083e
000000f0: 96a1 223d 1084 0c3d 74e6 c5be 3d35 b3be
0.22458337 -0.27629277 0.33741835 0.303781 0.27529338 -0.0047200345 0.06704129 -0.056464676
0.46786427 -0.22798847 -0.29110795 -0.3878346 0.08603459 0.368506 0.21986416 0.043265007
0.1460642 0.3108479 -0.24322365 0.032271467 -0.08851319 0.2616696 0.14982682 0.13136464
0.24023674 -0.17134023 0.29666054 0.26424512 -0.25012183 0.025519814 -0.23680007 0.26564264
0.18721019 0.016797876 -0.40671468 0.11945336 -0.34429687 -0.19949402 -0.088532396 0.103066094
-0.2092797 0.008376728 -0.03703592 0.16449404 0.12593813 0.31259978 0.111481 -0.30793348
-0.044856817 -0.10350778 0.07791583 0.016358132 0.12686163 -0.014228581 -0.19515358 0.29352686
0.1055502 0.22521175 -0.352418 0.13293794 0.03970488 0.034305632 -0.38652384 -0.35001555

AmpNet.0.conv0.1.frequency_process.fpre.bias f4 [8]
00000000: a840 25be 615c b3be 34e2 d5be 7b96 02be
00000010: 9c0b 32be 9efc 67be ca18 8b3e 9ec5 823e
-0.16137946 -0.35031417 -0.41774142 -0.12752716 -0.17387241 -0.2265496 0.2716735 0.25541395

AmpNet.0.conv0.1.frequency_process.process1.0.weight f4 [8, 8, 1, 1]
00000000: 63e4 973e 88d8 873e 2b14 6bbe 5fc9 123e
00000010: a947 38be 77c7 eb3d 38e6 9f3d 82fa 05bd
00000020: 81c8 bd3d 99ae f03d f3d8 903e 0196 da3d
00000030: 3b6d 9abe 4c8e 1bbe eb1f dd3d 0125 fbbe
00000040: e062 9a3e 5d5f 9ebe bf9d 683e 0ddf 7a3e
00000050: 72dc a2be 43bf 81be 9b1a 783d a73e fe3d
00000060: 5e7b a63e d467 98be feb8 333e 4c1e a1bd
00000070: 2907 4fbe 8234 183c 51b8 f73d 3df6 68be
00000080: acfb 683e eb43 8d3e a93b 24be 7bbd 80be
00000090: 9dcc 11be 30fb 153e 6fb2 5abd 8997 07bf
000000a0: 6099 91bd 44c8 f23e e50e da3e 98c4 86be
000000b0: 9804 703e 082b 80be dfd8 2cbe b2fe 263e
000000c0: 8dff 27be d3f2 debd 38ad 2f3e 0c1f 74bd
000000d0: 6a85 bc3d d14c b83e 1b3f dbbd a1ed 83be
000000e0: c533 98bd 42da 8a3d 0f5d 3fbe 9c03 1cbe
000000f0: aa04 4dbe bc5e a5bd 6cc7 86be 1156 1e3e
0.29666433 0.26532388 -0.22956912 0.1433463 -0.17996086 0.11512654 0.078075826 -0.032709606
0.09266759 0.11752052 0.2829052 0.10673142 -0.3016146 -0.15191 0.107971035 -0.4905167
0.3015356 -0.3093213 0.22716425 0.2449915 -0.3180881 -0.25341234 0.060572248 0.12414294
0.32515997 -0.29766715 0.17551038 -0.07867107 -0.20217575 0.009289863 0.120957024 -0.22750182
0.22752255 0.2759088 -0.16038384 -0.25144562 -0.1423821 0.14646602 -0.053392824 -0.529656
-0.07109332 0.47418416 0.4258949 -0.26321864 0.23439252 -0.2503283 -0.16879605 0.16308096
-0.16406079 -0.10886159 0.17155921 -0.05959992 0.09205134 0.35996106 -0.10705396 -0.25767234
-0.07431749 0.067799106 -0.18687843 -0.15235752 -0.2002131 -0.0807471 -0.26324022 0.15462519

AmpNet.0.conv0.1.frequency_process.process1.0.bias f4 [8]
00000000: d99e a9bd acd5 25be fad3 b0be 6a01 46be
00000010: 30a1 b43e 498f bdbd a27f 943e a1cd 8ebe
-0.08282251 -0.1619479 -0.34536725 -0.19336477 0.35279226 -0.09255845 0.29003626 -0.27891257

AmpNet.0.conv0.1.frequency_process.process1.2.weight f4 [8, 8, 1, 1]
00000000: 8d09 32bc 5168 003c e938 cbbe 9a8f d1be
00000010: 2ab9 bdbc b652 1bbd 1da9 303e c624 60be
00000020: a00d ec3d 1ce0 6e3e b1eb fe3c 98f0 81be
00000030: 958b 8a3e c09c 753e c8ed 7fbe 48b5 023e
00000040: 3f25 af3e 4c52 bfbd 2dd5 f5bd a1d4 9fbe
00000050: 3d66 02be c73b bd3e 6053 a2be b451 4e3d
00000060: d3d3 793e 929e 9dbe 42da 06be 406d b23e
00000070: 1b02 4c3e a523 02bf cd06 de3e ab31 783e
00000080: 8d48 d83b 081e 20be d582 5c3e 5886 993d
00000090: 885d 96be dcd3 8bbe a1bd 8f3e 9b18 953e
000000a0: fd25 233e b46f 283e 86f2 f5bc 8338 84bb
000000b0: 602c d13e 6e20 91be 5508 e33b 1d56 963e
000000c0: b3ba 9ebe 2280 c8be a53e 40be 906b 11be
000000d0: 54ab 92be 6480 fd3e 488b a3be 2f3d 12be
000000e0: 352b e43c f382 883d b95c 34be ab25 d43e
000000f0: 8b79 fdbc 5e73 303d ee2d 49bd a7d1 5d3e
-0.010866535 0.007837371 -0.39691857 -0.40929872 -0.023159582 -0.037920676 0.17252012 -0.21889028
0.11526036 0.23327678 0.031118246 -0.2537887 0.27059618 0.23985577 -0.2499305 0.12764466
0.34208104 -0.09341869 -0.12003551 -0.3121691 -0.12734313 0.3695967 -0.31704235 0.050370887
0.24397211 -0.30785042 -0.13169196 0.34848976 0.19922678 -0.5083564 0.43364564 0.24237697
0.0066004456 -0.15636456 0.21534283 0.07496327 -0.29368234 -0.27310073 0.28074363 0.29120335
0.1593246 0.16448861 -0.03002287 -0.004035057 0.40854168 -0.28345054 0.0069284835 0.29362574
-0.31001815 -0.39160258 -0.18773897 -0.14201188 -0.28646338 0.49512017 -0.319422 -0.14281152
0.027852634 0.066656016 -0.17613496 0.41434988 -0.030941745 0.043078773 -0.049116068 0.21662007

AmpNet.0.conv0.1.frequency_process.process1.2.bias f4 [8]
00000000: c15e 903c e0b7 d1be 2054 1e3e 1565 5ebe
00000010: eee5 6e3d 29a4 a73c ebe7 85be 162c b13d
0.017623307 -0.40960598 0.15461779 -0.21718247 0.058324747 0.02046402 -0.26153502 0.08650987

AmpNet.0.conv0.1.frequency_process.process2.0.weight f4 [8, 8, 1, 1]
00000000: e171 74be 4cd3 8ebe 99c4 c3be 0d3f 793e
00000010: 4811 04be 14ab 393e 2a36 453e 54b6 69be
00000020: eb1d 75bd 7d3f 033c 41c9 bfbe 4037 aabe
00000030: c251 563e 073c a4bd bf49 6fbe 82e6 36bd
00000040: 1c50 b93e 1b13 8fbe 66fb 553d bf85 873e
00000050: a543 4ebe 1cf6 163d a8db 78bd 3c26 3b3e
00000060: b233 2e3e ae52 25be 3f54 98be 584b 4cbe
00000070: fcb6 7f3e 1b98 05be 3642 c23d 0432 e9be
00000080: 3aa3 a8bd b92a 1fbe 94be 823e 3b42 15bd
00000090: 3b95 f93d b165 8cbe 1864 49be e55f 91bd
000000a0: 6f17 a53e 487c 2abe b367 9ebd 73a4 983e
000000b0: 6f48 9d3e 0e41 703c 6fa7 c2be e9b1 a23e
000000c0: 0b6d 6e3e 5702 14bc 7183 02bf bd8a 8e3e
000000d0: e8ee a83d 83d9 d9bd 8d80 86be 2250 b7bd
000000e0: 4cad 203e 6759 0f3e d8c1 2c3e 5321 49be
000000f0: 2f0b 93be 0f7e 14be b938 83be 55ab b93e
-0.23871566 -0.27895582 -0.3823593 0.24340458 -0.12897217 0.18131667 0.19258943 -0.22823459
-0.059842985 0.008010742 -0.37458232 -0.33245277 0.20929626 -0.08019262 -0.23367976 -0.044653423
0.3619393 -0.27944264 0.052241705 0.26469228 -0.20142992 0.036855802 -0.060756356 0.18276304
0.17011908 -0.16144821 -0.29751775 -0.19950616 0.24972147 -0.13046305 0.09485285 -0.4554597
-0.08234258 -0.15543641 0.25536025 -0.036440115 0.121866666 -0.27421334 -0.19667089 -0.070983686
0.3224444 -0.16648972 -0.07734623 0.29812965 0.30719325 0.014663948 -0.38018367 0.3177636
0.23283784 -0.009033761 -0.50981814 0.27840224 0.08248693 -0.1063719 -0.2626995 -0.08950831
0.15691108 0.13998948 0.1687082 -0.19641618 -0.2871947 -0.14501213 -0.25629213 0.36263528

AmpNet.0.conv0.1.frequency_process.process2.0.bias f4 [8]
00000000: 0022 c8be caf2 d93d bb6a cf3c 7776 8cbd
00000010: e790 bcbe 93f5 68be d021 fb3d 8d50 d9bc
-0.3908844 0.106420115 0.025319448 -0.06858533 -0.36829302 -0.22749929 0.122623086 -0.026527667

AmpNet.0.conv0.1.frequency_process.process2.2.weight f4 [8, 8, 1, 1]
00000000: 5fd4 303e 6d39 09be c328 253e c5df ab3d
00000010: eb0f 01be d8ce f0bd b31b b83d a37e 1a3d
00000020: 7a67 c1bc 7429 d7bd a6c9 4c3c 020f bdbd
00000030: cf70 48bd e3ea 92be 852b de3d 50b2 b33e
00000040: 2a30 9dbd 5160 a03e 0fe3 a6be be9a 22be
00000050: 3ade d63d dbc2 8d3e c5c0 a3be 08a8 ac3e
00000060: abd3 65be 1e84 02bf cb8e 92be bc95 82be
00000070: f56a 7dbd aa1e 74be c9de b4be 2624 933e
00000080: d735 9e3e 572c e4bd d402 c23d a661 813e
00000090: f379 b23e 53fc 1cbe 6c08 b53e ae74 ac3e
000000a0: d93f 553e ce55 3d3e 4134 e3bc 8fd5 b3be
000000b0: 1a71 dc3d 4dd2 d13e 5b7d 453e 60f6 663e
000000c0: e1df 093e 01d3 14be 3fcc 34be 4971 14be
000000d0: ff86 253e a075 de3b f1a0 00be 0f94 dabc
000000e0: 2f04 d8bc ffc0 ca3e f4d8 c33e ee3d 743c
000000f0: 6cc4 a33e 5f43 c93e 18a1 a03e d426 ab3e
0.17268513 -0.13400812 0.1612883 0.0839229 -0.12603728 -0.11758202 0.08989658 0.037718426
-0.023608912 -0.105059534 0.012499249 -0.09231378 -0.048935708 -0.2869483 0.108481444 0.3509698
-0.07675202 0.31323484 -0.32595107 -0.15879342 0.10491605 0.27687725 -0.3198301 0.33721948
-0.22444026 -0.50982845 -0.28624567 -0.25504863 -0.06186958 -0.23839822 -0.35326222 0.28738517
0.30900452 -0.1114127 0.09473196 0.25269812 0.34858665 -0.15330629 0.35357988 0.3368277
0.20825137 0.18489763 -0.027734878 -0.3512387 0.1076376 0.4098076 0.192861 0.22554922
0.1346431 -0.14533617 -0.17656039 -0.1449634 0.16164778 0.0067889243 -0.12561394 -0.026681928
-0.026369182 0.3960037 0.3825146 0.014907343 0.31985795 0.39309213 0.31372905 0.3342806

AmpNet.0.conv0.1.frequency_process.process2.2.bias f4 [8]
00000000: 26ee 893e eee8 88be 4202 463d dc0a c1be
00000010: 828a 24be 97fd 9ebe 23cc 773e a675 053f
0.26939505 -0.2674021 0.048341997 -0.37703598 -0.16068462 -0.3105285 0.24198966 0.5213264

AmpNet.0.conv0.1.cat.weight f4 [8, 16, 1, 1]
00000000: e519 8b3e e7cf 863d fac9 0a3e c5a5 07be
00000010: 284e 4a3e 7a60 253e 3238 4b3e f1cd 30be
00000020: c9f2 acbc a60f 033e 98e3 783e 40fd 80be
00000030: 4d95 643d 7f83 47be 7fa2 5cbc 8213 f2bd
00000040: dfb8 bfbb 1527 95be 0038 ee3d 595f 9d3e
00000050: a111 f23c 3291 293e 43aa 3a3e d981 0dbc
00000060: abec 183e 9074 cd3c 5a65 5e3e ce08 1b3e
00000070: 5861 3e3d dba4 af3d 6424 893e eadb 433d
00000080: 7b8a f13d 830d b13e 9a87 6abe 57d1 17be
00000090: 22ea febb 9fa0 dbbd a433 bc3e 6db9 9c3d
000000a0: e705 b8bd 0f25 dcbd 2d68 f83d 7d80 473e
000000b0: 990a 573d 2594 4c3e 1e3f 403d 90ab 8cbd
000000c0: 71fb 45be a444 78be bbca ec3d 1ca7 183e
000000d0: 4ac0 3e3e df08 5fbe cb8f 023e c52a 34be
000000e0: 998d 0bbe f094 983d 2001 8c3e 7e7c 8bbe
000000f0: e216 54bd 5b11 65be 04ac 903c 2c59 163e
00000100: 0dce 11be 5804 59bb 8820 633d 8de5 833e
00000110: daab a9be d7cf 783e 3c6b 763e 6c7e 43be
00000120: 2ee9 2abe a98d c13c 8071 d53d 7421 f83d
00000130: 792b 0ebe 9003 883e e809 7e3e 6798 073e
00000140: 3079 163e 32f7 3f3c 64da 8fbe 9612 d2bd
00000150: 3077 d2bd 891d abbd e861 26bd 0db5 a03c
00000160: 1d6d 99bd fdc7 233e 1bb5 4cbe ca9e 14be
00000170: 76df 82bc 396e 3bbe b254 bd3c 409f 90be
00000180: 7e87 28be e705 393e 6d00 c4bb eb37 673e
00000190: 48f3 723e f1c3 3dbe 26b7 893e 4935 143c
000001a0: 626d d63d 9659 61bd 5b9a 4bbd e35d a83d
000001b0: c2fc da3d 44f9 efbd e3e6 873e caf8 9c3d
000001c0: 9941 ed3d b82d c73d 6230 ca3c 80d7 873e
000001d0: 91fd 74bd 40db 543e 18b9 7cbe e70a 86be
000001e0: 4513 b9bd acb1 903e 1977 a93e c913 05be
000001f0: 3b79 34bc b769 4d3e 88a8 193e ac39 b73d
0.27168193 0.06582623 0.1355361 -0.1324683 0.19756377 0.16150084 0.19845656 -0.1726606
-0.021111863 0.12798938 0.2430557 -0.25193214 0.055806447 -0.19483756 -0.013466476 -0.11820127
-0.005850896 -0.2913138 0.11631775 0.30736807 0.029549422 0.16559294 0.18229012 -0.008636915
0.14934032 0.025079995 0.2171835 0.15140077 0.046479553 0.085763656 0.26785576 0.04781715
0.11793991 0.3458062 -0.2290329 -0.1482595 -0.0077793756 -0.107239954 0.3675815 0.07652555
-0.08985501 -0.10749256 0.12129245 0.19482608 0.05250034 0.19978388 0.046935193 -0.068686604
-0.19334199 -0.24244934 0.11562105 0.14907497 0.1862804 -0.21780728 0.12750165 -0.1759444
-0.13628234 0.074502826 0.27344608 -0.27243418 -0.051779635 -0.22369902 0.017660148 0.14682454
-0.14238758 -0.0033114161 0.055450946 0.2576107 -0.33138925 0.24298035 0.24064344 -0.19091195
-0.16690513 0.02362712 0.10422039 0.12115756 -0.13883771 0.26565218 0.24808466 0.1324173
0.14694667 0.011716651 -0.28096306 -0.10257451 -0.102766395 -0.08355243 -0.040620714 0.019617582
-0.07491515 0.15994258 -0.19990961 -0.14513698 -0.015975695 -0.18303765 0.023111675 -0.28246498
-0.16457936 0.18068658 -0.005981496 0.22579925 0.23725617 -0.18531777 0.26897544 0.009045907
0.10470082 -0.055017076 -0.04970775 0.082210325 0.10692741 -0.117174655 0.2654334 0.0766464
0.115847774 0.09725517 0.024681274 0.265316 -0.059812132 0.20786762 -0.24679983 -0.26180193
-0.090368785 0.28260553 0.33098677 -0.12995829 -0.011015232 0.20059858 0.15005696 0.08946547

AmpNet.0.conv0.1.cat.bias f4 [8]
00000000: 4775 b13d e52f 49bc 8a70 b2bd 21b6 d2bc
00000010: 1d8d 78bd 0b99 81be 8d9b 77be 5c0c 07be
0.08664947 -0.012279485 -0.087128714 -0.025721611 -0.06068145 -0.25312075 -0.24180432 -0.13188308

AmpNet.0.conv1.spatial_process.block.0.weight f4 [8, 8, 3, 3]
00000000: ebbd 6a3c f57b 873c 1708 0e3e 0aae 103e
00000010: e712 863e 792b 7f3d c656 fa3d 89c7 f93d
00000020: a774 11bd 51b6 c13d 7851 983d 60ea 08bd
00000030: c11f 3fbd 287f 80bd f53f 0cbd 2a61 b73d
00000040: e58e 893d 350d 81bd 7b6d 103d 61ae ccbd
00000050: 1ae7 1cbe c02b 09bd dcbe 01be 64f1 843d
00000060: 1633 363c 7304 21be 8e72 aabd a758 1fbe
00000070: bb13 51be fb1a 32be 28ac acbd 3b20 36be
00000080: 0401 5dbd a024 13be 5b6e e1bb beb3 48bd
00000090: 4e93 c23b 60c5 e7bd a039 33be 8820 0bbe
000000a0: a173 38be bfb9 4ebc e417 37be 6c09 aabd
000000b0: e725 3bbe 3488 fbbc 83e5 f2bc b1a5 2e3e
000000c0: 101b 503e 8a43 373e 96a8 a63c 05a6 c93c
000000d0: 6d9d c2bd 4452 f23d d9c0 253c 2379 d03c
000000e0: 5450 0ebd 4377 88bd f088 27bd 537d 6d3c
000000f0: de50 c13c 01b5 b2bd 4696 753c 8f2e 513e
00000100: 862d 68bd d18e e83d cc38 4dbe 920d 87be
00000110: b55d d2bc 4a64 133d 0432 723c 1823 e1bd
00000120: 3fc3 b13c ce9e b3bd 86df 93bd 3558 00bd
00000130: d83a afbd 6ef3 d0bd 5e70 ee3c 891e a33c
00000140: a208 a5bd 6262 10bc 1a1a 943c 7731 edbd
00000150: f1ba 68bc e37f d83d caab f4bd 9a91 99bd
00000160: 6220 eb3c 193a 88bd 78a6 35bd 37a7 0bbc
00000170: 0a0b 3fbe 5485 7fbd f80b 1bbd 0d9c 97bc
00000180: 1162 ffbc ead4 a9bd 3e47 23be cd0f 9ebd
00000190: 5424 093e 7216 9cbc 8960 c7bd 36f9 24bc
000001a0: 3de0 6c3d c362 7bbd e671 0b3e ef63 db3d
000001b0: 07d9 11be 7420 86bd 2403 35be 63d1 5abe
000001c0: 6927 b3bc a7b5 613b 1345 f83b e7bc 313d
000001d0: 2d57 20be 043c d9bd 8252 fbbc 200b 263d
000001e0: 0363 c73d 5e5c 5a3c 0440 3dbe b7f5 22be
000001f0: a3b8 87bc 724d 8abc d49f 4dbd 72ee 2dbd
00000200: 86ef 31be 969f d0bd 4f85 bbbd 41db f2bc
00000210: ee5c 38be 2d81 2d3d f8b4 3bbe 6fcb 04bd
00000220: 0a48 c0ba 4146 c7bd e2bc 0dbe 831d 48bd
00000230: 0d25 36bd ff33 70bc cbe5 57bc f8de 85be
00000240: b081 03bd bd52 3fbb 6a43 1c3d e90d 8abd
00000250: 6194 eabd a6ee 32be 98dc 9fbc c476 57bd
00000260: 9654 43bd e889 853d fde5 15bd 028f ed3d
00000270: b8e3 0bbd 14b9 f6bd 39b2 cc3d 5f1e a5bd
00000280: e089 943b 17e0 563e 1445 923d 4556 05bd
00000290: 9977 e4bd fb6e 4c3c 8ba9 973d ebb3 6bbd
000002a0: b9e2 a93d 3227 0ebe d48e d4bd ed5f d7bc
000002b0: 7e37 ae3c 6ecf 0d3d 1f3b d03d 3671 063e
000002c0: e18c 1d3e 45a1 7a3e 88bf 3d3e b039 843c
000002d0: cd9a 653d de2f fabc e94f 203d 99df c9bd
000002e0: dea6 c53d 2463 653b 9103 d83c 37b5 fd3d
000002f0: e3b6 4d3e a78f f03d 0f3c c23c 7b3d 95bd
00000300: 185d 523c 3056 01be df6b e8bd 7c79 4fbb
00000310: 450b b2bc bde6 79bd c773 bebd 24da 82bb
00000320: ffaa 8a3c f96b 6b3c 7adc 00be 6b21 183d
00000330: 3a0b b43a f202 14be 36d7 2a3e 39e2 fcbd
00000340: e5f5 2f3e c6aa ac3d 185e 4bbd fd3b 1e3e
00000350: 3db2 e53d f667 18be e1d2 1c3e 75c3 a03e
00000360: 31d8 6c3e 5346 b53d cdc6 8c3d e574 4bbd
00000370: a77b f3bd 8719 3a3c dc82 a53d a745 6dbe
00000380: bf73 9ebd cbf9 0dbd 6238 003e ea51 9ebd
00000390: a7e6 4f3d da6c b43b 1cb4 debd 71d6 823d
000003a0: 85aa 69bc 8a57 af3a 0ba4 9abd e605 063c
000003b0: bc03 c2bc 6bde a33d 133a 173d 0063 febd
000003c0: 92ff 4f3d 3d57 db3d f6e4 6cbc ec0c b63d
000003d0: 0f33 003e 1818 e8bd 4977 45bd 0231 c2bd
000003e0: 16c8 813c 2dcb 2f3e b15f 063e 52b6 0abe
000003f0: 8b3d a4bd c6ef 393d fe97 ca3d ceae 29bd
0.014327507 0.0165386 0.13870274 0.1412889 0.26186296 0.062297318 0.12223582 0.121962614
-0.03551164 0.09458602 0.07437414 -0.033426642 -0.046661142 -0.06274253 -0.03424068 0.089540794
0.06716708 -0.06301347 0.03526066 -0.09994198 -0.15322533 -0.03348899 -0.12670463 0.06491354
0.011120578 -0.15724353 -0.08322631 -0.15561162 -0.20417683 -0.17393105 -0.08431274 -0.17785732
-0.053956047 -0.1436944 -0.0068796105 -0.04899954 0.0059379702 -0.11316943 -0.17502451 -0.13586628
-0.18012859 -0.0126175275 -0.17880207 -0.08302578 -0.18276177 -0.030704595 -0.029650455 0.17055394
0.20322824 0.17896858 0.02034406 0.024615297 -0.09502683 0.11832097 0.010116779 0.025448387
-0.034744576 -0.06663372 -0.04090208 0.014495212 0.02359813 -0.0872593 0.014989441 0.20427917
-0.05668404 0.11355365 -0.20041198 -0.2637754 -0.025679449 0.035984315 0.0147824325 -0.10993022
0.021699546 -0.08770524 -0.07220368 -0.03133412 -0.085561454 -0.102026805 0.029106315 0.019912021
-0.08058287 -0.008812519 0.018078852 -0.115817 -0.014204727 0.105712675 -0.11946829 -0.074984744
0.028701965 -0.06651706 -0.04434821 -0.008523754 -0.18656555 -0.06238301 -0.03785321 -0.018507028
-0.031174691 -0.08292563 -0.15945145 -0.077178575 0.13392764 -0.019053672 -0.097352095 -0.010069182
0.057831038 -0.061373483 0.13617668 0.1071242 -0.14242946 -0.06549159 -0.1767698 -0.21368937
-0.021869378 0.0034440549 0.0075765937 0.043393042 -0.15658255 -0.1060715 -0.030678991 0.040537953
0.09735682 0.013327686 -0.18481451 -0.15914045 -0.016567534 -0.016882632 -0.050201252 -0.042463727
-0.17376527 -0.101866886 -0.09156286 -0.029645564 -0.180042 0.04235952 -0.18330753 -0.032420572
-0.0014669907 -0.09730197 -0.13841584 -0.04885627 -0.044468928 -0.014660834 -0.0131773455 -0.26146674
-0.0321061 -0.0029193603 0.03815023 -0.067409344 -0.11454082 -0.1747385 -0.019514367 -0.052603498
-0.04768809 0.06520444 -0.036596287 0.11599542 -0.034152716 -0.120470196 0.09994931 -0.080624335
0.0045330375 0.20983921 0.07142082 -0.032552976 -0.11155624 0.012477632 0.07405385 -0.05754463
0.08295197 -0.1388214 -0.10378805 -0.026290858 0.021266695 0.03462165 0.101675265 0.13129124
0.15385772 0.24475582 0.18530095 0.016140789 0.056055833 -0.030540403 0.03913871 -0.09857101
0.09650968 0.003500172 0.026368888 0.123880796 0.20089297 0.117461495 0.023710279 -0.07287117
0.012839578 -0.12630534 -0.113487 -0.0031658104 -0.02173389 -0.061011065 -0.092994265 -0.0039932895
0.01692724 0.014369004 -0.12584105 0.037141245 0.0013736256 -0.14454249 0.16683659 -0.12347836
0.17183645 0.0843101 -0.04965028 0.15452571 0.11215637 -0.14883408 0.15314819 0.31399122
0.23129345 0.08851304 0.06873856 -0.049672026 -0.11888819 0.011358625 0.080816 -0.23171102
-0.077369206 -0.03466205 0.12521508 -0.077304676 0.050757077 0.00550614 -0.10874197 0.06388558
-0.014261846 0.0013377529 -0.0755082 0.008180117 -0.023683421 0.08001407 0.03692062 -0.124212265
0.05078084 0.10709999 -0.014458885 0.088891834 0.12519477 -0.113327205 -0.048209462 -0.09482004
0.015842479 0.17167349 0.13122441 -0.13546112 -0.08019551 0.04539468 0.098922715 -0.041426472

AmpNet.0.conv1.spatial_process.block.0.bias f4 [8]
00000000: 0c77 803d bc04 893d 7e79 083e 2ad5 6f3d
00000010: b543 fcbc 40e2 8bbd 7e3b 94bd 01d4 e33d
0.062727064 0.06690356 0.13327596 0.0585529 -0.030794004 -0.06830263 -0.0723791 0.11124421

AmpNet.0.conv1.spatial_process.block.2.weight f4 [8, 8, 3, 3]
00000000: daf6 67bd 3b59 9eba bb91 713d 795e a33d
00000010: 904f cd3d 2c6e 0b3e e129 133e 561c 4bbd
00000020: d46c 003e 66b0 89bd 2301 e63d 0572 fe3c
00000030: 10fb 933d e441 253e e92e d2bd 4cc6 373d
00000040: b7d5 253e ac6d 61bd aa26 e1bd 72f0 4abd
00000050: 9082 5e3c ec1a 363e 00a6 b43d e3bc b93d
00000060: 32d1 a93c 7a31 5e3d d7b2 9c3d 8467 03bc
00000070: 43b5 d338 8806 723c 31c0 833b e0d3 d1bc
00000080: c74e 75bc 177b bf3d 983e 83bc dbab cdbb
00000090: 1253 f83d ccff 353e 500c bf3d 82b8 1fbe
000000a0: 519a 56bd 7e2b 2f3d a132 a93c da18 c0bd
000000b0: a25c f2bd 0dd3 cc3d 5bae aa3c cd18 013e
000000c0: ed50 6d3c f637 16bd f5ad f73d 6999 103d
000000d0: 9f18 9abd 027d c3bd 62d0 f73c 7d2d 163d
000000e0: be54 d73d 36fa b83c cdd6 ab3d 71f2 c4bc
000000f0: d2ad df3d 50cc aebd f425 68bd 68b9 193e
00000100: 8536 183e bdd3 f83d 9234 033e fd5c e6bd
00000110: d262 003e dfe4 d93d aa3e 45bd 24dc f43d
00000120: 021f 42be a49e bbbc 7e98 46be 8a04 2b3d
00000130: 0ce7 f6bd 7a97 cabd e2e4 8e3d 8d3b eb3d
00000140: 5942 b73d 6ac7 c7be 4d10 97be 60bd 54be
00000150: c86f b0bd 2793 debd 10fb 92bc f18d b8bc
00000160: a838 d8bc 1c9c bebd 533d f8ba b70e 4f3e
00000170: 6247 b73d 6c20 dd3d 3984 55be 20ae 91bd
00000180: d0c2 153d c31e a3bd 631c 09be ad63 e33b
00000190: 1307 7e3d 7ed6 f83d f2c1 d63c 5abc 0bbe
000001a0: c8b7 eb3d 0520 f13c 4527 43bd 881a 46bd
000001b0: c220 1abe 474e c8bd 47e6 34be 1f64 653d
000001c0: 61a2 29bc 87b7 203e c971 143d 873c 143e
000001d0: 0200 cc3d 0e64 683b f17a 13bd 0512 a33c
000001e0: 4509 3cbe f062 dfbd cd36 e1bc 5d21 703d
000001f0: cd78 e3bb f0cb 3d3e e594 fdba c38d 48be
00000200: bd13 d4bd 0e67 a6be 780b f5bd 5a80 693d
00000210: 4124 d13d 45c4 edbc 199e d4bb fae1 3bbe
00000220: 7299 63be 9977 3fbe d47c c63c c433 09be
00000230: 1d35 c1bc 8950 163e eebb 0bbd 3b12 8e3d
00000240: 77c3 e03d aa41 c33c ab70 e53d 6150 143e
00000250: 26a7 5ebc ac89 54bd b8bf 8dbd dcec 833d
00000260: 0ff1 193e 0971 79be 1977 043e 863f acbd
00000270: 13d1 243d 3437 293e 9035 07be 6da9 ffbd
00000280: 54e5 d83d dfe1 45ba 99e8 14bd 7f6a 20be
00000290: eee2 9ebd 7ff7 60bd b37a 0d3d 5a48 2c3e
000002a0: 91d3 9ebc 1e61 c13b dc5a 0a3e 41c5 823d
000002b0: 5fa3 a3bd 0658 19be 12b9 0d3d 7e18 85bc
000002c0: 1182 023e f8eb 2f3d 147a 853d a0b0 74bc
000002d0: c7e3 3b3d cd9e 8fbd 33cf 91bc 1135 de3d
000002e0: 75f8 bf3c 9d86 2cbd 781d 83bc 8cf9 bbbd
000002f0: c24d babd 97c2 b2ba bb8e 233b e0d7 0bbe
00000300: e45e 6a3d f892 c9bd e53d 3aba ce78 60bd
00000310: ea2e c5bd 9573 15be 9a83 273e 4d10 483e
00000320: 73d6 fc3d 6f56 92bd 6ea4 65be 9a8c 8e3d
00000330: 7833 953e edd5 cabd 3292 7ebd 4fd7 b0bc
00000340: 7991 f3bd c715 173d 2755 ab3d 80d2 aabd
00000350: ab1d 593d 1ebc 0c3d 668e 9a3d b1b2 a93d
00000360: 9023 1abe ddc2 583d ab4a 6ebb e6e1 9b3b
00000370: 7874 14bb 5b70 2abd 8070 b1bc 69d3 eb3d
00000380: afe5 913b db8b a1bd e4a3 20be a2d6 59bd
00000390: 3227 14bd b97e 8dbc 9dfb c0bc 62c7 9e3c
000003a0: c5ac e0bb 6c9e 99bd a03f 50bd 952c 22be
000003b0: d91d 76bc 2d28 9e3d 4592 abbc c848 823d
000003c0: 2b27 7cbd e577 48bd 5cb3 12bc a21a 303e
000003d0: 7480 3abd 6f46 f03c 57b0 f8bd 9c22 d8bd
000003e0: 2a6e d93d 4d3f 2a3e 103d 09be 19a2 8abd
000003f0: fef2 66be e812 1dbe 7f5f 63be 70a5 dfbd
-0.0566319 -0.0012081036 0.05897687 0.079770036 0.10024941 0.13616246 0.14371444 -0.04958757
0.12541515 -0.067230985 0.112306856 0.031060228 0.07225621 0.16138417 -0.10262854 0.044866845
0.16194807 -0.055036232 -0.10993703 -0.049545713 0.013580933 0.17783707 0.088207245 0.090692304
0.020729635 0.054246403 0.076512985 -0.0080202855 0.00010095027 0.014772065 0.0040207137 -0.025613725
-0.014972395 0.093496494 -0.016021058 -0.0062765903 0.121252194 0.1777336 0.0932852 -0.15597728
-0.05239326 0.042766087 0.020654025 -0.0937974 -0.118340746 0.10001192 0.020835092 0.12607117
0.014484626 -0.036674462 0.120937265 0.035302553 -0.07524227 -0.09545328 0.030250732 0.036664475
0.1051421 0.022580247 0.083905794 -0.024041386 0.109218255 -0.08535063 -0.05667682 0.15012133
0.14864548 0.12149761 0.12813023 -0.11248205 0.12537697 0.10639357 -0.048155464 0.11956051
-0.18957141 -0.022902794 -0.19394109 0.041752376 -0.120557874 -0.09892173 0.0697725 0.11485968
0.08948202 -0.39019328 -0.29504624 -0.20775366 -0.086150706 -0.10867911 -0.017941982 -0.02252862
-0.026394203 -0.09307119 -0.0018939174 0.20220457 0.08949162 0.107971996 -0.2085122 -0.0711329
0.03656274 -0.07964852 -0.13389735 0.0069393725 0.062018465 0.12150286 0.026215527 -0.13646069
0.11509663 0.029434213 -0.047644872 -0.048365146 -0.15051559 -0.09780555 -0.17665969 0.056003686
-0.010353656 0.1569501 0.036241326 0.14476214 0.09960939 0.0035460028 -0.036005918 0.019906053
-0.18362911 -0.10907543 -0.027491951 0.058625568 -0.006941891 0.18534827 -0.0019346742 -0.19585328
-0.10355327 -0.325005 -0.11965078 0.05700717 0.10211993 -0.029024253 -0.0064885733 -0.18347922
-0.22226503 -0.18697967 0.024229445 -0.13398653 -0.023584897 0.14679159 -0.03411477 0.06937071
0.10974782 0.023835022 0.1120313 0.14483787 -0.013589656 -0.051889107 -0.06921333 0.06441662
0.15033363 -0.24359526 0.12936057 -0.08410554 0.04023845 0.16524965 -0.13204026 -0.12483487
0.10590616 -0.0007548611 -0.036354635 -0.15665625 -0.07758127 -0.05492353 0.034540843 0.16824475
-0.019387992 0.00590147 0.13511223 0.063852794 -0.07990145 -0.14974985 0.034600325 -0.01624703
0.12744929 0.042949647 0.06517425 -0.014934689 0.045871522 -0.07012711 -0.017798996 0.10849965
0.023433903 -0.042120565 -0.016005263 -0.09178457 -0.090968624 -0.0013638315 0.00249569 -0.13656569
0.0572194 -0.09842485 -0.000710456 -0.05480271 -0.09628089 -0.14594872 0.16358796 0.19537468
0.123455904 -0.07145392 -0.22426006 0.06960411 0.2914083 -0.09904084 -0.06215114 -0.021587042
-0.11892981 0.036886003 0.08365851 -0.08340931 0.05300681 0.03435909 0.075466916 0.08286036
-0.15052629 0.05292021 -0.0036360424 0.004757154 -0.0022652429 -0.041611057 -0.02166009 0.11514933
0.0044524292 -0.078880034 -0.1568752 -0.053183205 -0.036170192 -0.01727234 -0.023557479 0.019382183
-0.0068565332 -0.0750092 -0.050841928 -0.15837319 -0.015021765 0.07722507 -0.02094377 0.06361538
-0.06156079 -0.048942465 -0.008953895 0.1719766 -0.04553266 0.02933046 -0.12143009 -0.10553476
0.10616715 0.1662571 -0.134022 -0.06769199 -0.22553632 -0.15339243 -0.22204398 -0.109202266

AmpNet.0.conv1.spatial_process.block.2.bias f4 [8]
00000000: 36df 9abd 35f4 92bd d2e6 913d 020e 1d3e
00000010: fdb8 3bbd 01a5 bdbd 79d3 d9bc c973 993d
-0.07562105 -0.07175485 0.071241036 0.15337375 -0.045830715 -0.092599876 -0.026590096 0.074927874

AmpNet.0.conv1.frequency_process.fpre.weight f4 [8, 8, 1, 1]
00000000: 017b 883b 04b4 42be c671 453e 117c 44be
00000010: 9f17 653d a6be 283d b63f 6d3b dbdd 343e
00000020: a89d 8ebe 140f e1bd ff6c a33e 12cb 583e
00000030: 9739 99bd 6504 c93d 5957 873e 81c7 a33e
00000040: 4541 55be 9d4d c8be 79d4 d7be c141 013e
00000050: 6b4a eabe 9aaa 933e 9301 7abe d70a cebd
00000060: 81f9 92bb ba2b 70be cfc4 803d bc88 dfbc
00000070: 80b9 3f3e 1b5e c8be 2128 ab3d b996 b53e
00000080: 593d 633e 383b dcbe af3b 243e bc25 3dbe
00000090: 5134 17bd cfd4 fc3d a410 9cbe f3fd 06bf
000000a0: e314 54be 0afb 733d 7c81 633e 60aa 84bd
000000b0: 1398 2d3e 026a fb3e 785d 953e ff0e 2d3e
000000c0: e4c3 d83d 3d84 1f3e c734 e2be 3533 b03e
000000d0: 60fe 36be 8c1f 1e3e 6451 a4be 2ded 983c
000000e0: 5d7d 213e 5e4d 4dbe 70c7 4ebc 135e 973e
000000f0: a3db 9bbe 2bc8 74be 7f66 05be 4f6c 333e
0.004165054 -0.19013983 0.19281682 -0.19187953 0.05593073 0.04119744 0.0036201305 0.17662756
-0.27854657 -0.10989204 0.31919095 0.21171215 -0.074816875 0.09815291 0.26433828 0.31988147
-0.2082568 -0.39121714 -0.4215429 0.1262274 -0.457599 0.28841096 -0.24414663 -0.10060661
-0.0044853096 -0.2345418 0.06287538 -0.02728688 0.18723106 -0.39134297 0.08357263 0.35466555
0.22191371 -0.4301393 0.16038392 -0.18471426 -0.036915127 0.123452775 -0.30481446 -0.52731246
-0.20711093 0.05956558 0.22217363 -0.06477809 0.16952543 0.49104315 0.29172873 0.16900252
0.10584238 0.15577789 -0.4418089 0.34414068 -0.17870474 0.15441722 -0.32093346 0.018667782
0.15770479 -0.20049044 -0.012620792 0.2956396 -0.30441007 -0.23904483 -0.1302738 0.17521785

AmpNet.0.conv1.frequency_process.fpre.bias f4 [8]
00000000: 27b3 1dbc 2ec5 0c3e e42f 1f3e 2087 12be
00000010: 4caa c63e ce6e c93d febc 723e 2abf 0fbe
-0.009625233 0.13747093 0.15545613 -0.14309359 0.388018 0.098355874 0.23704907 -0.14037767

AmpNet.0.conv1.frequency_process.process1.0.weight f4 [8, 8, 1, 1]
00000000: 4258 20be 675c 34be af05 3ebe c2ed 863e
00000010: 0002 b73e 3243 4cbe 1a8e a1be bf31 e03d
00000020: 6d1b 60bc b2b9 16be 60d3 c1be 38ab b93e
00000030: 0ba6 5fbe 2e6c 98be c096 843e 1c70 013e
00000040: fa1d 903e 8e83 c73d e131 3a3e 6533 adbc
00000050: fed3 80be 26b3 383e 5fcf aa3c bd8c 9ebe
00000060: a2cd 0ebe 2678 653e fc1c 5ebe d1a2 37be
00000070: e81a 533e b413 64be 7a03 35be 1f37 aebe
00000080: 5e8b 9fbe 3d08 3e3e bc69 593d e814 91be
00000090: 1f71 2fbe a53e 8ebe c614 313e a1eb 17be
000000a0: be0d 873e 3c0a f93d 3e15 b23e b63a e0bd
000000b0: 2b44 703e 05b0 f13c fa4a acbe 10b4 97be
000000c0: b96d bb3e fa0d cdbe 04a7 6cbe 2021 83be
000000d0: 7d6b 32be 889d 3ebe 094e 4c3e f296 dcbd
000000e0: 0784 b4be d906 90be 6521 dc3d 318e 9fbd
000000f0: c024 5c3d 995d 6c3e be6c adbd 1877 3e3e
-0.15658668 -0.17613374 -0.18556856 0.2635327 0.35743713 -0.19947508 -0.31553727 0.10946988
-0.013678414 -0.14719275 -0.3785658 0.36263442 -0.21840684 -0.29770035 0.25896263 0.12640423
0.2814787 0.09741889 0.1818309 -0.02114267 -0.25161737 0.1803709 0.020850835 -0.3096675
-0.1394563 0.22409114 -0.21690744 -0.17933203 0.20615733 -0.22273141 -0.17677107 -0.3402643
-0.31161016 0.1855783 0.05307935 -0.28336263 -0.17132996 -0.2778217 0.1729308 -0.14835979
0.26377672 0.12160155 0.34781832 -0.10948698 0.23463504 0.029502878 -0.33650953 -0.29629564
0.3660715 -0.40049726 -0.23110586 -0.2561121 -0.17423816 -0.18614781 0.19951643 -0.10770978
-0.3525698 -0.28130224 0.10748557 -0.07790793 0.053745985 0.2308258 -0.084680066 0.18600118

AmpNet.0.conv1.frequency_process.process1.0.bias f4 [8]
00000000: a39e 36be ae72 11bd 9889 6ebe 7f77 82be
00000010: 339f cd3e 7680 3c3e 0c10 d63d 6010 923e
-0.17833953 -0.035509758 -0.23294675 -0.25481793 0.40160522 0.18408379 0.104522794 0.28528118

AmpNet.0.conv1.frequency_process.process1.2.weight f4 [8, 8, 1, 1]
00000000: 03e6 64be 5e55 83be a15f 493e 2d85 883d
00000010: 793d c43e 1c3b db3e 251c 0abe cf55 173f
00000020: c076 ca3e 9265 cebe acb1 85be 1a58 66bd
00000030: 1e0e fb3d 9342 be3e 1feb 083e dff7 593c
00000040: 7874 1bbd 2d9d 40be bad1 bbbd 033f b2be
00000050: d599 3f3e e126 9b3e 77d5 8cbe eb39 e23e
00000060: f6a4 fd3c 6c05 ca3c 10e2 0b3d 0eb4 abbb
00000070: dc39 fcbd 2f8a e73d e286 d33e 840d 22bf
00000080: b08e 483e 6525 ba3e 3377 73bd e2ff 9ebe
00000090: 6ef8 ae3e 83dc 533c b986 6dbe fedc df3d
000000a0: c68b e73e fcf2 ee3c 5a8e b1be d7fa 633e
000000b0: d85e b0bd 4394 79bd b986 9f3d 7c04 073f
000000c0: 8393 86bd 5587 84be e81d 9fbe cdc9 9abd
000000d0: 9aa2 2dbd 439c 77be a984 b03e 58d0 df3e
000000e0: d9a9 0bbf 6239 6b3e ad85 3cbe 779a 223e
000000f0: 4a5d c6be bbec 48be c54e 50be 146d c4be
-0.22353368 -0.25651067 0.19665386 0.06666026 0.3832815 0.42818534 -0.13487299 0.5911531
0.39543724 -0.40311867 -0.26112115 -0.056236364 0.12258552 0.37160167 0.13370942 0.013303726
-0.03795287 -0.18809958 -0.091708615 -0.348137 0.18711026 0.303031 -0.2750661 0.44184813
0.030962449 0.024660788 0.034151137 -0.00523997 -0.12315723 0.11305653 0.41313845 -0.63301873
0.19585681 0.36356655 -0.05943985 -0.31054598 0.34173912 0.012930992 -0.23195924 0.10930823
0.45223826 0.029168598 -0.34678918 0.22263657 -0.0861184 -0.06093241 0.07789368 0.5274122
-0.065711044 -0.258845 -0.31077504 -0.07558022 -0.042391397 -0.24180703 0.34476212 0.4371364
-0.5455604 0.22971109 -0.18410368 0.15879236 -0.3874305 -0.19621556 -0.20342548 -0.3836447

AmpNet.0.conv1.frequency_process.process1.2.bias f4 [8]
00000000: 99d6 3e3e f930 ac3d f0b7 473e c985 4bbc
00000010: 92e8 ad3d 1702 743e 8266 903e 9ffd dd3c
0.1863655 0.08407778 0.1950376 -0.012422034 0.08491625 0.23828922 0.28203207 0.027098475

AmpNet.0.conv1.frequency_process.process2.0.weight f4 [8, 8, 1, 1]
00000000: 1158 80be 6170 38be 3fb8 8a3e e78f 6bbe
00000010: a98b 1e3e 5d69 8c3e 49d9 8b3e 48b7 7d3e
00000020: d477 84bd e2cc 96be 94e2 5a3e 1b94 8f3d
00000030: 1092 99be 61cc f43e acc9 58be 8288 c6be
00000040: 164a 343e 68a2 71be e197 f9bd d355 9abe
00000050: 6a06 01ba 4579 58be 6d10 29be 2fe5 95be
00000060: ca54 b0be 9b1d 743e 5af0 c2be d5b8 d13d
00000070: 9d69 4dbe 48c4 483e 3797 d63e 72bb 8abd
00000080: 6f72 793e 8819 c23e 18a4 373e 2a62 aebe
00000090: 37c5 fcbd 9bc3 8d3e 30a1 873e 3189 a9be
000000a0: dff1 10be 0a7f 5d3e 253e 2dbc 8bf6 a6bd
000000b0: 3705 aabd 2d56 853e 4332 9e3d 4477 bd3d
000000c0: 24b9 f5bd fb77 063e 98f2 103e 272a cb3c
000000d0: 4c74 e5be 0fff 3b3e 1b69 95bd 8435 55be
000000e0: 601f 12bd 7347 2ebe 11fd 3c3e e8ac 56be
000000f0: dd6e 85be 0dfa 85be 3104 a83e 26f2 d9bc
-0.2506719 -0.18011619 0.27093694 -0.23004113 0.15482964 0.27424136 0.27314213 0.24776947
-0.06468168 -0.29453188 0.21375495 0.07010671 -0.2999425 0.4781218 -0.21170682 -0.38776022
0.17606387 -0.2359711 -0.12187172 -0.30143604 -0.0004921915 -0.2114001 -0.16510172 -0.29276416
-0.3443969 0.23839419 -0.38074 0.10240332 -0.2005982 0.19606125 0.41912243 -0.067740336
0.24360059 0.37910104 0.1793369 -0.34059268 -0.12342303 0.27688298 0.26490164 -0.3311248
-0.14154766 0.21630493 -0.010573898 -0.08152493 -0.08301776 0.2604231 0.077244304 0.09251264
-0.119982034 0.13131706 0.14155042 0.024800373 -0.4481529 0.18359016 -0.07295438 -0.20821196
-0.035674453 -0.17019443 0.18455912 -0.20964396 -0.26061144 -0.26167336 0.32815698 -0.026604723

AmpNet.0.conv1.frequency_process.process2.0.bias f4 [8]
00000000: 3fae 13be d899 28bd 2049 cdbe 5ae6 6d3d
00000010: 8657 2b3e a2bd f2bd 700f 8bbe 5698 8e3e
-0.14421938 -0.04116234 -0.40094852 0.05808101 0.16732606 -0.11852576 -0.27160215 0.27850598

AmpNet.0.conv1.frequency_process.process2.2.weight f4 [8, 8, 1, 1]
00000000: cd6c b43e ccea 9dbd b87a 313e a732 ee3d
00000010: 3d8a 14be 92d3 3ebe 8585 3d3e 106a dd3d
00000020: 85d8 62be a245 64be 3d09 2d3e 510a a1bd
00000030: 9ea3 fdbd 2440 833e d2b9 58bc 539b acbe
00000040: 2a6e 03be 0fd2 57be 2b4c 353e 0661 ac3d
00000050: 56df bebd 9b28 45be f83a 593e db60 65be
00000060: a72a 9b3e 2f0f b5bd 9ab4 453e b9f9 f2bd
00000070: 0a8d 20bc 2bea 113e 0522 d63e c4ab 5d3b
00000080: 3dee 053f 2086 2d3e d18b 48bd f5f5 e3bd
00000090: eec8 25be e51b 03bd 8233 f63e 35a5 a9bd
000000a0: f11b a63e f8c7 aebe e931 c93d 9972 d6bd
000000b0: 41ad 84bd 27a7 513e faab ea3c 5647 843e
000000c0: c7ce 4ebe 133f b5bc 6f48 16be 4746 653e
000000d0: f3a6 033e 755e 4ebe 6d19 8e3e c53b 403e
000000e0: 5e5e 1cbe 07a3 6e3e 56cd 9ebe b733 963e
000000f0: 3055 a1be a391 ea3d 36ea 91bd 3e28 a6bd
0.35239258 -0.077107996 0.1733197 0.11630755 -0.14505859 -0.18635395 0.18507965 0.108112454
-0.22152908 -0.22292188 0.16898055 -0.07863296 -0.12384723 0.25634873 -0.013227897 -0.33712253
-0.12834993 -0.21076225 0.17704837 0.08416943 -0.09319942 -0.19253771 0.21213901 -0.22400229
0.3030598 -0.08840787 0.19307175 -0.11864037 -0.009799251 0.14249484 0.4182283 0.0033824304
0.5231665 0.16945696 -0.048961464 -0.11130897 -0.1618993 -0.032009024 0.48086172 -0.08283464
0.32443193 -0.3413694 0.09823973 -0.104710765 -0.06478358 0.2047392 0.028646458 0.25835675
-0.20196067 -0.022124803 -0.14676069 0.2239009 0.12856655 -0.2015322 0.27753773 0.187728
-0.15270373 0.23304377 -0.31016034 0.2933633 -0.31510305 0.11453559 -0.0712475 -0.08113144

AmpNet.0.conv1.frequency_process.process2.2.bias f4 [8]
00000000: 6f50 013e 784e 7cbe e017 93bd fec6 d83e
00000010: c14c 5dbc c02d 9ebd c6ff 9b3e 610b 02bd
0.12628339 -0.24639308 -0.07182288 0.4233932 -0.013507069 -0.0772357 0.30468577 -0.031749133
