pre-trained/lol2-real.pth (torch, 562237 bytes, 226 tensors)

AmpNet.0.conv0.0.weight f4 [8, 3, 1, 1]
00000000: 883f 253f f32c 9d3e 3203 223e 9747 143f
00000010: a4a5 bebe db3d 1d3f 27a7 403f 8a6e 003f
00000020: baa3 333e 66d4 ef3d 9a4f 013f 66dd 423f
00000030: d9ed f9be 2246 9ebe d0f5 373f 7976 4cbf
00000040: 4434 3a3d 9069 98be 7729 3e3f be4f c7bd
00000050: a52e ce3e 1c4e 0ebf 2d1e f13d e4b3 74be
0.64550066 0.30698356 0.15821531 0.5792174 -0.3723575 0.6142251 0.75255054 0.5016867
0.17542925 0.11710434 0.5051209 0.7611908 -0.48814276 -0.30912882 0.71859455 -0.79868275
0.04546 -0.29768038 0.7428202 -0.097320065 0.40269962 -0.55587935 0.11773334 -0.23896748

AmpNet.0.conv0.0.bias f4 [8]
00000000: 27e8 c5be b5ed f2be 53cf 183e c917 1abc
00000010: 7128 51bd ed72 f1be 9662 3c3e 3779 963e
-0.3865368 -0.4744698 0.14922838 -0.009405085 -0.05106396 -0.47157994 0.18396983 0.29389355

AmpNet.0.conv0.1.spatial_process.block.0.weight f4 [8, 8, 3, 3]
00000000: 81a1 b5bd 5b75 8cbc 9974 c2bd 8212 10be
00000010: a87a 03bd 41de 38bd cde7 a1bd 1c3e a1bd
00000020: f744 9c3d ec5b 9abc 1894 493d 6f6f a4bd
00000030: 3a19 bfbc 76b9 ea3c fec8 1bbd be32 313b
00000040: c5d9 54bd 12fe bbbc 4f4f 0bbd a2a8 f3bd
00000050: 0719 d83d 6ea3 8f3d 4941 0d3d 8b0d ea3c
00000060: 079f bb3d 45a7 373c 9ffa d7bd b558 0b3e
00000070: 2d2e 5a3e b92c 553e 6105 0e3e 4326 383e
00000080: e938 f13d d329 0d3e 0307 eb3d 65ae 413d
00000090: 214d 653e 35e1 953e 205f 6b3e c4d8 903e
000000a0: a24b f73d 7333 8b3e c1db 5a3e 3476 bb3e
000000b0: 91d2 863e c9b2 ad3d 850b 7bbb dcdb c4bd
000000c0: a161 ae3d 60b7 dabb d0d2 5a3d 7344 01bc
000000d0: 027b bdbd 0975 cd3d 1ab2 5abc ca1d 46bd
000000e0: d0c6 a53a be5b cfbd 7a3f 5cbd 120d 1f3d
000000f0: 5588 eebd 64f0 12bc f204 c3bd 04f8 b63d
00000100: ac0c 62bd 457b e13d 8051 1f3e a94a 2dbd
00000110: 4c52 a1bd 7828 acbb 22ae 893c 86b8 133e
00000120: fbc2 8b3d 5694 cf3d c409 a0bc 7622 a63d
00000130: 8b0d 17bd 696f e33c 9d4a fabc b6bd 4f3d
00000140: f828 1fbd 4f77 183d eea9 c8bd fe96 c8bd
00000150: f40c a23d ffac 633d f653 bf3d 916c 393d
00000160: cd3a 9a3d c0ec 94bd f879 193e 3c2b eb3d
00000170: 724f fa3d 46f2 c33d 2724 df3d 6388 7c3d
00000180: 3fdf 903d c85e 853d 8db4 1d3e 5ac4 6c3e
00000190: ec48 903e 2e65 9d3e ccd3 c83e e7de 973e
000001a0: bc2a a13e c5a6 673e 0790 9d3e 732d ad3e
000001b0: d368 b3bd d063 c33d ae44 1f3d e67c 843d
000001c0: 6cde 1cbc 98ba c83d d6a4 883d 1c65 333b
000001d0: 07ef 423a 3cf3 023c 492c 2fbc 48ad c53d
000001e0: 2a8f d83c e056 d23d a564 3d3c ba88 8ebc
000001f0: 890c 37bd 13c8 2fbd 54e9 973d b0c6 83bd
00000200: 4594 db3d 6706 bfbc 62ee 123e eec4 fc3b
00000210: 48e1 9f3d 694c 68bd f96e 003e 2c58 2dbd
00000220: daec c9bd 355a a93d 8da8 8dbd 3c49 c6bb
00000230: c2b5 45bd f2c4 b4bc 58fd b9bd 5878 2b3c
00000240: cc97 73bb 219d 7e3d d01b e9bc eb52 cebc
00000250: 9a11 f63c 7a24 16be 226b 40bd 9fbb 993d
00000260: 8cbd b9bd d016 31bd 5b6a 5c3d b633 09bd
00000270: ef9a 1f3c 8022 0c3d 51e6 e23b d013 093e
00000280: c399 7ebc f3c1 4c3d b581 193e a391 c93d
00000290: 3f91 aa3a 93da f33d 64e1 2d3d 7251 0abe
000002a0: 6ce3 1dbe af44 04be d8ac 1bbd 9708 9a3d
000002b0: d296 313e 1a49 a9bc 3d98 04be 9217 5bbe
000002c0: 3b71 11be 60c7 41be 143d 09be fd7f 7dbe
000002d0: f360 babd 0a2e 94bd ab15 e9bd 0ed4 14be
000002e0: 5e70 2fbd 47c6 b9bc 4446 1e3e 670b 023e
000002f0: 3ee9 093e b3ea 19be 3071 cdbd bf1c 5bbd
00000300: de5b 3d3c ada6 8ebd a34c 083d bc14 113e
00000310: a673 163e 9a32 273d ea94 413e 3e02 203e
00000320: dbc9 0e3e dd8a b0bd 0134 563d 50e4 d7bd
00000330: 4fc0 8d3d 1f86 1bbd b797 16bb fa01 813d
00000340: 9be7 c3bd b582 bebc 97fa 623a 6551 193e
00000350: 07f5 fe3c d822 19be 6407 febd 95ad 9abd
00000360: b5f0 3dbd 1b91 abbd e2d6 b4bc 7b22 10be
00000370: 0745 38bd fd0a 8fbd e553 993d 1ff1 bfbb
00000380: aa9e 88bd d03e 96bd 16ee bc3b 518d 8e3c
00000390: 958c 833d 2b94 973d d877 83bd e11b d0bc
000003a0: 32a5 e2bd 0494 9d3c 34af 4fbc debd e93c
000003b0: d3d8 04be 85cb d6bd 7427 123c 91c7 313d
000003c0: 557e 4bbc d86c b5bd bbad e6bd a61f 25bf
000003d0: 80c1 cbbe ec0a 2fbf d44e 14bf 0fa5 14bf
000003e0: 3d1a 3ebf a27a 0cbf 65c8 bebe 9d34 2ebf
000003f0: cd8f e7bd aa7e 2abe 7bc7 c8bd f7c7 a1bd
-0.08868695 -0.017145803 -0.094948955 -0.1406956 -0.032099396 -0.045133833 -0.079055406 -0.078731745
0.076303415 -0.01884266 0.0492135 -0.08029067 -0.023327459 0.028652888 -0.038033478 0.0027038301
-0.051965494 -0.022948299 -0.03401118 -0.118973985 0.105516486 0.070135936 0.03448609 0.02857091
0.091611914 0.011209314 -0.10545849 0.13608058 0.21306677 0.20817842 0.1386924 0.17983346
0.11778433 0.13785486 0.11475947 0.047285456 0.22392704 0.29273382 0.22985506 0.2829038
0.12074973 0.2718769 0.21372892 0.3661362 0.26332524 0.08481366 -0.0038306427 -0.09612247
0.08514715 -0.006674692 0.053423703 -0.007889855 -0.092519775 0.10032088 -0.013348127 -0.048368253
0.0012647752 -0.1012492 -0.053771473 0.038830824 -0.11647097 -0.008968446 -0.095224276 0.08934024
-0.055187866 0.1100984 0.15558434 -0.04230753 -0.07877025 -0.0052538477 0.016806666 0.14425859
0.06824299 0.10135715 -0.019535907 0.08112042 -0.03687815 0.027763085 -0.030553157 0.05071803
-0.03885743 0.037223157 -0.097980365 -0.097944245 0.07912627 0.055584904 0.09342186 0.045269553
0.075307466 -0.07271719 0.14987934 0.11482856 0.12222184 0.09567694 0.108955674 0.061653506
0.07073831 0.06512219 0.15400906 0.23121777 0.28180635 0.30741256 0.39224088 0.29662248
0.31477916 0.22622211 0.30773947 0.33823738 -0.08760228 0.09540522 0.038883857 0.06469135
-0.009574514 0.09801215 0.06672065 0.0027373498 0.00074361305 0.007992562 -0.010691711 0.096521914
0.026435453 0.10270476 0.01155964 -0.01739918 -0.04468969 -0.042915415 0.07417551 -0.06434381
0.107216395 -0.023318483 0.14348748 0.0077139055 0.07806641 -0.056713495 0.12542333 -0.042320415
-0.09859629 0.08269159 -0.06916914 -0.0060512107 -0.04826904 -0.022066567 -0.090815246 0.010465704
-0.0037169335 0.06216157 -0.028455645 -0.025186023 0.03003769 -0.14662352 -0.04697717 0.07506489
-0.09069356 -0.043234646 0.053812366 -0.03349658 0.009741529 0.03421259 0.0069244285 0.13386464
-0.015539589 0.049989652 0.14990886 0.09842231 0.0013013257 0.11906924 0.042451277 -0.13507631
-0.15418786 -0.12916826 -0.038006634 0.0752117 0.1734269 -0.02066474 -0.129487 -0.2139571
-0.1420335 -0.18923712 -0.13402206 -0.24755855 -0.09100523 -0.07235344 -0.11381086 -0.14534017
-0.04283177 -0.022677554 0.15456492 0.12699662 0.13467881 -0.15030937 -0.100313544 -0.05349421
0.011557547 -0.06965385 0.03327621 0.14168066 0.14692554 0.04081974 0.18904462 0.15625855
0.13944189 -0.08620236 0.05229569 -0.10541594 0.069214456 -0.037969705 -0.0022978613 0.06299205
-0.095656596 -0.023255685 0.00086585566 0.14972456 0.031122698 -0.14954698 -0.124037534 -0.075526394
-0.046372134 -0.08377286 -0.02207512 -0.14075653 -0.044987705 -0.06984518 0.07486705 -0.0058576013
-0.06670888 -0.07336199 0.0057656867 0.01740137 0.06423298 0.07401308 -0.06419343 -0.025403919
-0.11066665 0.019235618 -0.012676049 0.028532919 -0.12973337 -0.10488037 0.008920539 0.043403212
-0.012420257 -0.08858651 -0.11263605 -0.64501417 -0.39796066 -0.6837604 -0.5793278 -0.5806436
-0.74258786 -0.5487462 -0.37262264 -0.6804903 -0.11306725 -0.16649881 -0.09803673 -0.078994684

AmpNet.0.conv0.1.spatial_process.block.0.bias f4 [8]
00000000: 4781 63bd 0bf4 833d 72e2 ff3c ee96 863d
00000010: bea7 403d 480e 19bd aaf1 bebd e14e 713c
-0.05554321 0.06443032 0.031235907 0.06571756 0.04703497 -0.037367135 -0.093234375 0.014728279

AmpNet.0.conv0.1.spatial_process.block.2.weight f4 [8, 8, 3, 3]
00000000: 5c74 973d 4306 f1bc fa6c 523d 5a46 f63d
00000010: 162a d0bd b20c 5cbd a30b cdbd afa8 a0bd
00000020: 1835 983d f124 d23c a1c9 943d 12c3 973d
00000030: b10d 733d a9ae cd3c 5686 9c3d ab2c bfbd
00000040: d93e 0fbd ef51 883b 4fd0 14be 3b2e 24bc
00000050: 98fa 863e a8e9 ae3d bea2 1d3e 8517 15bc
00000060: 462d 663d 1d86 51be 5190 adbd 2369 f33d
00000070: 86a1 823d 740f 0abe ec4e 103e 8b75 9bbd
00000080: 8822 c43b fa03 9e3d 5509 2d3d 4ac3 26bc
00000090: 1cb4 893d c2ba 483d ad3c 093d 0ea5 e73c
000000a0: bb7d 073d 0986 c0bd 1d24 d2bd cf2f 92bd
000000b0: ed1c e4bd 5d0b 6cbd 0d16 613d dba8 4cbd
000000c0: 21e3 003d 3dc0 bcbd ec90 4fbe 0c35 0b3d
000000d0: 7d9b f43b 4fed ac39 05b8 37be 9f47 15be
000000e0: f192 53be b121 12bd e02f 17bd c553 04be
000000f0: 1b78 8abd 1f34 2abd be55 51be 6ebf 95bd
00000100: 8428 a53d 96ac debc 7bcf 5dbc 2dd6 a2bd
00000110: 1221 403c 7b85 e73d 35e7 05bd 8d9e 983d
00000120: 9575 aabe fcc4 c1be 84df a2be c27e 90be
00000130: f63c 78be 3a85 40ba fc04 93be 7b65 2ebe
00000140: 5c51 923d 8fe8 893d d3e9 95bc 9f4d 813d
00000150: 1513 66bd 6f83 0ebe 9f81 0dbc 04ed ae3d
00000160: 0b11 653c c18a b63d 440d ac3d cb25 1abe
00000170: d40d 27bd e203 a93d 4b0e 64bc 4ffe bfbd
00000180: f5ee a1be 7ff2 85be 5810 35be eb70 9a3d
00000190: 1808 c2bd 959d 153d 1bb8 d63d a9dc 463c
000001a0: a0cc 063e d18d 053e 8c3e 9ebd 0f38 fc3d
000001b0: 4cfd 363e 93b2 443d 1bdf d93d 0d3f 023e
000001c0: 928f 42bd c80d ffbb eea9 423e f47b 043d
000001d0: 6c28 9b3d da10 60be cb10 d2bd 3fb9 bcbe
000001e0: ca56 f0be 8426 5fbd b1a6 35be 9098 913e
000001f0: e04d 073f 0d92 fdbd e8fc 72be 29f6 23be
00000200: 23c3 2fbe 5563 cfbd 7f8d edbd 6393 b0bd
00000210: 8754 01be d6bb fc3c aa5b 96bc 225a eabb
00000220: 538b e43c f004 85bd 1e6b ee3c ae62 fc3c
00000230: b91f 20bd ddc8 22be 3e81 8cbd 6aaa c1bd
00000240: 6f60 9d3d f096 b13c f307 b3bd e130 e03d
00000250: fc52 f73d fc9e a13b fb4b 833c e71e 0e3d
00000260: a926 ae3c aead 623d 6440 163e cd43 af3d
00000270: 0dd9 0f3e 32b1 f33d 2a70 81bd a6bc eb3c
00000280: e08a 9cbd 6abe 5a3d f01d 373d 7727 4d3d
00000290: 060c 78bd 4644 8f3d 6c30 18bd a36a 09bd
000002a0: c7a2 903d 39b8 e8bd ba63 8d3d 06d8 f9bd
000002b0: 9ca0 87bc ac1d e1bd 0b82 6fbd 9e2b c03d
000002c0: 7775 803d 1000 16bd 19f9 903d d368 dcbd
000002d0: 9daa 923d ba6f 7a3d 6160 debb 4d10 573d
000002e0: 4692 56bd daf1 9cbd cf3f d53d 8fda a23c
000002f0: c7e7 8b3c 08b0 f63c f08d d3bc 2e24 f6bd
00000300: a004 34be f6cf 5bbd 5c64 61be 46aa 9c3e
00000310: dc7b a53e 504f 4a3e 355e 0c3e a911 743d
00000320: a102 4ebd 6e64 f43d 6155 e9bd 9715 243d
00000330: 18d6 7dbd 1c8e 143d 0c9e bf3d 779f 18be
00000340: ab75 05be bf95 bebd 0d9a 37bd 4acf 84bd
00000350: bdfa b73d cae7 4abd 34b3 a13d a972 d53d
00000360: 2b7f 533d d3ec 4e3e accc f63d c12f 0f3e
00000370: 2f1d 193e 03a4 0e3e 0547 0e3e a1de 6c3d
00000380: bd5d f5bd d867 81bc e955 0bbe 7082 d73c
00000390: c852 1fbe f2cd 87bd 0c38 39bc cd60 04bd
000003a0: 905a 0f3d 8b69 6d3d d306 873d ea92 d43d
000003b0: 10f0 a8bc 43c6 e53d d180 293d 2d1d 463e
000003c0: 099d b73b aad5 93bd 6d3b 5c3d 37f4 8c3e
000003d0: ea5a 183e aeb2 173e 51ef 533e 2b20 253e
000003e0: c5ab d33d 136b 693e 6250 073d 51db 3d3e
000003f0: b4a3 8f3c 5b69 cebd 84ce a8bd 9e0e 473d
0.07395241 -0.029421931 0.05137346 0.12025137 -0.10164277 -0.053723045 -0.10011985 -0.07844674
0.07432002 0.02565238 0.0726502 0.074102536 0.05933923 0.025107699 0.0764281 -0.093346916
-0.034972046 0.004160158 -0.14532588 -0.010020788 0.26363063 0.0854066 0.15394112 -0.009099846
0.05619552 -0.20461316 -0.08474792 0.118852876 0.063784644 -0.13482457 0.14092606 -0.07590779
0.0059855618 0.07715602 0.042245228 -0.0101783965 0.06723806 0.04900623 0.03350513 0.028276946
0.03307889 -0.09400565 -0.10260794 -0.07138025 -0.1113833 -0.057628024 0.05495267 -0.04996572
0.031466607 -0.09216354 -0.20270127 0.033986136 0.0074648247 0.00032983205 -0.17941292 -0.14578103
-0.20661522 -0.035676662 -0.03691089 -0.1292258 -0.067611896 -0.041553613 -0.20442864 -0.07311903
0.08064368 -0.027181905 -0.013538237 -0.07951007 0.011726635 0.11304756 -0.0326912 0.07452116
-0.33292833 -0.378456 -0.31811154 -0.2822171 -0.24242005 -0.0007344071 -0.2871474 -0.17030899
0.07144424 0.0673381 -0.018299973 0.06313633 -0.05617054 -0.13917325 -0.008636861 0.08541301
0.013981114 0.08913184 0.08400968 -0.1505348 -0.040784672 0.08252694 -0.013919423 -0.093746774
-0.31627622 -0.26161572 -0.17682016 0.07541069 -0.094742 0.036527235 0.10484334 0.01213757
0.13163996 0.1304238 -0.077267736 0.1231538 0.17870063 0.048021864 0.10638257 0.12719364
-0.0475002 -0.0077836253 0.19010136 0.032344773 0.07576069 -0.21881428 -0.10257109 -0.36860082
-0.46941215 -0.05448009 -0.17739369 0.28436708 0.528532 -0.123813726 -0.23729289 -0.16011871
-0.17164283 -0.10126368 -0.11599254 -0.08621862 -0.12629901 0.030851286 -0.018354256 -0.007151858
0.027898466 -0.064950824 0.029103812 0.030808773 -0.039092753 -0.15896936 -0.068605885 -0.09456332
0.07684409 0.021678418 -0.087417506 0.10946823 0.12076375 0.0049322825 0.016027441 0.03469744
0.021258669 0.055341415 0.14673 0.08557854 0.14047642 0.11899032 -0.06320222 0.028776478
-0.07643676 0.05340425 0.044706285 0.050086465 -0.06055834 0.06995444 -0.037155554 -0.033548962
0.07062297 -0.11363263 0.06903787 -0.12199406 -0.016556077 -0.109919876 -0.058473628 0.09383319
0.06272405 -0.036621153 0.070787616 -0.10762181 0.07161448 0.061141707 -0.0067863916 0.05250578
-0.05238559 -0.07663317 0.10412561 0.019879607 0.017078293 0.030113235 -0.025824517 -0.120186195
-0.1757989 -0.053665124 -0.2201094 0.30598658 0.3232106 0.19756818 0.13707812 0.059587155
-0.050295476 0.11933218 -0.11393238 0.040059652 -0.061971754 0.03626834 0.09356317 -0.14904581
-0.13033168 -0.093059056 -0.04482465 -0.0648485 0.089833714 -0.049537458 0.078955084 0.1042226
0.05163495 0.20207529 0.12050757 0.1398306 0.14952539 0.13929753 0.1389428 0.057829503
-0.1198077 -0.015796587 -0.13606991 0.026307315 -0.15558922 -0.06631078 -0.0113048665 -0.03231888
0.034998477 0.05796198 0.065930985 0.10379584 -0.020622283 0.11219456 0.041382615 0.19347067
0.005603437 -0.072184876 0.05376761 0.2753007 0.14878431 0.14814255 0.2069676 0.16125552
0.10335497 0.22794752 0.033035643 0.18540694 0.017534114 -0.10078689 -0.08242515 0.048597924

AmpNet.0.conv0.1.spatial_process.block.2.bias f4 [8]
00000000: 2554 99bc 4594 b63d 6384 81bb 16a1 aabd
00000010: 6029 f4bc 5d0e 32bd 4185 be3d 7a99 42bd
-0.018716881 0.08914999 -0.0039525493 -0.08331506 -0.029804885 -0.04347073 0.0930276 -0.047509648

AmpNet.0.conv0.1.frequency_process.fpre.weight f4 [8, 8, 1, 1]
00000000: 36ef eabd 346b 8fbe 7da2 c13e b896 a2bd
00000010: c287 2bbe 93b4 99be c28f ad3e 0cba 16be
00000020: b8ff b73d 6681 90be e3f6 463d 9ffb 953e
00000030: fb95 aebe da28 f3bc d765 e03d eef5 cbbe
00000040: 08ad afbd 86fb 74be 9da5 ba3e 6ad5 b03e
00000050: 6513 3d3f 49e3 1abd 0c23 3f3e e836 90bc
00000060: f296 d7bd 0fdc 28be dae9 8a3e 37d1 85bd
00000070: 5af8 e03d ebaf 4bbe f551 ebbc ab43 c23c
00000080: 66b8 823e e518 b6bb 86c4 103e eacb 9dbd
00000090: 8679 1fbe f161 33bd e9a8 293e 3a66 bdbd
000000a0: 8e6e 9dbe eb90 b5be 3b89 183e 1357 b93e
000000b0: 95b2 9a3e 388f 9cbe 2ea0 3cbc ef22 5ebe
000000c0: 06c1 993d 8db7 613e ccbd c93c bcec 953e
000000d0: df01 5f3e 67da 5bbe 34df 49be 6f70 913e
000000e0: b8c3 8b3e 402f 4fbe 8221 ce3d 00d4 c53e
000000f0: cd85 193f ebf2 723e fd77 bb3d e59f 7abe
-0.11471407 -0.28011477 0.3781928 -0.079389036 -0.16751006 -0.3002058 0.3389874 -0.14719409
0.08984321 -0.28223723 0.048575293 0.29293534 -0.340988 -0.029682565 0.109569244 -0.39836067
-0.08577925 -0.23924074 0.36454478 0.34537822 0.7385772 -0.037814412 0.18665713 -0.017604306
-0.105268374 -0.16490196 0.2713154 -0.06534045 0.10984869 -0.19891326 -0.028725604 0.023713907
0.2553131 -0.005557167 0.14137468 -0.07704909 -0.15573701 -0.043794576 0.1656834 -0.09248014
-0.3074841 -0.35462126 0.148961 0.36199245 0.30214372 -0.30578017 -0.011512799 -0.21693014
0.075075194 0.22042675 0.024626635 0.29282176 0.21778058 -0.21470033 -0.19714051 0.28406093
0.2729776 -0.20232868 0.10064985 0.38638306 0.5996979 0.23725478 0.09153745 -0.24475057

AmpNet.0.conv0.1.frequency_process.fpre.bias f4 [8]
00000000: 716d a3bd a335 33be 5545 eb3c 371c f33d
00000010: d794 893d 9046 d93d 94cb 563e 52e9 5c3e
-0.07979859 -0.1750093 0.028719584 0.11870616 0.06717842 0.10609162 0.20976096 0.2157338

AmpNet.0.conv0.1.frequency_process.process1.0.weight f4 [8, 8, 1, 1]
00000000: 34e3 bdbc 4dae 56be 7ac3 67be 95d3 843d
00000010: 0716 593e bfb7 4dbd 666a 813e 3a39 4b3d
00000020: b8f0 9e3e 53ae a4be fba4 c5be 5719 5e3e
00000030: 235b eb3d 0f11 353e 34ba 9fbd 080e ddbe
00000040: 18b4 8fbd 78b3 033d 58a4 4dbe 4dcd 82be
00000050: ad1d 7d3e 8bca 8fbe cfab aebd 3fd7 d9bd
00000060: bd9f dc3d 64e0 093e f7f6 0fbe 0fb7 a73d
00000070: b0a4 963d ad1f d7be 16c5 f7be 5cf3 45bd
00000080: 1c20 9a3e d9ca c8bc 27cc 7cbe 233c cd3c
00000090: 17b0 09bd 86cd 113e b9a8 553e 2f16 893d
000000a0: 121f fc3d ee3d a7be 5d0f 9d3e 271f abbc
000000b0: c757 41be c959 74be ca02 77bb 761f c33d
000000c0: 7136 de3e 2e66 8d3e 1205 01be 2a8c c7bd
000000d0: c3dd da3d 8a90 0fbe 1d32 2fbe 8bb1 abbe
000000e0: 2111 123e f689 6a3e 9602 afbe de86 2f3e
000000f0: 326a 853e eb4d b9be b7c7 d3be 9f0f 05bf
-0.023179628 -0.20964928 -0.22633162 0.064856686 0.21199809 -0.050224062 0.25276488 0.049615122
0.3104303 -0.3216425 -0.38602433 0.21689354 0.11491992 0.17682289 -0.07799187 -0.43174767
-0.07016772 0.032153577 -0.20082223 -0.25547257 0.24718352 -0.28084216 -0.08528864 -0.10636758
0.10772655 0.13464504 -0.14059053 0.081892125 0.073556304 -0.42016354 -0.48392552 -0.04832779
0.30102623 -0.024510788 -0.24687253 0.02505309 -0.033615198 0.14238557 0.20865144 0.06693684
0.12310614 -0.32664436 0.30675784 -0.020888878 -0.1888114 -0.23862375 -0.0037690871 0.09527485
0.4340091 0.2761702 -0.1259959 -0.09743531 0.10686829 -0.14019981 -0.1710896 -0.33533892
0.14264347 0.2290419 -0.3418166 0.17141291 0.26057583 -0.3619226 -0.41363308 -0.5197696

AmpNet.0.conv0.1.frequency_process.process1.0.bias f4 [8]
00000000: 1eb2 763e 2fd5 9b3e 9aa4 52be aa89 c33d
00000010: 9cd8 df3e bd76 0b3f f50b 0d3c 22b6 2d3e
0.24091384 0.30436084 -0.20570603 0.09547742 0.43719947 0.54478055 0.008608808 0.1696401

AmpNet.0.conv0.1.frequency_process.process1.2.weight f4 [8, 8, 1, 1]
00000000: 8be1 edbd b93b 9b3e ce95 85be 103f 9c3d
00000010: 6da8 92bd 7235 803e b16d 2ebe 8160 bd3e
00000020: 2e21 82bd 06d8 cb3d a23b d3be ec3a 213e
00000030: 8e24 1b3e f7fc a8be 0cd9 d33e b361 883e
00000040: ca19 6c3e 421e 2b3e 6e92 823e aade 8a3e
00000050: d6e1 67be ae3a c73c ed3d 223f e605 2c3f
00000060: d4fd 1c3b 1f94 243e c019 293e 159b 1c3d
00000070: a300 34be 5e8d 693e b5b1 d3be 9096 a1be
00000080: 1730 793e cd83 bcbe 94e0 803e 32a5 5bbe
00000090: 9d80 563e 8145 213f 9d08 88be 9b48 72be
000000a0: 5929 1f3b e523 2b3e c50e 93bd ef9a 4c3e
000000b0: ccca 623e 3b93 37be 0493 86be 28b8 313e
000000c0: 3072 70be 0e94 05bf 1cfe 5bbe 9222 093d
000000d0: b182 b1be 056f 4b3e dea7 3fbf 3bab 9cbc
000000e0: 6c12 ae3e e8ad 65be 8914 3a3e f608 7d3b
000000f0: f1d2 df3c 7666 d1be fdcd 0bbe 9a5b ba3e
-0.116152845 0.30319002 -0.26090854 0.07629216 -0.07161031 0.25040776 -0.17034031 0.3698769
-0.06353985 0.099533126 -0.41256434 0.15745133 0.15150663 -0.33005497 0.4137653 0.2663704
0.23056713 0.16710761 0.25502342 0.27123004 -0.22644743 0.024319973 0.6337574 0.671965
0.0023955004 0.16072129 0.16513729 0.038233835 -0.17578368 0.22807834 -0.41346517 -0.31560183
0.24334751 -0.36819306 0.2517134 -0.21449736 0.209475 0.6299668 -0.2656907 -0.2366051
0.002428612 0.16712911 -0.071805514 0.19980977 0.22147673 -0.17927258 -0.2628404 0.17355406
-0.23481059 -0.5217904 -0.21483654 0.033480234 -0.34670022 0.1986657 -0.7486552 -0.019124618
0.3399843 -0.22429621 0.18171896 0.0038610077 0.027322264 -0.40898484 -0.13652797 0.3639801

AmpNet.0.conv0.1.frequency_process.process1.2.bias f4 [8]
00000000: 1031 083e 87e3 a8be c936 213d 5b55 c0bd
00000010: e211 cb3e 70c5 4b3e 52fb e93d a4b2 c9be
0.13299966 -0.3298609 0.039358888 -0.0939128 0.3966208 0.19899535 0.11424889 -0.39394104

AmpNet.0.conv0.1.frequency_process.process2.0.weight f4 [8, 8, 1, 1]
00000000: c6c7 65be bb4f c0bd 06c0 953d 4399 6fbe
00000010: f9dc b2bd da36 a83e af74 68be d0e7 8abe
00000020: 7af2 c13e 9ea7 44be e4ee e9bd 2700 463c
00000030: 133e 723e ac3d 063e b9a4 73bd ccc5 db3c
00000040: 2bfc 963e e4ae cf3e 43de 9dbe 0f1d 963e
00000050: 3ab3 6dbe e126 aabd 4f27 093e c0e5 3e3e
00000060: 5d4b 9ebc 8342 4c3c 3656 1a3e d1e0 8d3e
00000070: 1ab7 2f3e a688 3abe 24e1 b2be 8be7 ad3c
00000080: d69f 923e 49de 43be e032 9bbe 7d18 a13e
00000090: a51a 0f3e 0362 31be 0213 403e 68ac c1bb
000000a0: 7565 ff3d 00ce bdbc 6111 30be cd47 473e
000000b0: 974b ee3e 9132 883d 8733 85be a30e a3be
000000c0: 638c a43d 8808 4fbe a8f7 8c3e 0698 90be
000000d0: 1557 c33d 50a5 143e 7660 413e 4584 bb3e
000000e0: 2b7f 1fbe 7720 ccbd 780f f8bd 1eb8 643e
000000f0: 857b ab3e ada8 9f3d 726b 96be e2ce 94be
-0.22439489 -0.093902074 0.07312016 -0.23398308 -0.087335534 0.32854348 -0.22700761 -0.27129984
0.37880307 -0.19204566 -0.11422518 0.012084997 0.23656492 0.13109463 -0.059483264 0.026827715
0.29489264 0.40563118 -0.30833635 0.29319045 -0.23212901 -0.08308197 0.13393901 0.1864233
-0.019323045 0.0124670295 0.1507195 0.27710584 0.17159691 -0.1821619 -0.34937394 0.021228572
0.2863757 -0.19127764 -0.30312252 0.31463996 0.13975008 -0.17322545 0.18757251 -0.005910445
0.12470523 -0.023169518 -0.1719413 0.19460984 0.46542045 0.0665027 -0.26015875 -0.31847104
0.08034589 -0.20218098 0.27532697 -0.28240985 0.09538094 0.14516187 0.18884453 0.3662435
-0.15575854 -0.0996713 -0.121123254 0.2233586 0.33492675 0.07795844 -0.2937885 -0.2906409

AmpNet.0.conv0.1.frequency_process.process2.0.bias f4 [8]
00000000: 822a c8be 5957 853d 6061 c93e 9024 8dbd
00000010: 4b22 8a3e 8c10 3b3d cc9a 9fbe 81fa 243e
-0.3909493 0.06510801 0.39332104 -0.06891739 0.26979288 0.045670077 -0.31172788 0.16111185

AmpNet.0.conv0.1.frequency_process.process2.2.weight f4 [8, 8, 1, 1]
00000000: c1df c83d bc66 dfbe 8815 d5be 7f64 133e
00000010: de2c aabe 7c8e 863e 691a c03c f96b 8c3e
00000020: 6ce8 e8bc 8245 9c3e a5dd 8bbd b8b4 8d3e
00000030: 955a c43d 0c00 1cbe 0aca 363e daa3 1fbe
00000040: e0d6 f1bc 424c dc3d ac09 b0be 38df e23d
00000050: b901 063e 4548 a63e b1c9 383e 66c7 84be
00000060: 04bb 32be 89f3 dcbd 9685 6cbd 35f9 83be
00000070: f3ca eebd 3f76 84bd eda6 6e3e 1725 d93d
00000080: 5653 28be 99a6 253e b057 803e 5ab6 f63e
00000090: 2658 af3e 8857 e63e 3584 02bf b5f9 0c3f
000000a0: bcbc 1d3e 62bf 35be e843 d63e 6a0e 9dbe
000000b0: 69b3 14be 82fd adbc 638e 55be 929d 85be
000000c0: 5243 893e 28bc 07be 9817 babd 7e85 81be
000000d0: 3ad8 3d3b 3050 0f3e 01fb 45be 19b2 5fbe
000000e0: c574 bbbe 2fe6 08be 058a 7bbc 6879 27be
000000f0: c8d2 72be 1b1b e03d 9dc7 883d 88c9 76be
0.09808303 -0.43633068 -0.4161799 0.14393805 -0.33237356 0.26280582 0.023450093 0.27426127
-0.02843114 0.3052178 -0.06829385 0.2767694 0.0958759 -0.15234393 0.1785051 -0.15589848
-0.029521406 0.107567325 -0.3438238 0.11077732 0.13086595 0.32477012 0.18045689 -0.2593338
-0.17454153 -0.10788638 -0.057744585 -0.25776067 -0.11659803 -0.06467866 0.23305865 0.106027775
-0.1643804 0.16176833 0.250669 0.48185998 0.3424694 0.44988656 -0.5098298 0.5506852
0.15404028 -0.17748788 0.41848683 -0.3067506 -0.14521565 -0.021239046 -0.20855097 -0.2609678
0.26809174 -0.1325537 -0.090865314 -0.2529716 0.0028967992 0.13995433 -0.19334032 -0.21845283
-0.36612526 -0.13369058 -0.015352731 -0.16354907 -0.23713219 0.1094267 0.06678698 -0.24100316

AmpNet.0.conv0.1.frequency_process.process2.2.bias f4 [8]
00000000: ff26 de3d 2d20 3dbe 0455 8f3e 2915 a0be
00000010: 8f60 363d 9a39 153e 0bbe 283e f2b3 6c3e
0.10847282 -0.18469305 0.2799455 -0.31266144 0.04452568 0.14572755 0.16478746 0.23115519

AmpNet.0.conv0.1.cat.weight f4 [8, 16, 1, 1]
00000000: 454d 163d 0c5a 86bd 871d 8b3e f4bd 043d
00000010: 24e3 253e a39c bc3d 48bf 1ebe f19a 1e3e
00000020: 6221 43be d14f 6f3e a95c e33d 4bb7 50be
00000030: 9761 513e ec5c 80be 5fbd 453e cfe8 083e
00000040: 6f54 45be bf8d c2bd b39f c13d ceb7 6b3e
00000050: 6b85 2e3e 6103 bbbd 768a 3f3e 755b cdbd
00000060: d75d 2a3e 3629 c93d e4ec 383e 2e23 b63e
00000070: eba6 6c3e 6fd3 81be 689a 7cbd 24cd a6bc
00000080: f491 1b3e 14d1 1abd 9e2d 34bb 10b7 4bbd
00000090: 4209 553e f726 d8bd 60de b4bd 57d6 85be
000000a0: 0cac bfbd 1102 063d 5457 7abe 7c01 e23e
000000b0: df21 a13e 3a2d 93bb 30ad 8e3e e438 b5bd
000000c0: dbf7 ab3c c047 8a3e c422 733e 4124 1c3e
000000d0: 332f 383e 55f0 f6bb 7916 c63d b8fb 32bd
000000e0: d4a6 f63d 87a6 12be cd42 083e 22f7 cc3d
000000f0: af55 42be e2d3 e73c b6d2 bbbd 3d0f 483d
00000100: 4ccc 053c 13fc c7bd 82a4 223d e112 e33d
00000110: 9f8b f3bd 8d8a ed3c 1e0f e3bd 4e64 73bd
00000120: 086a e7bd 6ca5 3fbe 8676 12be 2a82 14bd
00000130: d332 373f 2df3 903d 8ecf 813c f071 75bd
00000140: da12 7ebe 2ce7 b53d fb11 503e 9033 04be
00000150: a1cb 843e 1db4 22be 387b 4f3d 7c17 fcbd
00000160: 1f1b d1bd 1c2e 383b f04d 1f3e d0cc cc3d
00000170: 6bc3 563e 60a3 733d 5b05 98be f95b 653e
00000180: 9399 45be 84b5 6b3e b371 5abd f2d0 14be
00000190: 39f7 83be adfb 53be a1ac 663e 3cf7 113e
000001a0: f1dd c6bc e1fa d8bd 245f 383e 8361 af3d
000001b0: 9529 093e ff69 573e e0c9 993d 124f 643d
000001c0: b0fa 223e e338 343e 3dee 34be 60c6 47bd
000001d0: 85bf 883e 745d f63d ae70 0dbe c9f0 71be
000001e0: 0231 6fbd c4fd 38be 13d0 a9be 132f 6e3c
000001f0: 99b6 aa3d 7951 9e3d c649 133e b708 30bc
0.036694784 -0.06560144 0.27170965 0.032407716 0.16199929 0.092095636 -0.15502656 0.15488793
-0.19055703 0.23370291 0.11101658 -0.2038242 0.20447384 -0.25070894 0.1931052 0.1337006
-0.1927049 -0.09499692 0.09454288 0.23019335 0.17043082 -0.09131504 0.18705162 -0.1002721
0.1663736 0.098223135 0.18059117 0.35573715 0.23110549 -0.25356624 -0.06167069 -0.02036149
0.15192395 -0.03779705 -0.002749301 -0.04973513 0.20804313 -0.10554307 -0.08831477 -0.2614009
-0.09358987 0.032716814 -0.24447376 0.44141757 0.31471154 -0.0044914754 0.27866507 -0.08848742
0.02099221 0.27007866 0.23743731 0.15248205 0.17986755 -0.007535974 0.09672255 -0.04369709
0.12043539 -0.14321338 0.13306732 0.10008074 -0.18977998 0.028299276 -0.09171049 0.048842657
0.008166384 -0.09764876 0.039707668 0.11087585 -0.11891865 0.02899673 -0.11086868 -0.05942183
-0.11299521 -0.18715447 -0.14303026 -0.036256947 0.71561927 0.07077632 0.01584604 -0.059923112
-0.24811879 0.08881983 0.20319359 -0.12910295 0.25936607 -0.1588902 0.05065462 -0.12309167
-0.10210251 0.0028103655 0.15557075 0.100000024 0.20972984 0.05948198 -0.29691586 0.22398366
-0.19296865 0.23018461 -0.05333109 -0.14532831 -0.25774553 -0.20701475 0.2252679 0.14254469
-0.024275752 -0.10594726 0.18005043 0.08563521 0.13394769 0.21036528 0.07509208 0.05573947
0.15915942 0.17599826 -0.17669006 -0.04877317 0.26708618 0.120295435 -0.13812515 -0.23627008
-0.058396347 -0.18065554 -0.3316656 0.014537591 0.08335609 0.077303834 0.14383611 -0.010744265

AmpNet.0.conv0.1.cat.bias f4 [8]
00000000: 9da4 93bd 6cb8 103d 80b3 10bd 367e 6e3d
00000010: 58dd 673e f9cd e73d 77cc 4dbe 9847 80bd
-0.07209132 0.03533213 -0.035327435 0.058225833 0.2264303 0.11318583 -0.20097528 -0.062636554

AmpNet.0.conv1.spatial_process.block.0.weight f4 [8, 8, 3, 3]
00000000: 7f05 0fbe 80c3 b03d c5e3 d63d b655 593d
00000010: aee6 c93d 035e 063b 79bb 5fbd 12d4 abbb
00000020: 5805 0e3d db21 3f3d 137a 6b3d 61c9 983e
00000030: 7a1b 4cbd 18c3 153e f883 423e 741a 003d
00000040: dfb0 913e b361 683e ab8d 5c3d 777a a83c
00000050: f961 223d 2692 d4bd b672 72bb e30f dbbb
00000060: 644d debc 69a0 173e 2852 0d3e 2c1c b3bd
00000070: 9b77 bcb8 4fb1 2d3d ef3b b5bd a75f a43d
00000080: e4d9 5d3c 11e7 f33d 6bb8 eb3d bcd9 773c
00000090: 2404 113e d4ac abbd c6fa c3bc ce48 d7bd
000000a0: db2a 3b3d 37e1 2c3c 6289 19bd e76f 423d
000000b0: 70e2 503c ffe4 4bbc cbe7 353e 1df5 3bbc
000000c0: 836d 3cbb 5215 363d bfd5 be3d d48d b73d
000000d0: 5a55 933d 3661 e03d a036 ac3d c32a cd3d
000000e0: 1aac 903d 948f edbd 047a 7cbd f538 6a3d
000000f0: da61 69bd 1ef9 b6bd 4468 cb3d 20ba 173d
00000100: e1e5 243e 73f1 5ebe 1b15 09bc e73b f4bd
00000110: 7393 90bd 30fa 823d 6c43 a63a a254 3ebe
00000120: 91c0 cf3d 8d18 9ebd e725 aabc 7776 d43d
00000130: f5e3 3cbe 5ba0 bdbd f20f 333e 235f 043e
00000140: 72c4 b23d e4a0 5e3e ae0c ab3d 0649 bfbd
00000150: e9c2 5c3e 6062 41be a8ad 0bbe 8468 833e
00000160: 96f7 113e e7a7 e13d 3c58 903d 313f 133d
00000170: cbb6 37bd b45c 303e ae87 903c e486 cabc
00000180: bbd0 943d 77b8 4e3e 368d c7bc 8b7f c23d
00000190: 2fc0 56bd 4e00 fcbd fb3c 29bd 8ac3 51bc
000001a0: 731a 1ebe ae29 843c 5324 123e e36e 5d3d
000001b0: b317 b13c 41c0 25bd 5198 113e e878 23bd
000001c0: ce19 123e 2a0e c53d fee9 bcbc ebc2 a63c
000001d0: d9ef 893d cd9e 3bbe b6d9 3a3d 2a6e 5bbd
000001e0: 2a61 1ebd 5b2a a3bd 83f3 cd3d c9d8 44bd
000001f0: da1c bdbd 5337 b7bd a3d2 083e 5e9c 04bd
00000200: 3066 dcbd fd9f 8f3d c9b6 11be b520 313d
00000210: eae6 da3d 3403 edbc aa33 d73d 57e2 3dbe
00000220: 7f77 8f3e bcf1 bd3e 5d79 bb3d 13fa d83e
00000230: 3627 c53e ef31 15be 0690 3e3d 6992 233e
00000240: a10c 8dbd 7a58 cbbd 8368 f83d 0fb2 943d
00000250: 8158 0d3d 2fdb acbd 0212 99bd ba57 b03d
00000260: bee7 f13c f2dc ee3c 7006 203e d61e 9c3d
00000270: 0412 223e 2ee9 d93d 9688 8b3d e15b af3d
00000280: d927 193e a91d 87bc 29e3 333e 18ff 3d3e
00000290: d6ec 4abd 97c3 39bd a040 163e cd83 ce3d
000002a0: 4b3a ec3d 0bfd e13d 7b73 87bd c165 073e
000002b0: 03a7 133e e7a2 ef3d dcc0 4ebd b7c7 d8bb
000002c0: cf1b c13c 3a62 b8bc 4fa1 863b 520d 713d
000002d0: eed5 983d 4b92 993d 93cc 11bd 1dca d13d
000002e0: dcf0 dabd 05ed 143d 0b92 bf3b 7ce5 bbbd
000002f0: 7909 1bbd 9470 c8bd aed8 853c 7f03 27be
00000300: a1c6 4abc c0c8 5dbd e3a7 33bd d96c 02be
00000310: 0d41 a7bd 51be e4bc 18a7 073e 9b99 993c
00000320: 6dca ba3b 42ca bf3c 13db f93d 36b0 973c
00000330: 2d06 703d 615a 2bbd efc3 c63c 7f1c 4abe
00000340: 74b3 9dbe 8a2b 5bbe 93f5 7bbd 30bb 33be
00000350: 228c 0ebe f690 783d c706 003d eef8 b1bd
00000360: e321 943d 5534 843d b8e9 bd3d 6177 ff3d
00000370: f34e de3d 6334 c23d e37e ae3d 5a4a fb3c
00000380: 22b6 ea3c e0cf 393e f9d6 053e 144c 01bc
00000390: a2e9 423d 4d84 0e3e 5fff 573d 8c7d 80bb
000003a0: 13d4 643d 9fc6 ce3d 20e5 75bd 9419 5e3e
000003b0: 2d40 43bc c6ee ed3d 763a cb3d 08ef 5bbd
000003c0: df17 82bd b912 28bd ba79 203d 5b9b cfbd
000003d0: e4b1 143e dc75 7ebd 3965 81bd d0bb c93d
000003e0: ebea f9bc 9f50 d83c 58e6 463d 1393 1fbe
000003f0: 5eff debc 93aa 59bb 9d27 d13d 5b8c 043e
-0.1396694 0.08631039 0.10492662 0.053060256 0.09858452 0.0020502813 -0.054622147 -0.0052437866
0.034673065 0.046663146 0.057489466 0.2984114 -0.04983089 0.14625204 0.18995655 0.031275228
0.28455254 0.2269352 0.053846043 0.020566208 0.039644215 -0.10379438 -0.0036994643 -0.0066852435
-0.027136512 0.14807285 0.13800871 -0.08745608 -8.986817e-05 0.042405423 -0.08849322 0.08026057
0.013540719 0.11909307 0.11509784 0.0151275955 0.14161736 -0.08382574 -0.023923289 -0.10511933
0.045695167 0.010551742 -0.037484534 0.04747 0.012749299 -0.012444734 0.17764203 -0.011472014
-0.0028751798 0.044453926 0.093181126 0.089625984 0.07194014 0.109560415 0.084088564 0.10017922
0.07064076 -0.11599651 -0.0616398 0.057183225 -0.056978084 -0.08934234 0.099319965 0.037042737
0.16103317 -0.21771793 -0.008366848 -0.11925488 -0.07059374 0.06395376 0.0012684888 -0.18586972
0.10144151 -0.077195264 -0.020770026 0.10374158 -0.18446334 -0.09259101 0.17486551 0.12926917
0.08728875 0.21741062 0.08352028 -0.093401 0.21558727 -0.18885183 -0.13640463 0.25665677
0.14254603 0.11018353 0.07048079 0.035948936 -0.04485206 0.17222863 0.017642822 -0.024722524
0.07266375 0.20187555 -0.024359327 0.09496983 -0.052429374 -0.123047456 -0.04131792 -0.012802968
-0.15439777 0.016133156 0.14271669 0.054060828 0.021617746 -0.04046655 0.1421826 -0.039910227
0.14267656 0.09621842 -0.023060795 0.020356616 0.067352004 -0.18322296 0.04561778 -0.053571858
-0.03866688 -0.07967063 0.10056212 -0.048058305 -0.092340186 -0.08946099 0.13361602 -0.032375686
-0.10761678 0.07012937 -0.14229883 0.043244082 0.106885746 -0.028932191 0.10507901 -0.18543373
0.28020856 0.3709849 0.091540076 0.4237829 0.38506478 -0.1456983 0.04652407 0.1597382
-0.068871744 -0.09928985 0.12129309 0.072605245 0.034508232 -0.084402435 -0.07474138 0.086104825
0.029529449 0.02915809 0.15627456 0.07623069 0.15827185 0.106401786 0.06813161 0.085624464
0.14956607 -0.016493635 0.17567123 0.18554342 -0.04954227 -0.045352545 0.1467309 0.10083733
0.11534556 0.11034592 -0.06613823 0.1322241 0.14419179 0.11700993 -0.050476894 -0.0066156047
0.02357283 -0.022507776 0.004108585 0.058850594 0.07462679 0.07498606 -0.035595488 0.10243628
-0.106904715 0.036358852 0.005846267 -0.0917463 -0.03785083 -0.097870976 0.016338672 -0.16309927
-0.012376458 -0.05414653 -0.04386128 -0.12736835 -0.08166704 -0.027922781 0.13247335 0.018750003
0.0057004006 0.023411874 0.12199988 0.018516641 0.05859964 -0.04183424 0.02426335 -0.19737433
-0.30800974 -0.21403328 -0.061513495 -0.17551875 -0.13920644 0.06068512 0.031256463 -0.08690058
0.07233026 0.06455294 0.09273094 0.124739416 0.10854902 0.09482648 0.085202955 0.030675102
0.0286513 0.18145704 0.13070287 -0.007891674 0.04758609 0.13917656 0.052733775 -0.0039212164
0.055866312 0.10096478 -0.060032964 0.21689445 -0.011917156 0.11617808 0.0992326 -0.053694755
-0.06352209 -0.04103348 0.039178587 -0.101370536 0.14520985 -0.06212412 -0.06318135 0.098502755
-0.030507525 0.02640563 0.048559517 -0.15583448 -0.027221378 -0.0033213242 0.10212634 0.12944166

AmpNet.0.conv1.spatial_process.block.0.bias f4 [8]
00000000: 3b53 26be 12e4 aa3c 00a1 fa3c 8023 8b3d
00000010: efb0 aebc 3065 85bd 3dda 193d 70d8 4fbd
-0.16242687 0.020860706 0.030594349 0.067938805 -0.021324603 -0.065134406 0.037561644 -0.05074352

AmpNet.0.conv1.spatial_process.block.2.weight f4 [8, 8, 3, 3]
00000000: 69be 983c a117 c63d 7887 053d 4931 6d3e
00000010: 1047 463e e3ef 7d3d 9f32 393e 9f5b 793d
00000020: 2916 8a3d ec1e 9d3d 7b2b cf3c 5a52 053e
00000030: 942b 103e 3804 573e 8c50 153e 201f 8d3d
00000040: 75e3 1e3e 6f72 9f3c 471b 203e 30a9 083e
00000050: 3d47 de3c 0223 a43b 62ec c43c fb6e dd3d
00000060: 0802 9abc 57db c0bd 78a2 efbd 1186 6d3d
00000070: 2c9f 0c3e 88f2 2cbd 0fd2 e83d f84a 943d
00000080: aee6 debd acbf 013e 9b3b 34bc 815c 893c
00000090: 967b f93d cb74 87bd fee6 0c3d 7813 773d
000000a0: b4c7 b83d cda3 8a3c 39ea 8d3d b6db 8dbd
000000b0: 0818 fa3c a257 373d 6ce8 c0bd 3df5 523c
000000c0: a96c f83d 743a 3dbd a2c2 103e 0df4 013e
000000d0: 90dc fb3c e6d5 9c3d e5bb 6b3c a22d d33d
000000e0: 8368 ee3d 580f 36bc 7894 343d 3125 333e
000000f0: a48f 973c 99e9 073d 1ebe e7bd e2a3 45bd
00000100: 8df4 90be 9976 febc b69f 4ebe 2a01 b73d
00000110: fdb5 61bd 2dbd 993e 0d65 6b3e 5bc6 093d
00000120: f002 d8bd 6369 1b3d 1185 293c 4d10 dc3d
00000130: 0543 03be d584 ea3b 183a 733d 9049 14be
00000140: 5bac 12be c085 943e a643 573e 60fe 3e3e
00000150: 6c96 933e 2db0 203e 6163 b53e 7bfa 893e
00000160: 94c1 6d3e f250 793e 89ff b33c e7cd 2fbd
00000170: 5b26 debc d169 c8bc 5e45 92bd 8d97 93bd
00000180: 0155 423d dcaf c13d aaeb 98bd eb12 8dbd
00000190: 9422 c93d c25a 923c 79d3 023e f66c a63d
000001a0: 9302 d33d 9f16 26bd 4724 c43d 2aeb 4dbd
000001b0: 3ff6 3b3d 8b07 dabd bb39 acbd de95 a43c
000001c0: 62ed 1d3d e500 04be 2c0e 51bd 0938 dbbc
000001d0: f94f 673b ba3f 0b3d 5561 d5bc 03cd 943d
000001e0: b854 58bd 4232 9abd b9c3 98bc dc75 27be
000001f0: e446 4a3d 64c4 c63d 5daf 143e 7faa 2a3e
00000200: 8a52 db3d 1a37 2f3e 7b3c df3d e35d 4e3e
00000210: aa46 763c 5980 453d 9ef1 43bd 2cd4 c13e
00000220: 58e2 a33e 64fa 913e aed4 073e 9d6e ed3d
00000230: 19cd 323e a119 c3bd 22eb 56bd f10d 70bd
00000240: 67a6 dcbd 1116 033d b6fe 12bc c0bd d1bd
00000250: 3e85 003e d5c8 e33d 8308 b83c b219 dc3c
00000260: a0f1 813d c574 0f3d 2936 923c b7d2 26be
00000270: de45 143e 9c50 193e 25d6 893c 2678 28bd
00000280: 5ed3 d73d aea6 753b 0da3 2dbe 8110 83bd
00000290: 1b5c a43a b27c 07be beca 12be 7c56 34be
000002a0: 86b9 db3c 497c 29be 3adb 5abe eab1 47be
000002b0: 16ac 27be 1296 b6bd 83e0 cdbd 7df2 06be
000002c0: 0426 a5bd 00f8 243d ffc0 eabd 5a4d d2bd
000002d0: 4eaf 38be 60d5 04be 0854 04be 4261 5dbe
000002e0: 6303 85bd ad47 3f3d 0284 10bc a0e3 cebd
000002f0: 5f81 d2bd ed90 10bd 51aa 43be 09a0 dcbd
00000300: 0c8c 02be 3e20 b7bd 9e15 5cbd 2152 4dbe
00000310: c27a 33be 5d4b 24be e590 b6bd cbf7 05be
00000320: 79a7 91bd bc67 40be b8f1 43be 7826 8cbd
00000330: d836 4ebe b5f2 57be 147a f3bd a378 a3be
00000340: b17d 3cbe b22d a0be 64d1 d9bd ebbb c9bd
00000350: e0cc b9bd 1ec2 ccbc 6d24 f43d 8209 a83d
00000360: 1f1c acbd dce9 a4bd 1f20 133e 2ed4 9e3d
00000370: 4075 ff3c b2df bf3d 546e cbbd f8d5 f13c
00000380: cf0a 813d ebe7 92bd 0720 52bd 8364 04be
00000390: 2d91 0d3e b178 acbd 9c4b 36bd 8fbc 1e3e
000003a0: 2ce0 313d 80f0 06be 3503 0e3e d423 a33d
000003b0: 9892 ff3d e5f9 d53d 4443 39bd 6ba2 8c3d
000003c0: fb06 c93c f311 50bd 54a3 9f3d 8f2c 7e3d
000003d0: c07a a9bc 824f 96bb 20d4 a4bd 1987 98bd
000003e0: c8a4 79bd 58c3 ab3d 2f1f 1bbe 2e22 64bd
000003f0: da1d 1d3e 6449 19bd 2b57 f33d 3a4c 023e
0.018645482 0.096724756 0.032599896 0.23163332 0.19363046 0.061996352 0.18085717 0.060878392
0.06742508 0.076719135 0.025289288 0.13019696 0.14079124 0.20997703 0.14581507 0.06890702
0.15516455 0.019463746 0.15635405 0.1334579 0.027133578 0.005009056 0.024038497 0.108121835
-0.018799797 -0.09416836 -0.1170091 0.057989184 0.13732594 -0.042223483 0.113681905 0.07240862
-0.108838424 0.12670773 -0.011000539 0.016767742 0.12181775 -0.06614073 0.03439998 0.0603213
0.09022465 0.01692381 0.0692944 -0.06926672 0.030529037 0.044761308 -0.09419331 0.012875852
0.121301 -0.046198323 0.14136747 0.12690754 0.03074482 0.076579854 0.014388059 0.10311438
0.11641028 -0.011112057 0.044086903 0.17494656 0.01850111 0.03318176 -0.11315559 -0.048251994
-0.28311577 -0.031062411 -0.20178112 0.08935769 -0.0551052 0.30027142 0.22987767 0.033636432
-0.10547435 0.0379423 0.010346667 0.107452966 -0.12818535 0.007156948 0.059381574 -0.14481187
-0.14323561 0.29008293 0.210219 0.18651724 0.288257 0.15692206 0.35427383 0.26948914
0.23218375 0.24347284 0.021972435 -0.042920973 -0.027117899 -0.02446452 -0.07142137 -0.072066404
0.047444347 0.09457371 -0.07466824 -0.06888374 0.098210484 0.017865542 0.12775983 0.081262514
0.10303225 -0.040548917 0.09577232 -0.050273098 0.045889135 -0.1064597 -0.08409449 0.020090993
0.038556464 -0.12890966 -0.051038906 -0.026760118 0.003529547 0.03399632 -0.026047388 0.072656654
-0.05281517 -0.07529117 -0.018648015 -0.16353554 0.049384013 0.09705427 0.14520021 0.16666602
0.107091025 0.17110863 0.109002076 0.20153002 0.015031496 0.048218105 -0.047837846 0.37857187
0.32008624 0.28511345 0.13264725 0.115933634 0.17461051 -0.09526373 -0.052470334 -0.058607046
-0.10773926 0.032003466 -0.008971861 -0.1024127 0.12550828 0.1112229 0.022464996 0.026867721
0.063449144 0.03502347 0.017848091 -0.16291319 0.14479777 0.14972156 0.016825745 -0.041130207
0.10538362 0.0037483382 -0.1695673 -0.06399632 0.0012539657 -0.13231161 -0.14335153 -0.17611116
0.026821863 -0.16551317 -0.21372691 -0.19501463 -0.1637424 -0.089153424 -0.10052588 -0.1317844
-0.080638915 0.040275574 -0.11462592 -0.1026866 -0.18035623 -0.12972021 -0.1292268 -0.21619132
-0.064947866 0.046699215 -0.008820536 -0.1010201 -0.10278582 -0.035294462 -0.1910794 -0.10772712
-0.12748736 -0.089416966 -0.053731553 -0.20050861 -0.17527297 -0.16044374 -0.08914355 -0.13082807
-0.07112021 -0.18789572 -0.19135177 -0.06843275 -0.20138109 -0.21088679 -0.11888519 -0.31927976
-0.18407322 -0.31284863 -0.10635641 -0.09850296 -0.0907228 -0.024994906 0.1192101 0.082049385
-0.08403801 -0.08052418 0.14367722 0.07755314 0.031183839 0.09368838 -0.09933153 0.029520974
0.0630089 -0.07173141 -0.051300075 -0.12928967 0.13824911 -0.084214576 -0.0445057 0.15501617
0.043426678 -0.13177681 0.13868411 0.07965818 0.124791324 0.10448054 -0.045230165 0.06866916
0.024539461 -0.050798368 0.07794824 0.062054213 -0.020688415 -0.004587115 -0.08048272 -0.07447643
-0.060948163 0.08386868 -0.15148614 -0.05569666 0.15343419 -0.037423506 0.1188186 0.1272439

AmpNet.0.conv1.spatial_process.block.2.bias f4 [8]
00000000: 8a02 05be 8fc1 cd3d a7a0 08be efb1 803d
00000010: 4092 cb3d 954c ac3d dac3 983d deec 72bc
-0.1298925 0.10046684 -0.13342534 0.06283938 0.09940004 0.08413044 0.07459231 -0.014826981

AmpNet.0.conv1.frequency_process.fpre.weight f4 [8, 8, 1, 1]
00000000: a1a4 1ebe 9993 aa3c c9e4 943e 0b42 85bd
00000010: af82 2c3d 7768 3ebc 2d9d 9d3e e1f8 e93d
00000020: 9769 a4be bd7e ff3d 011f 37be 29cc a2be
00000030: 938b af3e 4a52 68bd 18f6 953e 1b41 803c
00000040: 29c5 933e d046 ca3d 0303 86be a1f5 2ebe
00000050: bc6f 763e c70b adbe 5ed0 81be 1354 413e
00000060: b7a7 873e 5eb0 b93d 57ab 603d 789d 8f3e
00000070: a11d 8f3e 2c91 e73d 23c9 86be 369f 683e
00000080: 5d9f 00be 983d ac3e 98e2 c23e b27b e03d
00000090: 9446 de3d a01a f7bd dbc9 ad3e 063b 053e
000000a0: 56d4 18be 83c2 47be 96b4 1bbe 6893 11be
000000b0: 5076 debe 45bf d73d 86f2 2b3e 3232 cabd
000000c0: b4d9 acbd a310 eb3d 00f9 783e a554 e03e
000000d0: bd28 abbe ff7c 973d 5f1f 133c 37e6 36bd
000000e0: f1a7 33be d4e4 a63e d2ab 243e ec0d a9bd
000000f0: 0f93 8e3d 9a05 6a3e b6a6 933c b101 be3e
-0.15492488 0.020822333 0.290808 -0.06506737 0.042116817 -0.011621586 0.30783978 0.11424423
-0.3211181 0.12475345 -0.17882921 -0.31796387 0.34286174 -0.056719102 0.29289317 0.015656045
0.2886136 0.09876788 -0.26174173 -0.17085887 0.24066061 -0.33798048 -0.25354284 0.18879728
0.26495144 0.090668425 0.054850902 0.28049827 0.27952293 0.11306986 -0.2632533 0.22716984
-0.12560792 0.33640742 0.38063502 0.10961093 0.108533055 -0.12065625 0.33943066 0.13010797
-0.1492475 -0.19507794 -0.15205607 -0.14216387 -0.4344964 0.10534529 0.16791734 -0.09872855
-0.08439961 0.114777826 0.24313736 0.4381458 -0.33429518 0.07396888 0.008979647 -0.044653144
-0.17544533 0.32596457 0.16081169 -0.082546085 0.06961643 0.228537 0.01802383 0.37110665

AmpNet.0.conv1.frequency_process.fpre.bias f4 [8]
00000000: 3b14 8c3e bae2 053d 5211 2e3e e6a0 61bc
00000010: 70a9 213e 77d3 653e 289f 0c3e 4e23 43b9
0.27359185 0.032686926 0.16998795 -0.013771271 0.15787292 0.22443949 0.13732588 -0.00018609801

AmpNet.0.conv1.frequency_process.process1.0.weight f4 [8, 8, 1, 1]
00000000: bc88 3f3e aa20 46be 0113 d43d e1ee e1bc
00000010: 8ea0 933e 5f46 b2be deb6 eb3d d850 5ebe
00000020: 6468 a6be 8699 e33e 53bb 773e e7b0 cbbd
00000030: c574 62be 1c2f bbbe 6564 ac3e f948 243e
00000040: 2244 af3e d205 d73d 3a94 2abe fbe5 c03e
00000050: 5691 99bd 3e00 aa3e 2f50 05be dd27 a63e
00000060: b8f5 67bc 26a0 3a3e 2fa9 eabd 4d4d 993e
00000070: 845a 03be cc69 8a3e 7a51 33bd cb28 2a3c
00000080: 1909 a13d 47f0 e23c 12e3 68be 8d67 88be
00000090: fa3e c8bd 3c18 813e 515e b83d b256 76be
000000a0: 150e e53d 2648 11be bd99 7ebd 4646 7cbe
000000b0: 22e8 283e 285a 83bd a08d 683e 8749 3bbe
000000c0: 89eb 513e 0233 813e 759c febc a593 19be
000000d0: 33ee dfbd 6837 97be d223 50be fda8 a43e
000000e0: 4bbc 65be c390 39bc 7019 14bb eb23 b0bd
000000f0: 3566 1cbe d712 8b3d 0859 2b3e 0998 a7bd
0.18704504 -0.19348398 0.10355187 -0.027579727 0.2883343 -0.34819314 0.115094885 -0.21710527
-0.3250152 0.44453067 0.24192552 -0.09945851 -0.22114857 -0.3655938 0.33670345 0.16043462
0.3423167 0.10499157 -0.16658106 0.3767546 -0.07498424 0.3320331 -0.13018869 0.32452288
-0.014157705 0.18225154 -0.114580505 0.29941788 -0.12827498 0.27033842 -0.043778874 0.010385702
0.07863063 0.027702464 -0.2274287 -0.26641503 -0.09777637 0.25213802 0.090023644 -0.24056509
0.111843266 -0.14187679 -0.062158335 -0.24636182 0.16494802 -0.0641368 0.22710276 -0.18289767
0.20500006 0.25234228 -0.031080464 -0.14997728 -0.10934105 -0.2953446 -0.20326164 0.32160178
-0.2243511 -0.011326018 -0.002259817 -0.08600601 -0.15273364 0.06790703 0.16733181 -0.08183295

AmpNet.0.conv1.frequency_process.process1.0.bias f4 [8]
00000000: c3d6 8bbe c0fb a23e 3bb2 d1bd abac 0abf
00000010: 8509 74bc af76 d2bd f6cf 333e 878f 8ebe
-0.27312288 0.31832695 -0.10239073 -0.5416972 -0.014894848 -0.10276543 0.175598 -0.27843878

AmpNet.0.conv1.frequency_process.process1.2.weight f4 [8, 8, 1, 1]
00000000: caae a4bd 91de acbd 1c3d 883b 3f8c 80be
00000010: d942 c53e 3915 54be cfc5 203e 6a9f df3d
00000020: e708 44be 3b36 3fbe 1c6b 04be d0d7 ddbe
00000030: 5fd8 b63e 6591 6c3c 10f9 68be e809 2dbe
00000040: 0da4 ed3c 1573 c8be e67e 3a3e c169 8e3e
00000050: 86df 793d 9f7d 9dbd 09d2 98be 7045 1a3e
00000060: 5a1c e7bd 70e1 ab3c d4b3 903e e360 9dbe
00000070: 79ff 59be 6175 b1be cf87 e13d f2ba 123d
00000080: 2d65 b23e 5b1d c6be 892d 5fbe 1c29 513e
00000090: 566b 31be 843a 713d 1e34 b93e fe8f 7d3d
000000a0: de4a b23e 8857 2d3e 5c7b 353d b3bb 86be
000000b0: b9a3 a53d a325 a63e aa7d eebd 47c4 e6bc
000000c0: bc30 c9be 059d 1a3e 6e0a 393d 5488 a53e
000000d0: 3a73 a83e 3ddd b3be c7d4 a93e 3314 373e
000000e0: ee32 5d3d 6a93 bf3e 5e34 6ebe 31d3 cabe
000000f0: d8b9 28be e4b4 a8bd d4e5 84be 23bc 5e3e
-0.08041151 -0.08440889 0.0041576754 -0.25107 0.38527563 -0.20711221 0.15700458 0.10919078
-0.19144021 -0.18673031 -0.12931484 -0.43328714 0.35711953 0.014438962 -0.2275126 -0.1689831
0.02900889 -0.391503 0.1821247 0.2781506 0.061004184 -0.07689976 -0.29847744 0.15065551
-0.112847045 0.02098152 0.28262198 -0.3073798 -0.21288861 -0.34659865 0.110122316 0.035822816
0.34842816 -0.3869427 -0.21794714 0.20425838 -0.17326102 0.058893695 0.36172575 0.0619049
0.34822744 0.16927922 0.044307098 -0.26315078 0.08087868 0.3245059 -0.11645062 -0.028169764
-0.39294994 0.1509896 0.045175962 0.32330573 0.3290041 -0.3512973 0.3317015 0.17878799
0.05400365 0.37417156 -0.23262164 -0.3961425 -0.16477144 -0.08237627 -0.25956595 0.21751456

AmpNet.0.conv1.frequency_process.process1.2.bias f4 [8]
00000000: 65d6 1cbe e62e 79bd ce2f d1be 06ed b8be
00000010: 3a5c aabe 3a9e 67be 848c 903e 9599 203e
-0.1531616 -0.06083574 -0.40856785 -0.36118335 -0.33273488 -0.22618952 0.28232205 0.15683587

AmpNet.0.conv1.frequency_process.process2.0.weight f4 [8, 8, 1, 1]
00000000: 6a3a 333e b2e3 2fbe 6d3d e7bd bed8 733e
00000010: 850f 7a3e 8423 f6bd 68e3 bf3d 644e 30be
00000020: bd8e 1c3e aea3 d0be f515 833d 9c25 013e
00000030: cbb4 2b3e 9897 12be 60aa 1abc 9d28 53be
00000040: 75ce 173e c89e e23d ca03 bcbd 7037 c53e
00000050: cacd ad3e 4b7a b2be c0a7 463e 10f2 313e
00000060: 6107 8fbd b604 84be 3e67 60bd 9fd7 9abe
00000070: 857d 93be 1551 5ebe dd5f fdbe 77be 14be
00000080: 9981 f4bd 6e6b aa3d 0566 163e a148 2a3d
00000090: 79d8 96bb bf90 52be 40a9 033f 5f95 b33c
000000a0: 02cb 68be 77df 5fbc abc2 06be dfce 90bd
000000b0: bfd9 a6be 15dc 76bd ea51 903d 5aed 9e3e
000000c0: 9748 033e 2500 a53c 94a8 c93d 54cd a4bc
000000d0: 7da0 4b3e 73fc 08be 5af2 7d3e 1a55 cabc
000000e0: dc9b 123e 867d 18be 2507 dd3e b4f1 7e3e
000000f0: fe15 b3be 7339 31be f698 453e 3564 a33d
0.17502752 -0.17176703 -0.11291013 0.2381315 0.24419983 -0.12018493 0.09369546 -0.17217404
0.15288825 -0.40749878 0.06400672 0.12612003 0.16768186 -0.14315641 -0.009440035 -0.20620961
0.14824851 0.11065441 -0.0918041 0.38518858 0.33946067 -0.34858927 0.19399929 0.17377496
-0.06983829 -0.25784844 -0.05478596 -0.3024263 -0.288067 -0.21710618 -0.494872 -0.14525782
-0.11938781 0.08321272 0.14687355 0.04157317 -0.0046034423 -0.20563029 0.5143013 0.021921812
-0.22733691 -0.013664118 -0.13160197 -0.070707075 -0.32588002 -0.06026848 0.07046874 0.3104046
0.1282066 0.02014167 0.09846607 -0.02011744 0.1988544 -0.13377552 0.24799481 -0.024698783
0.14317268 -0.14891633 0.43169513 0.2489689 -0.34977716 -0.17307071 0.19296631 0.07978097

AmpNet.0.conv1.frequency_process.process2.0.bias f4 [8]
00000000: cf7d 80be 8c25 533e 5086 0fbe 64a7 a1bd
00000010: e97a b43e 49f6 a4be 0397 25be 32bc a1be
-0.25095984 0.20619792 -0.1401608 -0.07893255 0.35250023 -0.3221915 -0.16170888 -0.31588894

AmpNet.0.conv1.frequency_process.process2.2.weight f4 [8, 8, 1, 1]
00000000: 1704 d9bd cb0c 363d 91fe 22be 6bd1 dfbe
00000010: da27 52be 7cf7 a3be 9d51 b23e d7bf aebe
00000020: 6fb7 db3d 71a2 2e3e 34c1 3dbd a7f4 98bd
00000030: 483b 98be 9d8d 5f3e ae9a 593e 17bc 903e
00000040: 60c4 633d 1fb3 9fbe 265b 33bd d188 143e
00000050: 54b9 f4bd a260 67be 7c9b b13d 5c7d 6cbd
00000060: af99 f6bd 8f3a 89be b8b7 d4bd 8b6b b83e
00000070: 3462 a3be 70a0 f2bd 39d0 b4be fa77 45be
00000080: 7cbf eebd b192 4bbc 46d6 ea39 0946 433d
00000090: 093b b3bc 44b2 9bba 6395 993d 08ad ec3c
000000a0: 61ab 9e3e 38a8 b33e 053d ed3d e51b 643e
000000b0: 7901 e4bc c1fc 58bd 36c8 ad3e 0ba8 703c
000000c0: dc85 a03e c314 693e 3662 b63e 0691 63be
000000d0: 599c fdbd ea3b 1b3e bd83 093e ca5c a1bd
000000e0: 8ef8 113e 3a9f a23e e038 0bbe 0b9b dd3e
000000f0: 76cf c83e 3589 923e 5bf8 52be 5ce2 b3be
-0.10596483 0.044445794 -0.15917422 -0.4371446 -0.20523015 -0.32024753 0.3482789 -0.34130737
0.107283466 0.17054154 -0.04632683 -0.07468539 -0.29732728 0.21831365 0.21250412 0.282685
0.0556072 -0.31191346 -0.043788098 0.14505316 -0.11949411 -0.22595456 0.086722344 -0.05773674
-0.120410316 -0.2680249 -0.10386604 0.3601955 -0.3191086 -0.11847007 -0.3531511 -0.19284049
-0.116576165 -0.012425111 0.00044791604 0.047674213 -0.021878736 -0.0011878689 0.074991964 0.028891101
0.30990127 0.35089278 0.11583904 0.22276266 -0.027832733 -0.05297542 0.3394181 0.014688502
0.31352127 0.22761826 0.35621804 -0.22223291 -0.123833366 0.15159574 0.1342916 -0.07879026
0.14254972 0.31762105 -0.13595915 0.4328235 0.3922078 0.28620306 -0.20602553 -0.35133636

AmpNet.0.conv1.frequency_process.process2.2.bias f4 [8]
00000000: 2f1f a4be 3fa0 933d 9ec1 09be 8b7c d63c
00000010: 2ca6 283d 9641 fb3d 45a2 9b3b 6328 d33e
-0.3205504 0.07208299 -0.13452765 0.026182434 0.0411741 0.12268369 0.0047495686 0.4124175
