pre-trained/nikon.pth (torch, 562237 bytes, 226 tensors)

AmpNet.0.conv0.0.weight f4 [8, 3, 1, 1]
-0.4226819 -0.018589793 -0.4185533 0.59464675 0.15871921 0.63949436 -0.20793693 -0.61567545
-0.06844962 -0.41183844 0.35006666 0.3982237 -0.3241274 0.4760029 -0.7089524 -0.20369223
0.15636583 0.39976972 0.47649243 0.2237617 0.3604829 -0.38121223 0.26697573 0.50529903
00000000: c369 d8be 9f49 98bc 9e4c d6be c53a 183f
00000010: 4a87 223e e7b5 233f 6bed 54be e89c 1dbf
00000020: 502f 8cbd 7ddc d2be f03b b33e fae3 cb3e
00000030: 07f4 a5be a7b6 f33e e87d 35bf b294 50be
00000040: 5d1e 203e 9eae cc3e d1f6 f33e c921 653e
00000050: 3791 b83e 402e c3be 0bb1 883e 475b 013f

AmpNet.0.conv0.0.bias f4 [8]
0.2019971 -0.41812947 -0.1639493 0.33060282 0.17309833 -0.37720248 -0.27032992 -0.20038548
00000000: 54d8 4e3e 1115 d6be 53e2 27be c644 a93e
00000010: b040 313e af20 c1be af68 8abe da31 4dbe

AmpNet.0.conv0.1.spatial_process.block.0.weight f4 [8, 8, 3, 3]
-0.23935321 -0.2722578 -0.26315707 -0.18794926 -0.13330862 0.0203002 0.004045312 -0.09380757
-0.10866617 0.094856456 0.23169611 0.15101485 0.04469259 0.12392327 -0.01637349 0.21293929
0.11891731 0.04979822 -0.07935168 -0.10299467 0.057133563 0.044792764 0.033263747 0.06620332
-0.060313974 0.036234297 0.033711627 -0.008237209 0.0669729 0.01696682 -0.063300826 -0.101579346
-0.073547885 0.017172558 0.008273608 -0.20224078 -0.050649665 -0.1049753 -0.2348771 -0.082003996
-0.12725975 -0.027649894 -0.059153568 -0.20454456 -0.096448176 0.0028212566 0.04045316 0.12785935
-0.050688185 -0.023344018 0.04258719 0.06253475 -0.016446993 -0.028895613 0.13221836 0.18338707
0.06535087 -0.03752492 0.08357829 -0.053505342 0.008880596 0.12987928 0.15992661 0.15658048
0.057819992 0.09965177 0.16903791 0.06650193 -0.028755952 -0.008875003 0.14732495 0.055627048
-0.08143232 -0.14993328 -0.054721713 -0.04956814 -0.08850153 0.002927217 -0.13797434 0.067113444
0.017554853 0.0914123 0.06399805 0.14533602 0.14622921 0.10765013 -0.07342091 0.07111772
-0.0014346979 -0.10526896 -0.026027415 0.028317355 0.05298043 0.015508593 -0.009421849 0.0035621054
0.0010082567 -0.0989472 -0.12526456 -0.009625473 -0.0025658484 -0.12655759 -0.06864883 0.1262918
-0.056867205 -0.03560306 0.04651415 0.07395859 -0.10502759 -0.1640926 0.037404355 -0.160449
0.0045362697 0.014344711 -0.11588579 0.17957613 0.01631234 0.024359321 -0.042957686 0.03047651
0.04965479 0.0096990485 -0.09698076 0.10813604 0.07400573 0.06537389 0.18430646 0.18562834
0.08374096 0.17742418 0.08758831 -0.10735021 0.035971116 -0.108609 0.0037423668 -0.035854787
0.14375462 -0.006268459 0.027612127 -0.037188 0.012509834 0.10552529 -0.1005107 -0.08166847
-0.14861754 -0.14742698 -0.09820253 -0.26132086 -0.05239855 -0.17198637 -0.16886193 -0.23114151
-0.1535155 0.21229856 0.04503671 0.19933619 0.1741023 0.16150169 0.13481922 0.21202202
0.18371132 0.132361 -0.06430123 -0.017443093 -0.071769066 -0.1632237 0.019040862 0.03089332
0.0058531286 -0.08502259 -0.09247081 -0.017935501 0.042915285 0.10897831 -0.024060536 -0.010636072
0.06472672 0.10431613 0.09005651 0.046061717 -0.05007626 -0.017006695 -0.03873569 -0.08975854
-0.0045792824 -0.18671581 -0.11698107 -0.14814337 -0.024494179 0.01813204 -0.1318959 -0.095997274
-0.0035053883 0.029745268 0.012177267 0.002865824 0.08626809 0.023578413 0.08002487 0.00020012529
0.0525407 0.17652974 0.066569544 -0.0043593966 0.054066155 0.1989948 0.12098461 -0.148143
-0.15485139 -0.018934706 0.028215297 -0.0018565395 0.05708268 -0.13917512 0.0013079649 -0.11257286
0.016947592 0.07153713 0.010423825 0.08285343 0.09805327 -0.004765736 0.021251272 0.039192628
-0.016037391 -0.07634567 -0.07427535 -0.0041434728 -0.0291264 0.074276 -0.09670323 -0.0003486174
-0.084823795 -0.060585015 -0.049893618 0.028328996 0.035343748 0.117738344 0.07390096 0.050289255
0.065811954 -0.010342044 0.055988073 0.071747266 -0.07604133 0.04089863 -0.08639648 -0.07389767
0.048048247 -0.044753946 0.06707139 -0.0031086598 0.068590745 0.070288174 -0.045318123 -0.08674504
00000000: 0219 75be 6065 8bbe 86bc 86be c575 40be
00000010: 0e82 08be 9b4c a63c 898e 843b 2f1e c0bd
00000020: 5e8c debd 1a44 c23d bf41 6d3e a3a3 1a3e
00000030: 940f 373d 7ccb fd3d b321 86bc c20c 5a3e
00000040: eb8a f33d 38f9 4b3d 2283 a2bd dfee d2bd
00000050: e204 6a3d 9e78 373d 913f 083d 9b95 873d
00000060: c90b 77bd 6a6a 143d 3415 0a3d 5cf5 06bc
00000070: 1629 893d 00fe 8a3c dda3 81bd d508 d0bd
00000080: 46a0 96bd 77ad 8c3c 078e 073c 3518 4fbe
00000090: 0676 4fbd 4afd d6bd 9f83 70be b6f1 a7bd
000000a0: 6150 02be 0882 e2bc 034b 72bd 2174 51be
000000b0: 9f86 c5bd d5e4 383b 36b2 253d 90ed 023e
000000c0: 6a9e 4fbd f43b bfbc e86f 2e3d 3812 803d
000000d0: d8bb 86bc 7eb6 ecbc 4064 073e d2c9 3b3e
000000e0: add6 853d bbb3 19bd 182b ab3d 6b28 5bbd
000000f0: eb7f 113c 13ff 043e cdc3 233e a256 203e
00000100: a8d4 6c3d 3a16 cc3d 4618 2d3e 2a32 883d
00000110: 9a91 ebbc 7668 11bc 5adc 163e 30d9 633d
00000120: fdc5 a6bd 1c88 19be e023 60bd f607 4bbd
00000130: 4a40 b5bd 8dd6 3f3b 2549 0dbe c672 893d
00000140: 32cf 8f3c 5f36 bb3d 6911 833d f7d2 143e
00000150: 1cbd 153e ac77 dc3d b45d 96bd 2ba6 913d
00000160: 790c bcba 4197 d7bd 7237 d5bc ccf9 e73c
00000170: 0202 593d c117 7e3c 195e 1abc 3672 693b
00000180: 7b27 843a d4a4 cabd 5a45 00be 29b4 1dbc
00000190: cb27 28bb 5098 01be c297 8cbd a352 013e
000001a0: 96ed 68bd 84d4 11bd 9f85 3e3d 9a77 973d
000001b0: b518 d7bd e407 28be 4f35 193d be4c 24be
000001c0: fda4 943b 1406 6b3c 8755 edbd cee2 373e
000001d0: 75a1 853c 338d c73c 66f4 2fbd e0a9 f93c
000001e0: d262 4b3d c2e8 1e3c d99d c6bd 6e76 dd3d
000001f0: 5190 973d bfe2 853d d5ba 3c3e 5b15 3e3e
00000200: 6180 ab3d afae 353e 8061 b33d 6dda dbbd
00000210: 7356 133d 656e debd 7f42 753b 78dc 12bd
00000220: 6934 133e a567 cdbb d432 e23c 7252 18bd
00000230: 0cf6 4c3c a51d d83d 8ed8 cdbd cc41 a7bd
00000240: 322f 18be 19f7 16be 681e c9bd d9cb 85be
00000250: dd9f 56bd 321d 30be 24ea 2cbe 5cb0 6cbe
00000260: 2b33 1dbe cb64 593e 6a78 383d c91e 4c3e
00000270: e047 323e b360 253e 0d0e 0a3e 4d1c 593e
00000280: d21e 3c3e a489 073e 5db0 83bd d1e4 8ebc
00000290: a9fb 92bd 1d24 27be 95fb 9b3c fd13 fd3c
000002a0: 9acb bf3b 5320 aebd 5661 bdbd 79ed 92bc
000002b0: f0c7 2f3d 0530 df3d 9a1a c5bc eb42 2ebc
000002c0: 718f 843d b2a3 d53d 8c6f b83d 36ab 3c3d
000002d0: c41c 4dbd a051 8bbc 51a9 1ebd 53d3 b7bd
000002e0: ce0d 96bb 6e32 3fbe c593 efbd e5b2 17be
000002f0: 04a8 c8bc a589 943c b80f 07be 389a c4bd
00000300: a8ba 65bb 59ac f33c 2983 473c 8cd0 3b3b
00000310: 53ad b03d 8427 c13c 14e4 a33d b9d8 5139
00000320: eb34 573d 36c4 343e 9d55 883d 45d9 8ebb
00000330: 7974 5d3d 4bc5 4b3e c7c6 f73d ccb2 17be
00000340: 5d91 1ebe f51c 9bbc c423 e73c 2157 f3ba
00000350: 87cf 693d ec83 0ebe 0570 ab3a 9a8c e6bd
00000360: add5 8a3c 0f82 923d b1c8 2a3c 0faf a93d
00000370: 27d0 c83d e429 9cbb 2617 ae3c 7388 203d
00000380: d960 83bc 1e5b 9cbd ad1d 98bd f8c5 87bb
00000390: 7d9a eebc 041e 983d 580c c6bd a3c6 b6b9
000003a0: 19b8 adbd fe27 78bd 405d 4cbd 3612 e83c
000003b0: 9bc4 103d cd20 f13d 6359 973d 1bfc 4d3d
000003c0: 6bc8 863d ad71 29bc c053 653d 3bf0 923d
000003d0: 8fbb 9bbd 5285 273d a3f0 b0bd a957 97bd
000003e0: 3dce 443d ea4f 37bd ba5c 893d a8ba 4bbb
000003f0: 4e79 8c3d 3ff3 8f3d 7f9f 39bd 62a7 b1bd

AmpNet.0.conv0.1.spatial_process.block.0.bias f4 [8]
-0.059832208 0.12425112 0.08496904 -0.088345036 -0.08328216 0.12068664 -0.05861987 0.1014743
00000000: 9e12 75bd 5f77 fe3d 3f04 ae3d 3eee b4bd
00000010: d68f aabd 8f2a f73d 641b 70bd c2d1 cf3d

AmpNet.0.conv0.1.spatial_process.block.2.weight f4 [8, 8, 3, 3]
0.25237706 0.25680298 0.28537035 0.25018454 0.21100406 0.18797137 0.15575072 0.20889045
0.090400435 -0.13614555 0.003919099 0.027147133 0.078804485 0.11555033 -0.024041092 -0.06264503
-0.057993826 0.022152314 0.06969903 0.10047768 0.093482025 0.13198455 -0.061049215 -0.09050185
0.07220236 0.049157437 -0.04948763 0.05641311 0.114523314 -0.025467018 0.06837391 0.035535503
0.06994456 -0.016709363 0.061241146 -0.003662911 0.07743309 0.16502257 0.1035954 0.007861875
0.16602735 0.043305304 -0.03505823 -0.08657453 0.03379044 -0.028984692 0.05868262 -0.07769095
-0.070648015 -0.07497458 -0.15913272 -0.066160336 0.048361026 0.046895843 -0.00928995 -0.056362856
0.013560285 0.0130440695 0.0015033296 -0.037143398 -0.15100658 -0.09877154 -0.09652446 0.08662308
-0.013280805 0.08647729 -0.055165708 0.04331216 0.0033248193 -0.08930553 -0.04012362 -0.10717682
0.092460044 -0.08305465 -0.06000815 -0.0841486 0.07205283 0.015283377 -0.10701206 -0.045120414
-0.11211488 -0.061810095 0.07180803 0.0071811806 0.034389753 -0.07741879 -0.13649312 0.05710613
0.06220298 -0.13850902 0.06098411 -0.063004985 0.07470871 0.18381955 -0.08945552 -0.082065985
0.02910832 0.006272114 0.020615572 -0.03227114 -0.11042818 0.0014458153 -0.022178235 0.042493206
-0.057331383 -0.042702965 -0.020907175 0.08543908 0.12837982 -0.11403881 -0.08532091 0.010346835
-0.00047662246 -0.14916113 0.17827493 0.08999016 0.050399106 -0.18441649 -0.09034977 -0.044124816
0.13605478 -0.024017217 0.009969737 0.042795125 -0.06415542 0.085095145 -0.119480394 -0.055033233
-0.022101881 -0.0019418453 -0.14552711 -0.085418165 0.037215527 -0.0657425 0.05967551 0.06957892
-0.00909777 -0.024382325 -0.009270683 0.059940662 -0.033027362 -0.035055116 -0.02572149 0.07406254
-0.006081289 -0.035438146 -0.023119839 -0.093034856 -0.10670995 0.04329966 -0.08482828 0.10974247
-0.058702454 -0.14669228 -0.12532464 0.018115021 -0.24800466 0.117741704 0.07065426 -0.06771697
0.088096485 -0.011841497 -0.18478604 -0.0051994543 -0.113009356 -0.031570952 0.017345235 0.016526243
-0.124556504 -0.05990487 0.09929332 0.03256276 0.11002697 0.071575 0.009703656 -0.034094412
-0.048673987 -0.10007148 -0.03630328 0.018785825 -0.07573696 -0.09116947 -0.094207294 -0.09676588
0.051040165 0.020910343 -0.055219088 0.08040778 -0.026553744 -0.11825704 -0.14516371 -0.13582154
-0.035876516 0.019009085 0.058316458 0.04172987 -0.06165673 -0.027888333 0.08429846 0.01110605
-0.093692936 0.005693995 -0.04549676 -0.11573956 -0.10878405 -0.07110763 0.02955601 0.028825207
-0.11504516 -0.08037079 -0.13221668 0.06834189 -0.110242225 -0.16453525 0.055943508 -0.07447958
0.19778319 0.057284705 0.12692167 0.076130405 0.08068918 0.11167619 0.019075522 -0.051225863
-0.048944402 0.14277014 -0.13243869 -0.010975499 0.020835653 0.107137285 -0.110357285 0.11211395
-0.060683664 -0.19787642 0.10583424 0.104960166 0.19691414 0.13233167 -0.065537825 -0.07210444
0.09711893 0.1884475 0.09376444 0.07593278 -0.04696262 0.031183524 0.03125011 0.03588219
-0.0549631 -0.11443268 0.05031339 0.0927764 0.0367393 -0.03166726 -0.059910335 0.04749273
00000000: 9137 813e ae7b 833e 101c 923e 3018 803e
00000010: 7311 583e 917b 403e 1e7d 1f3e 61e7 553e
00000020: dd23 b93d bd69 0bbe c96b 803b aa63 de3c
00000030: 3f64 a13d a7a5 ec3d d3f1 c4bc 0a4c 80bd
00000040: ef8a 6dbd c578 b53c 5dbe 8e3d 3ec7 cd3d
00000050: 8173 bf3d f526 073e be0e 7abd 0959 b9bd
00000060: d5de 933d 4f59 493d 8bb3 4abd 6f11 673d
00000070: 338b ea3d 35a0 d0bc 9f07 8c3d ad8d 113d
00000080: 183f 8f3d 13e2 88bc ffd7 7a3d 730d 70bb
00000090: 3d95 9e3d adfb 283e d329 d43d 18cf 003c
000000a0: 1303 2a3e e760 313d 3899 0fbd fd4d b1bd
000000b0: d867 0a3d 4e71 edbc 305d 703d 6f1c 9fbd
000000c0: e8af 90bd 468c 99bd b0f3 22be 127f 87bd
000000d0: 3616 463d db15 403d e034 18bc bddc 66bd
000000e0: f52b 5e3c cbb6 553c 5f0b c53a ad23 18bd
000000f0: 78a1 1abe bc48 cabd 9eae c5bd 7167 b13d
00000100: bc97 59bc 011b b13d 70f5 61bd 1768 313d
00000110: 36e5 593b d1e5 b6bd aa58 24bd 857f dbbd
00000120: b15b bd3d 8e18 aabd 1bcb 75bd 1a56 acbd
00000130: 6f90 933d 2167 7a3c 2429 dbbd 2fd0 38bd
00000140: 7c9c e5bd 952c 7dbd 1710 933d 1c50 eb3b
00000150: 45dc 0c3d be8d 9ebd dac4 0bbe 1ee8 693d
00000160: 8dc8 7e3d 4fd5 0dbe 79ca 793d c208 81bd
00000170: e100 993d 313b 3c3e 7534 b7bd 3612 a8bd
00000180: 9274 ee3c 4e86 cd3b fde1 a83c be2e 04bd
00000190: 2b28 e2bd 8381 bd3a 21af b5bc 5b0d 2e3d
000001a0: 50d4 6abd 4ee9 2ebd 8645 abbc affa ae3d
000001b0: 0076 033e 2e8d e9bd bbbc aebd c585 293c
000001c0: 2fe3 f9b9 b2bd 18be b48d 363e c34c b83d
000001d0: 4b6f 4e3d add7 3cbe 4d09 b9bd 39bc 34bd
000001e0: f251 0b3e c1bf c4bc 1c58 233c f149 2f3d
000001f0: eb63 83bd 5d46 ae3d 23b2 f4bd 876a 61bd
00000200: 010f b5bc 8485 feba 0f05 15be b8ef aebd
00000210: 4f6f 183d 01a4 86bd 4f6e 743d 657f 8e3d
00000220: d00e 15bc 71bd c7bc 10e4 17bc 5784 753d
00000230: b347 07bd f495 0fbd e0b5 d2bc 1aae 973d
00000240: 8d45 c7bb 9727 11bd d165 bdbc 0f89 bebd
00000250: bf8a dabd fc5a 313d 73ba adbd a9c0 e03d
00000260: fc71 70bd 8036 16be 1a55 00be f465 943c
00000270: eff4 7dbe 9022 f13d 2eb3 903d 32af 8abd
00000280: ee6b b43d d702 42bc 8d38 3dbe 2f60 aabb
00000290: 7371 e7bd 8b50 01bd 9817 8e3c 0b62 873c
000002a0: 7b17 ffbd cf5e 75bd 4c5a cb3d 8760 053d
000002b0: d255 e13d ea95 923d 15fc 1e3c 95a6 0bbd
000002c0: 605e 47bd 47f2 ccbd c0b2 14bd bbe4 993c
000002d0: fb1b 9bbd 0fb7 babd c1ef c0bd 312d c6bd
000002e0: 7e0f 513d 2b4c ab3c 692d 62bd d6ac a43d
000002f0: 3d87 d9bc bf30 f2bd cca5 14be cd14 0bbe
00000300: 41f3 12bd f1b8 9b3c 3ddd 6e3d f1ec 2a3d
00000310: c48b 7cbd 1376 e4bc aca4 ac3d 26f6 353c
00000320: 15e2 bfbd b194 ba3b d05a 3abd dd08 edbd
00000330: 2cca debd e1a0 91bd 721f f23c d722 ec3c
00000340: cc9c ebbd 7199 a4bd cf63 07be d5f6 8b3d
00000350: adc6 e1bd ee7b 28be 0525 653d c088 98bd
00000360: ad87 4a3e 5ea3 6a3d c1f7 013e 42ea 9b3d
00000370: 5e40 a53d 7cb6 e43d 4544 9c3c 36d2 51bd
00000380: ed79 48bd 5632 123e 029e 07be 94d2 33bc
00000390: 88af aa3c cb6a db3d 0003 e2bd 009c e53d
000003a0: 6f8f 78bd 1ea0 4abe 9fbf d83d 5bf5 d63d
000003b0: dca3 493e f481 073e b238 86bd 7eab 93bd
000003c0: 4ae6 c63d 62f8 403e 9207 c03d a582 9b3d
000003d0: e05b 40bd 9774 ff3c 1e00 003d 34f9 123d
000003e0: fd20 61bd ae5b eabd 6a15 4e3d 8e01 be3d
000003f0: f37b 163d 87b5 01bd 8a64 75bd bd87 423d

AmpNet.0.conv0.1.spatial_process.block.2.bias f4 [8]
-0.14294659 0.036376208 -0.018085275 0.071218394 -0.0007459713 0.030274153 0.07246845 -0.13325441
00000000: 9760 12be 38ff 143d 9227 94bc f3da 913d
00000010: 498d 43ba 8001 f83c 576a 943d d873 08be

AmpNet.0.conv0.1.frequency_process.fpre.weight f4 [8, 8, 1, 1]
0.23008817 -0.15154743 -0.0731916 -0.03915875 0.24778055 -0.27885088 0.20788598 -0.29286453
-0.30541694 0.021358283 -0.18231168 0.33522758 0.04605539 -0.3078187 0.30228215 0.1370618
0.050489612 -0.30625215 0.31555983 -0.26058394 -0.21711953 0.23863421 0.23130764 -0.32039332
-0.012577995 -0.040078852 0.02012836 -0.33872524 -0.18177563 0.18192329 0.3826274 -0.24389292
-0.13926278 -0.05520855 -0.05289351 0.074004054 -0.0889229 -0.14144595 0.33942097 -0.22725625
0.12669049 -0.07673206 -0.09828682 -0.009430941 0.24292892 0.25585493 -0.22964546 -0.11137054
0.30295813 0.06817173 -0.2771901 -0.2687334 0.035869595 0.050348364 0.013953261 0.157988
0.030275404 -0.04265486 0.4996607 -0.20304543 -0.08900447 -0.104983 -0.13769765 0.076247096
00000000: 3c9c 6b3e 402f 1bbe 7ae5 95bd ed64 20bd
00000010: 2fba 7d3e 8bc5 8ebe 10e0 543e 57f2 95be
00000020: 9c5f 9cbe 91f7 ae3c eaaf 3abe f3a2 ab3e
00000030: 94a4 3c3d 6a9a 9dbe bac4 9a3e ee59 0c3e
00000040: 32ce 4e3d 15cd 9cbe 0f91 a13e 426b 85be
00000050: 9554 5ebe 875c 743e e9db 6c3e 980a a4be
00000060: ef13 4ebc b929 24bd 3be4 a43c 656d adbe
00000070: 6423 3abe 194a 3a3e bde7 c33e 11bf 79be
00000080: e79a 0ebe 5c22 62bd dda6 58bd 708f 973d
00000090: 361d b6bd 35d7 10be 96c8 ad3e ddb5 68be
000000a0: 27bb 013e b325 9dbd 9a4a c9bd 3c84 1abc
000000b0: 5cc2 783e 6bff 823e 2e28 6bbe 3d16 e4bd
000000c0: 541d 9b3e 9f9d 8b3d dceb 8dbe 6d97 89be
000000d0: ffeb 123d 163a 4e3d 389c 643c 9bc7 213e
000000e0: 2004 f83c ddb6 2ebd 87d3 ff3e 24eb 4fbe
000000f0: fa47 b6bd 5401 d7bd 9d00 0dbe 7027 9c3d

AmpNet.0.conv0.1.frequency_process.fpre.bias f4 [8]
-0.38278425 -0.2366797 -0.105981134 0.048416074 -0.077519625 0.029918902 0.2223993 0.2672299
00000000: 4cfc c3be 2a5c 72be a30c d9bd ef4f 463d
00000010: 9cc2 9ebd 7c18 f53c a4bc 633e 5cd2 883e

AmpNet.0.conv0.1.frequency_process.process1.0.weight f4 [8, 8, 1, 1]
-0.33068252 -0.073230885 0.36295155 -0.20260473 0.13795981 0.15729664 0.047008496 0.038806755
0.15716241 -0.3708194 0.22122918 0.38056678 -0.025224522 -0.02806947 0.117411844 -0.26376596
0.18739767 -0.31834158 0.19032313 -0.30758053 -0.34618142 0.15148902 -0.011109763 -0.24634364
0.13586497 -0.07329025 -0.3029005 0.2997635 0.18171138 0.38342345 -0.17951562 0.17294253
0.35953328 0.14449486 0.12962487 -0.2730927 0.20642927 -0.2553152 0.04762439 0.0224846
0.12230625 -0.3515662 0.3342836 0.13680947 -0.21868847 -0.09407237 0.22421919 -0.14694566
-0.17322202 0.23580655 -0.23805177 0.4433286 -0.14215294 0.3793593 -0.19355592 -0.33025384
0.0028070014 0.18634701 -0.37358677 0.27341747 0.22387761 -0.2525778 -0.2370781 -0.16018705
00000000: 384f a9be 13fa 95bd c9d4 b93e 9d77 4fbe
00000010: 5645 0d3e 5f12 213e fb8b 403d d5f3 1e3d
00000020: 2fef 203e 0adc bdbe e789 623e a6d9 c23e
00000030: a8a3 cebc f2f1 e5bc 9f75 f03d 550c 87be
00000040: 2de5 3f3e abfd a2be 11e4 423e 327b 9dbe
00000050: b13e b1be f01f 1b3e b905 36bc 8241 7cbe
00000060: 3020 0b3e 3319 96bd c615 9bbe 9a7a 993e
00000070: 8c12 3a3e 1450 c43e f1d2 37be d917 313e
00000080: bf14 b83e 76f6 133e 62bc 043e ced2 8bbe
00000090: 3262 533e adb8 82be cb11 433d a031 b83c
000000a0: b37b fa3d 7c00 b4be 3827 ab3e c817 0c3e
000000b0: dfef 5fbe 04a9 c0bd b799 653e ec78 16be
000000c0: 1d61 31be 4677 713e d8c3 73be f7fb e23e
000000d0: 8a90 11be 623b c23e 8633 46be 0817 a9be
000000e0: abf5 373b c0d1 3e3e c446 bfbe 60fd 8b3e
000000f0: 2c40 653e e151 81be 9ac4 72be 1308 24be

AmpNet.0.conv0.1.frequency_process.process1.0.bias f4 [8]
-0.17736003 0.25600335 0.19061346 -0.08725812 -0.2197358 0.27787936 0.00060162996 0.14519846
00000000: de9d 35be df12 833e 2d30 433e 63b4 b2bd
00000010: 6c02 61be 3446 8e3e b4b6 1d3a e8ae 143e

AmpNet.0.conv0.1.frequency_process.process1.2.weight f4 [8, 8, 1, 1]
0.008373285 0.3490248 0.30875516 -0.29465494 -0.14589645 -0.030820303 0.4233254 0.043063197
0.0010967879 0.06914553 -0.26091743 0.42913702 -0.16291912 0.018057598 -0.16009787 -0.03624592
0.16472447 0.2913536 -0.13424413 0.33409798 0.22242494 0.50014895 -0.049727257 -0.191121
0.16184443 0.23747148 0.26248124 -0.24258617 0.26390302 -0.25083935 -0.5226287 -0.2904494
0.31281465 -0.16621631 -0.2915279 0.021297395 0.044340886 -0.49277127 0.081201434 0.06909479
0.16414136 0.19905001 -0.15531951 -0.059795048 0.35523593 0.09089178 0.30803156 0.030580876
0.33270228 0.377526 0.28186032 -0.23053008 0.33175614 0.44370478 -0.7038501 0.092155665
0.4765997 -0.14120808 0.19717273 -0.17249413 0.26923475 -0.36792916 0.020230165 0.02123718
00000000: 1a30 093c 61b3 b23e 2815 9e3e 03dd 96be
00000010: e165 15be dc7a fcbc 1bbe d83e 0963 303d
00000020: 18c2 8f3a 2c9c 8d3d f896 85be d9b7 db3e
00000030: 45d4 26be 87ed 933c b2f0 23be 9a76 14bd
00000040: 88ad 283e 4d2c 953e 4b77 09be e40e ab3e
00000050: 5dc3 633e c309 003f cfae 4bbd 39b5 43be
00000060: 8cba 253e b92b 733e f163 863e 8268 78be
00000070: 4c1e 873e 046e 80be ffca 05bf c9b5 94be
00000080: 3e29 a03e 9c34 2abe 2543 95be e077 ae3c
00000090: ca9e 353d 844c fcbe f04c a63d 9281 8d3d
000000a0: ac14 283e c4d3 4b3e 140c 1fbe a7eb 74bd
000000b0: 7ce1 b53e 7825 ba3d 50b6 9d3e bf84 fa3c
000000c0: f457 aa3e 164b c13e ff4f 903e 1410 6cbe
000000d0: f1db a93e 462d e33e 852f 34bf 1cbc bc3d
000000e0: e004 f43e da98 10be a6e7 493e 4da2 30be
000000f0: 23d9 893e 3661 bcbe bbb9 a53c 98f9 ad3c

AmpNet.0.conv0.1.frequency_process.process1.2.bias f4 [8]
-0.17916818 0.14578938 -0.23273759 0.32567716 0.2940705 -0.0015885707 0.21469805 0.254198
00000000: dd77 37be d049 153e c352 6ebe 28bf a63e
00000010: 6990 963e 9637 d0ba ced9 5b3e 3e26 823e

AmpNet.0.conv0.1.frequency_process.process2.0.weight f4 [8, 8, 1, 1]
0.037038915 -0.2293748 -0.2892754 -0.044015378 0.077181086 -0.34713212 -0.13140899 0.23517375
-0.02279379 -0.15647247 -0.16200836 0.060743652 0.24165317 -0.31301585 0.21358615 -0.2585389
0.046294354 0.107936576 -0.25266322 -0.0029451358 -0.0072433874 -0.27825993 0.24338244 0.22077762
0.12438314 -0.24737972 -0.15744105 0.22535555 -0.10805443 -0.24024434 0.061169975 0.22440648
0.27446875 0.08941761 -0.076350085 -0.35295925 0.12059792 0.28579205 0.26238185 0.101229824
-0.32663673 0.30581155 -0.39154577 -0.084143706 -0.11665342 0.19255184 -0.09111719 -0.07537238
0.021593545 0.17362893 -0.044061963 0.10209731 -0.35693434 -0.3667088 -0.027543223 -0.12499916
0.10861405 -0.06281534 0.026731092 -0.50232345 -0.24717759 0.408013 0.07772282 0.26674527
00000000: 1eb6 173d 3ae1 6abe e81b 94be 7849 34bd
00000010: 1e11 9e3d 4dbb b1be 1490 06be 63d1 703e
00000020: 0bba babc 523a 20be 85e5 25be 56ce 783d
00000030: ee73 773e 9d43 a0be 54b6 5a3e 365f 84be
00000040: 269f 3d3d da0d dd3d 135d 81be 2e03 41bb
00000050: f059 edbb 1678 8ebe 3f39 793e 8713 623e
00000060: 96bc fe3d 1c51 7dbe 3a38 21be 9bc3 663e
00000070: a44b ddbd 9d02 76be 5e8d 7a3d d0ca 653e
00000080: 2b87 8c3e 9420 b73d 6f5d 9cbd 13b7 b4be
00000090: 0bfc f63d 5653 923e ea56 863e 9551 cf3d
000000a0: ee3c a7be 5593 9c3e b078 c8be 8953 acbd
000000b0: fde7 eebd 4f2c 453e a69b babd d65c 9abd
000000c0: f2e4 b03c c8cb 313e 517a 34bd 6518 d13d
000000d0: 19c0 b6be 41c1 bbbe 53a2 e1bc 8fff ffbd
000000e0: 0b71 de3d 54a5 80bd 2afb da3c 4598 00bf
000000f0: 1f1c 7dbe 14e7 d03e 242d 9f3d d692 883e

AmpNet.0.conv0.1.frequency_process.process2.0.bias f4 [8]
0.01735411 -0.16809146 0.28147766 0.119164556 -0.23516972 -0.23597649 0.04027116 -0.25219738
00000000: 352a 8e3c 2b20 2cbe d71d 903e 8c0c f43d
00000010: 55d0 70be d2a3 71be 5ff3 243d 0420 81be

AmpNet.0.conv0.1.frequency_process.process2.2.weight f4 [8, 8, 1, 1]
-0.11124762 -0.0378872 -0.2896166 0.078419864 0.14917427 -0.19757284 -0.26369777 -0.3691889
-0.043875534 -0.18890998 0.016210306 -0.119947806 -0.24842997 -0.19201452 -0.087225676 -0.38191363
0.28824618 -0.13035907 0.09641719 -0.19385117 0.11720953 -0.0481295 -0.2931143 -0.038454786
-0.015364377 -0.0771088 -0.15657933 -0.063477024 0.16719636 -0.20916265 -0.30465594 0.04945425
-0.022851262 -0.015402869 0.22002238 -0.10207676 0.1596074 0.23265798 -0.032240313 0.03333271
-0.29368475 -0.17833777 -0.24992947 0.21001843 -0.045673247 0.034819394 0.10711825 -0.32722825
-0.107514665 0.023783188 0.12498128 0.034023724 0.15772545 -0.26828736 -0.13384998 0.25749978
-0.24791078 0.3174311 -0.03915408 0.11372335 0.23616402 0.2578891 0.050831717 -0.0039412463
00000000: cbd5 e3bd 9c2f 1bbd a148 94be 989a a03d
00000010: 24c1 183e 8950 4abe 6503 87be 5406 bdbe
00000020: d5b6 33bd 9e71 41be 7acb 843c 32a7 f5bd
00000030: 6d64 7ebe 749f 44be 60a3 b2bd 2f8a c3be
00000040: 0195 933e d97c 05be 6076 c53d ec80 46be
00000050: 8d0b f03d 7023 45bd 1413 96be c482 1dbd
00000060: deba 7bbc 38eb 9dbd 5556 20be 3e00 82bd
00000070: 8635 2b3e bc2e 56be ddfb 9bbe 8a90 4a3d
00000080: 9232 bbbc 515c 7cbc 8c4d 613e 9f0d d1bd
00000090: 1f70 233e e53d 6e3e 6b0e 04bd e187 083d
000000a0: d95d 96be 2d9e 36be 83ed 7fbe 120f 573e
000000b0: df13 3bbd c89e 0e3d d060 db3d 768a a7be
000000c0: a630 dcbd f6d4 c23c 2ff6 ff3d 765c 0b3d
000000d0: c882 213e f65c 89be f80f 09be 03d7 833e
000000e0: 53dc 7dbe 5486 a23e 0760 20bd cae7 e83d
000000f0: fbd4 713e 0a0a 843e eb34 503d 9225 81bb

AmpNet.0.conv0.1.frequency_process.process2.2.bias f4 [8]
-0.22758228 -0.36893407 0.08079627 0.28714487 0.11099946 -0.0571181 -0.24547644 -0.09170905
00000000: 540b 69be ede4 bcbe 8478 a53d a704 933e
00000010: af53 e33d abf4 69bd 2d5e 7bbe f4d1 bbbd

AmpNet.0.conv0.1.cat.weight f4 [8, 16, 1, 1]
0.08755483 -0.10390899 0.12484588 -0.24104635 -0.020260125 0.18839715 0.09158533 -0.061308783
-0.020315489 -0.22735453 0.2868089 -0.118652165 -0.25923178 0.061313234 -0.11542322 0.2676141
0.18130188 0.005567745 -0.16310363 0.26090646 0.021492323 -0.12429721 0.07809201 0.1374385
0.013000005 0.073289216 -0.044197533 0.09339387 -0.08309676 0.12253491 0.02535345 0.18855757
-0.07914144 0.009036488 0.14024416 0.1641845 0.095906496 -0.15793867 0.17292897 -0.009005846
0.025562625 -0.17788973 0.16949454 -0.15970224 0.091747314 -0.095481865 0.16421454 -0.066043824
-0.033360634 0.082279816 0.08308749 0.18289602 -0.28172392 -0.13168743 -0.0057611517 0.19003132
-0.19977905 -0.13879219 -0.2623584 0.09091328 -0.21166694 -0.1713881 -0.10852525 0.05429876
0.034889564 0.13920891 0.22312883 -0.1385159 0.06981636 -0.069909476 0.25982773 0.20787098
0.08137317 0.09033586 -0.17738228 -0.075206175 0.27214494 -0.19687821 0.32547882 0.25111023
0.2378672 0.077080086 -0.046546496 -0.16073331 -0.2755193 -0.0727007 -0.24759637 -0.20986511
-0.029825162 -0.028216742 0.001197657 -0.2080536 -0.07679153 0.13526908 0.050810736 -0.20417547
-0.1472053 0.23266159 -0.19763632 0.12767015 0.17128381 0.0122960685 -0.15140621 0.10831475
0.08768108 0.06894425 0.10333332 0.2548586 -0.19837838 0.028077794 0.1513509 -0.06970034
-0.21560493 -0.13957776 -0.2492989 0.17596252 0.18230765 0.20000267 -0.03080567 -0.063988425
-0.15245712 0.18849832 0.092578605 0.2960559 -0.11822329 0.11079834 0.2059988 -0.17361122
00000000: f24f b33d 3dce d4bd 32af ff3d dbd4 76be
00000010: 90f8 a5bc 2feb 403e 1791 bb3d eb1e 7bbd
00000020: ab6c a6bc a0cf 68be 9ed8 923e e8ff f2bd
00000030: 07ba 84be 9623 7b3d 0263 ecbd b704 893e
00000040: 33a7 393e a171 b63b a304 27be 8895 853e
00000050: ab10 b03c 898f febd b4ee 9f3d aebc 0c3e
00000060: f9fd 543c a818 963d 7908 35bd 4945 bf3d
00000070: a22e aabd 95f3 fa3d 0ab2 cf3c 3c15 413e
00000080: e814 a2bd c70d 143c 2a9c 0f3e fb1f 283e
00000090: a06a c43d adba 21be 4b14 313e 428d 13bc
000000a0: b668 d13c ba28 36be fa8f 2d3e fc88 23be
000000b0: 04e6 bb3d ff8b c3bd db27 283e fc41 87bd
000000c0: 29a5 08bd 5282 a83d c629 aa3d 1849 3b3e
000000d0: 1e3e 90be 12d9 06be 0bc8 bcbb 9297 423e
000000e0: e192 4cbe 8a1f 0ebe d753 86be be30 ba3d
000000f0: 38bf 58be 5d80 2fbe 7c42 debd 6068 5e3d
00000100: 5ce8 0e3d c88c 0e3e e27b 643e 1dd7 0dbe
00000110: e1fb 8e3d b32c 8fbd 2408 853e 21dc 543e
00000120: faa6 a63d 0202 b93d b3a3 35be b205 9abd
00000130: 9556 8b3e 719a 49be 29a5 a63e 8591 803e
00000140: 7693 733e 2adc 9d3d 8aa7 3ebd 4697 24be
00000150: de10 8dbe 1be4 94bd e789 7dbe e1e6 56be
00000160: e653 f4bc cc26 e7bc b3fa 9c3a 010c 55be
00000170: e144 9dbd fa83 0a3e eb1e 503d 6013 51be
00000180: fcbc 16be d73e 6e3e 2d61 4abe f7bb 023e
00000190: 0665 2f3e 7375 493c 3b0a 1bbe 20d4 dd3d
000001a0: 2392 b33d a532 8d3d 6ba0 d33d d47c 823e
000001b0: b423 4bbe 6703 e63c bbfb 1a3e 0dbf 8ebd
000001c0: 8ac7 5cbe 79ed 0ebe 3648 7fbe 852f 343e
000001d0: dbae 3a3e 80cd 4c3e 2c5c fcbc 5d0c 83bd
000001e0: b81d 1cbe b405 413e da99 bd3d a494 973e
000001f0: 0d1f f2bd 3dea e23d 59f1 523e 24c7 31be

AmpNet.0.conv0.1.cat.bias f4 [8]
0.019230245 0.048286464 0.18028854 0.13941552 0.20158122 0.25209263 0.23604552 0.172331
00000000: bf88 9d3c 07c8 453d 8f9d 383e f1c2 0e3e
00000010: 4f6b 4e3e 4912 813e ebb5 713e 8a77 303e

AmpNet.0.conv1.spatial_process.block.0.weight f4 [8, 8, 3, 3]
-0.027688142 0.07671989 -0.080143094 0.11938336 0.07160386 0.13193092 0.05341717 0.17050348
0.099814296 -0.069779105 0.09611911 0.09202353 -0.081678204 -0.13254958 0.033543073 -0.025952691
0.052562963 0.016453272 -0.117311575 -0.09775265 -0.04774239 0.048608262 0.06304757 0.03758901
0.10206847 0.044809777 0.07733532 -0.08100315 0.09391057 0.03718992 0.08887352 -0.04149611
-0.052677102 -0.013818495 0.011164892 0.085416295 -0.007755374 0.012609905 0.048540145 0.03745161
-0.022750938 -0.11921072 0.008792112 0.07177912 -0.039982006 0.005111701 -0.015825814 0.03128834
0.10804906 -0.100156315 -0.08346531 -0.008636751 -0.09505392 -0.106492996 -0.096920066 -0.055133607
-0.04894345 -0.18863353 -0.13222879 -0.14095801 -0.10439005 -0.1137097 -0.16141686 0.24158292
0.12731144 0.22816575 0.089828946 0.05811471 0.25688013 0.2780092 0.12860885 0.12313786
0.20261985 0.2160213 0.17329016 -0.022701679 -0.009455106 0.028123982 -0.0074496265 0.07098192
0.110598005 -0.07271935 0.10615205 0.056706026 0.08421574 0.047405913 0.19779868 0.019362697
0.0688299 0.10124874 0.17199056 0.22629912 0.19457583 0.062214695 -0.02005699 -0.17910117
-0.089517884 -0.07046185 -0.112290286 0.01668223 -0.1677168 -0.1946498 0.18612887 0.0713446
-0.0138644455 0.088320464 0.098702274 0.0038275737 -0.17941885 -0.18126126 -0.22651407 0.08654944
-0.01510567 0.011204266 0.12003369 0.010668588 -0.09674973 0.114647076 0.21375999 0.18439084
-0.080651656 -0.007603906 -0.073036954 -0.031019846 0.022630516 0.09698366 -0.085365646 -0.16582046
-0.06400724 0.07687383 0.035370417 0.15850346 0.013425021 0.035447728 0.026713096 0.14112832
0.04439437 0.078002594 0.093789846 0.28586465 0.14463833 0.15731496 0.086518645 0.21023817
0.16159722 0.051607326 0.1504863 0.2179208 0.12171533 0.028855218 0.22848456 0.13699678
0.029973507 -0.10045735 -0.023477646 -0.11849994 -0.12744346 0.0723644 -0.0024879903 -0.05301853
0.03177963 -0.06930255 0.04195056 0.040661547 0.07812531 0.111308426 0.0011485901 0.061691925
0.103386134 0.07531254 0.108326934 -0.086712115 0.05007859 -0.022895968 -0.09953943 0.079176545
0.08660624 0.065749116 -0.061093327 -0.08667582 -0.07245195 -0.016521 -0.09201625 -0.091306716
-0.06316676 -0.03795966 0.05958186 -0.009337594 -0.12472671 -0.034373883 0.015995467 0.05402405
0.09407645 0.07663306 0.102451 -0.034216654 -0.060620442 -0.08123313 -0.12784591 0.07472973
-0.100537546 0.013490421 -0.05942861 0.06133787 0.010642346 0.07078252 -0.074299835 -0.039460648
0.075049624 -0.006594401 0.11929873 0.010116856 0.15341479 0.07096439 0.08933185 0.009291948
-0.19982049 -0.014663909 -0.09722539 -0.16082597 -0.1781399 -0.14892054 -0.20000826 -0.15464391
-0.1426934 0.13858666 0.098372474 0.031315472 -0.00572857 0.14363575 0.12764867 0.13215388
0.15075794 0.15009457 -0.038533393 -0.090197496 -0.0011771539 -0.25132316 -0.062896796 -0.14331748
-0.056655806 -0.18020895 -0.07214468 0.15423085 0.019241866 0.13643077 0.09554389 -0.035953086
-0.0044331807 0.12861516 0.0389146 -0.056412116 0.014690246 0.0026515785 0.1472674 -0.044584617
00000000: 3ed2 e2bc 511f 9d3d 1022 a4bd 437f f43d
00000010: 0ba5 923d e618 073e f6cb 5a3d 7798 2e3e
00000020: 706b cc3d 59e8 8ebd 19da c43d d576 bc3d
00000030: e746 a7bd 14bb 07be 7664 093d bd9a d4bc
00000040: 434c 573d 03c9 863c 0d41 f0bd 8b32 c8bd
00000050: 868d 43bd 7519 473d 161f 813d eff6 193d
00000060: 4609 d13d 758a 373d fb61 9e3d fbe4 a5bd
00000070: 2f54 c03d 7554 183d 5203 b63d d3f7 29bd
00000080: f2c3 57bd f866 62bc f4ec 363c bdee ae3d
00000090: cb20 febb c699 4e3c 08d2 463d dc66 193d
000000a0: 2d60 babc c024 f4bd ca0c 103c ee00 933d
000000b0: 2cc4 23bd 0e80 a73b 23a5 81bc 3428 003d
000000c0: d348 dd3d c11e cdbd dcef aabd 2981 0dbc
000000d0: a1ab c2bd 0019 dabd 077e c6bd c7d3 61bd
000000e0: ed78 48bd 2629 41be fc66 07be 4c57 10be
000000f0: 73ca d5bd a2e0 e8bd 764a 25be 8361 773e
00000100: ee5d 023e 48a4 693e 3df8 b73d b109 6e3d
00000110: cb85 833e 3957 8e3e 0ab2 033e b42f fc3d
00000120: 947b 4f3e b034 5d3e fa72 313e dff8 b9bc
00000130: 97e9 1abc 4464 e63c ff1b f4bb f85e 913d
00000140: 3581 e23d e2ed 94bd 3f66 d93d 9444 683d
00000150: 4d79 ac3d b42c 423d bd8b 4a3e 859e 9e3c
00000160: b1f6 8c3d 805b cf3d 4b1e 303e f5ba 673e
00000170: e33e 473e d6d4 7e3d 8f4e a4bc 4c66 37be
00000180: 2755 b7bd 4d4e 90bd 73f8 e5bd 2ca9 883c
00000190: f4bd 2bbe 4752 47be 9198 3e3e 1e1d 923d
000001a0: b327 63bc 5ce1 b43d 6b24 ca3d 08d8 7a3b
000001b0: 93b9 37be 8d9c 39be 4ef3 67be d540 b13d
000001c0: c67d 77bc 1992 373c 39d4 f53d 4dcb 2e3c
000001d0: b924 c6bd 16cc ea3d e6e3 5a3e f4d0 3c3e
000001e0: b22c a5bd 302a f9bb 6694 95bd 551d febc
000001f0: a263 b93c 5e9f c63d 2fd4 aebd d7cc 29be
00000200: 3a16 83bd 0770 9d3d 92e0 103d bb4e 223e
00000210: 9ff4 5b3c a331 113d 6cd5 da3c f183 103e
00000220: dfd6 353d d3bf 9f3d e414 c03d da5c 923e
00000230: 121c 143e 2c17 213e b030 b13d ad48 573e
00000240: be79 253e 3462 533d 1519 1a3e a126 5f3e
00000250: e345 f93d c761 ec3c dbf7 693e e248 0c3e
00000260: 008b f53c 95bc cdbd 3154 c0bc 19b0 f2bd
00000270: 8a80 02be c933 943d 8d0d 23bb f529 59bd
00000280: 5b2b 023d 7fee 8dbd 5ad4 2b3d b98c 263d
00000290: 2a00 a03d acf5 e33d 4a8c 963a acb0 7c3d
000002a0: 1cbc d33d 763d 9a3d 83da dd3d 1f96 b1bd
000002b0: 351f 4d3d 5390 bbbc 54db cbbd 5027 a23d
000002c0: 9d5e b13d 79a7 863d ff3c 7abd 1883 b1bd
000002d0: b061 94bd 0c57 87bc 0473 bcbd 04ff babd
000002e0: 935d 81bd 977b 1bbd 1c0c 743d b5fc 18bc
000002f0: b870 ffbd a1cb 0cbd ed08 833c 5248 5d3d
00000300: 27ab c03d cbf1 9c3d d4d1 d13d c326 0cbd
00000310: 244d 78bd 8e5d a6bd 0aea 02be e70b 993d
00000320: a1e6 cdbd ed06 5d3c 6a6b 73bd 6b3d 7b3d
00000330: 3c5d 2e3c 6df6 903d 832a 98bd 7da1 21bd
00000340: 9eb3 993d d815 d8bb e452 f43d 2bc1 253c
00000350: c418 1d3e c755 913d 9ef3 b63d 413d 183c
00000360: be9d 4cbe e440 70bc 1b1e c7bd 90af 24be
00000370: 4e6a 36be a07e 18be f7ce 4cbe f95a 1ebe
00000380: 381e 12be a9e9 0d3e 8277 c93d a744 003d
00000390: bab6 bbbb 4015 133e 55b6 023e 5953 073e
000003a0: 4a60 1a3e 64b2 193e 31d5 1dbd 77b9 b8bd
000003b0: bb4a 9aba 6ead 80be 09d0 80bd d1c1 12be
000003c0: eb0f 68bd b288 38be 97c0 93bd b1ee 1d3e
000003d0: 1ea1 9d3c 82b4 0b3e 84ac c33d 8b43 13bd
000003e0: 3744 91bb b1b3 033e ea64 1f3d 6410 67bd
000003f0: 5caf 703c 1bc6 2d3b 44cd 163e 5c9e 36bd

AmpNet.0.conv1.spatial_process.block.0.bias f4 [8]
-0.032433163 -0.033289142 -0.06223728 -0.017713211 -0.10905505 0.08374541 0.1319201 -0.025987897
00000000: a3d8 04bd 325a 08bd 85ec 7ebd 4c1b 91bc
00000010: 4158 dfbd b782 ab3d 1016 073e 92e4 d4bc

AmpNet.0.conv1.spatial_process.block.2.weight f4 [8, 8, 3, 3]
0.08879499 0.11165249 0.12546349 -0.059661306 0.112126976 -0.0034036487 -0.086776435 0.116094
-0.020641802 0.015391465 -0.04203039 -0.14380164 -0.10428459 0.015446136 -0.027932717 0.06789315
-0.008093386 0.004750671 0.036333133 0.0069226413 0.00089530344 0.19077155 -0.06637402 -0.03657068
0.064139634 0.006429156 -0.12686406 -0.21502851 -0.20559187 -0.1292344 -0.24827656 -0.004938914
-0.020817015 -0.24112326 -0.0657791 -0.12090048 -0.038303487 -0.08717587 -0.10599202 -0.014007562
-0.14836341 0.030830646 -0.12000281 0.061569024 -0.070340924 -0.09564215 0.05062727 0.057487525
-0.06027535 -0.051215418 -0.06011055 -0.14346784 -0.058815494 0.09974935 0.031739753 0.13973388
0.104060926 0.20253085 0.02116402 0.1596925 0.102452785 0.29244936 0.08812003 0.2056554
0.13282122 0.05922237 0.21477221 0.14378618 0.039759807 0.2376203 0.20478126 0.10246328
0.12738752 0.09186405 0.005870224 0.18684545 0.045269597 0.22098128 -0.064628944 0.15367407
0.21140288 -0.15204446 -0.16556692 -0.055388805 -0.21648681 -0.17869292 -0.31836638 0.23154727
0.08589185 0.15224445 -0.048098203 -0.0055050207 0.09763725 0.0145803355 -0.034622017 -0.031534728
-0.07995819 0.15527312 -0.03829474 0.06693746 0.052418757 0.1643241 0.08672826 0.04211606
-0.046906915 0.20547134 0.15524477 0.054431163 0.14627197 0.043418586 0.042825177 0.15101269
-0.13072075 0.057570197 0.14245 -0.015475671 -0.049397014 -0.06099097 -0.015366295 -0.009847416
-0.039349776 0.043822642 -0.044603646 0.06826865 0.025021762 -0.021180404 -0.04266851 -0.06973873
-0.009212897 -0.14743225 0.03661802 0.0030487191 -0.06567389 0.023955366 -0.14790617 -0.24444032
-0.15740831 -0.035968248 -0.053531382 0.029655706 -0.08434118 0.004646174 0.053943228 0.067280605
0.029234797 0.03469098 0.05292354 0.04422934 -0.025676372 0.0549542 0.023377063 0.091330916
-0.06936582 0.010086204 -0.14993118 -0.15296935 -0.0737348 -0.070359044 -0.101951085 0.07217231
-0.1161262 -0.09074412 0.04099146 0.16435988 -0.024782306 0.13561526 -0.11077058 -0.025821377
0.11158739 -0.023728192 -0.10091396 -0.14088643 -0.031781424 -0.061028406 -0.12596111 -0.2071828
-0.0223729 -0.1631197 -0.16364305 0.0073644 -0.20542134 -0.05267538 -0.15516156 -0.096817866
0.012609214 0.0074822158 -0.14919883 -0.007200443 -0.03682216 0.039663106 -0.10375647 -0.13851927
-0.10076834 0.0063551557 0.07590076 -0.05014618 0.064054295 0.005984436 0.22318502 0.04489284
0.06589162 0.02562031 0.15122959 0.09068259 0.020005962 0.2452493 0.068329856 0.27660835
0.08698326 0.18493491 0.15228029 0.1744083 0.025480967 0.20319118 0.13683225 0.11221628
-0.104001425 -0.18548782 -0.049555372 0.05498369 -0.061581526 0.10869383 -0.11896799 -0.0927411
-0.064202406 -0.20888877 0.065749906 0.03525236 -0.19949932 -0.021978572 0.013188519 0.08915797
-0.013342374 0.05722857 -0.037209235 -0.016091475 0.036439583 -0.08043893 0.030279608 -0.030547908
-0.086586036 0.07246335 -0.08781315 0.076520815 -0.018874463 0.11748322 0.06064155 0.12176951
-0.0070958184 0.059295513 0.020177199 -0.027054597 0.17213805 -0.065634765 0.043548327 0.028269459
00000000: 26da b53d 10aa e43d 8079 003e 6a5f 74bd
00000010: d4a2 e53d c00f 5fbb d8b7 b1bd b1c2 ed3d
00000020: ff18 a9bc 7c2c 7c3c 0f28 2cbd bd40 13be
00000030: 2993 d5bd ca11 7d3c 27d3 e4bc 900b 8b3d
00000040: 1f9a 04bc 84ab 9b3b 0dd2 143d 53d7 e23b
00000050: ccb2 6a3a 9e59 433e 1aef 87bd 23cb 15bd
00000060: a45b 833d abab d23b a7e8 01be 6f30 5cbe
00000070: ad86 52be 0656 04be 363c 7ebe 9dd6 a1bb
00000080: 7288 aabc 04e9 76be 31b7 86bd ac9a f7bd
00000090: 1ee4 1cbd 4389 b2bd 5812 d9bd f97f 65bc
000000a0: 94ec 17be 8d90 fc3c 09c4 f5bd cd2f 7c3d
000000b0: e70e 90bd 08e0 c3bd 8a5e 4f3d 0a78 6b3d
000000c0: 49e3 76bd 42c7 51bd 7b36 76bd 3ce9 12be
000000d0: 84e8 70bd 6349 cc3d 8b01 023d 6616 0f3e
000000e0: e51d d53d 3f64 4f3e 2b60 ad3c 6e86 233e
000000f0: c4d2 d13d ecbb 953e 4678 b43d 5497 523e
00000100: 4902 083e 2893 723d 3fed 5b3e af3c 133e
00000110: 2edb 223d bc52 733e 2eb2 513e 45d8 d13d
00000120: e071 023e 3823 bc3d 025b c03b 6a54 3f3e
00000130: 9d6c 393d eb48 623e 2e5c 84bd bc5c 1d3e
00000140: ff79 583e 8bb1 1bbe 608a 29be 5fdf 62bd
00000150: b8ae 5dbe 47fb 36be eb00 a3be ba1a 6d3e
00000160: 11e8 af3d f8e5 1b3e 9f02 45bd 7663 b4bb
00000170: 0af6 c73d 5ce2 6e3c d1cf 0dbd 8f2a 01bd
00000180: 1fc1 a3bd ebff 1e3e f2da 1cbd 8216 893d
00000190: 0db5 563d 9444 283e 969e b13d e481 2c3d
000001a0: 7721 40bd 1467 523e 7cf8 1e3e 36f3 5e3d
000001b0: 52c8 153e b0d7 313d 7469 2f3d 12a3 1a3e
000001c0: a9db 05be bace 6b3d 6ade 113e ab8d 7dbc
000001d0: 8654 4abd abd1 79bd eac2 7bbc 0e57 21bc
000001e0: 3b2d 21bd 5f7f 333d 50b2 36bd 6fd0 8b3d
000001f0: 70fa cc3c 8782 adbc 2dc5 2ebd 2ed3 8ebd
00000200: b1f1 16bc 7bf8 16be c7fc 153d 05cd 473b
00000210: 0880 86bd 0b3e c43c b774 17be 904e 7abe
00000220: a52f 21be 7153 13bd b943 5bbd 86f0 f23c
00000230: 12bb acbd ef3e 983b 93f3 5c3d 6aca 893d
00000240: d07d ef3c 2118 0e3d 5bc6 583d d329 353d
00000250: 4157 d2bc a817 613d 4181 bf3c b40b bb3d
00000260: ab0f 8ebd 9b40 253c 8f87 19be ffa3 1cbe
00000270: 4502 97bd 6718 90bd bbcb d0bd 13cf 933d
00000280: 93d3 edbd 0ed8 b9bd a9e6 273d f54d 283e
00000290: 4304 cbbc bade 0a3e b0db e2bd 5a87 d3bc
000002a0: ee87 e43d a061 c2bc faab cebd 8844 10be
000002b0: 3d2d 02bd ecf8 79bd f3fb 00be ba27 54be
000002c0: 5f47 b7bc da08 27be 0b92 27be 1151 f13b
000002d0: f959 52be 24c2 57bd ace2 1ebe 7248 c6bd
000002e0: e096 4e3c 602d f53b 94c7 18be b2f1 ebbb
000002f0: d5d2 16bd c875 223d 467e d4bd ffd7 0dbe
00000300: a25f cebd e93e d03b dc71 9b3d 1566 4dbd
00000310: e62e 833d 1619 c43b 9d8a 643e 8ee1 373d
00000320: 30f2 863d afe1 d13c eedb 1a3e cbb7 b93d
00000330: 8be3 a33c a222 7b3e 86f0 8b3d 9c9f 8d3e
00000340: 4824 b23d 945f 3d3e 5def 1b3e 1798 323e
00000350: 76bd d03c 5911 503e c11d 0c3e a6d1 e53d
00000360: b3fe d4bd 85f0 3dbe 93fa 4abd 9436 613d
00000370: e93c 7cbd df9a de3d 7da5 f3bd 0cef bdbd
00000380: 8d7c 83bd f0e6 55be e3a7 863d c764 103d
00000390: 8d49 4cbe 680c b4bc a814 583c 7498 b63d
000003a0: f999 5abc 8168 6a3d b668 18bd 45d2 83bc
000003b0: ac41 153d 2abd a4bd f10c f83c 9b3f fabc
000003c0: 0554 b1bd aa67 943d 61d7 b3bd f2b6 9c3d
000003d0: 9e9e 9abc 0b9b f03d 4663 783d 4b62 f93d
000003e0: 0a84 e8bb dadf 723d a74a a53c 9aa1 ddbc
000003f0: f544 303e 856b 86bd bb5f 323d 5a95 e73c

AmpNet.0.conv1.spatial_process.block.2.bias f4 [8]
-0.04623294 0.0013871972 -0.06262431 -0.100498006 -0.020976536 -0.031726826 0.13102932 -0.13575831
00000000: c05e 3dbd 9dd2 b53a 2d41 80bd e6d1 cdbd
00000010: fcd6 abbc fdf3 01bd 8d2c 063e 3a04 0bbe

AmpNet.0.conv1.frequency_process.fpre.weight f4 [8, 8, 1, 1]
-0.07626266 -0.047421258 -0.13949993 -0.3472024 -0.16175647 -0.047616173 -0.13787346 -0.35005492
-0.30058116 -0.28406036 -0.03319499 0.16949071 -0.13535705 0.3065744 0.102687396 -0.14975812
-0.09557431 -0.019135296 0.047212474 0.096656874 0.4527187 -0.091385305 -0.12782921 -0.18525349
0.09220603 -0.24793687 -0.33420932 -0.06344755 0.3386869 -0.1560662 0.009150469 -0.23440716
0.32334492 -0.2549265 0.31405276 0.40546182 -0.26140434 0.19538237 -0.15124065 0.24716805
0.17570916 0.39700478 -0.25434434 0.2168085 0.09289784 0.14602374 -0.24901822 0.280327
-0.34877244 0.23599602 -0.3213661 -0.2887627 0.2656809 0.0035640332 0.28652242 0.049302194
0.33694848 0.11416698 -0.11843027 0.24064559 -0.031797986 -0.2744957 -0.019494943 0.01742436
00000000: 992f 9cbd cb3c 42bd 12d9 0ebe 83c4 b1be
00000010: 7da3 25be 2d09 43bd b32e 0dbe 663a b3be
00000020: c6e5 99be 5c70 91be 78f7 07bd f98e 2d3e
00000030: 0a9b 0abe 52f7 9c3e c54d d23d 315a 19be
00000040: 77bc c3bd a0c1 9cbc de61 413d 0af4 c53d
00000050: bfca e73e 3828 bbbd a9e5 02be 17b3 3dbe
00000060: 84d6 bc3d 2ae3 7dbe 7c1d abbe caf0 81bd
00000070: 5f68 ad3e d1cf 1fbe d9eb 153c 6e08 70be
00000080: 778d a53e ba85 82be 86cb a03e b198 cf3e
00000090: cad6 85be 5112 483e d4de 1abe 9f19 7d3e
000000a0: 1aed 333e 3644 cb3e 6c39 82be 0c03 5e3e
000000b0: 3941 be3d 3f87 153e a2fe 7ebe 0587 8f3e
000000c0: 4d92 b2be f1a8 713e 198a a4be b4d8 93be
000000d0: 5407 883e 8e92 693b 11b3 923e 19f1 493d
000000e0: 8384 ac3e 61d0 e93d 928b f2bd cc6b 763e
000000f0: 9b3e 02bd b38a 8cbe dcb3 9fbc 88bd 8e3c

AmpNet.0.conv1.frequency_process.fpre.bias f4 [8]
0.05312986 0.10306177 -0.13912466 -0.020173732 0.18432613 0.34196922 -0.3006253 -0.09424778
00000000: b29e 593d 0d12 d33d b276 0ebe 6243 a5bc
00000010: fdbf 3c3e 9716 af3e 8feb 99be fb04 c1bd

AmpNet.0.conv1.frequency_process.process1.0.weight f4 [8, 8, 1, 1]
0.061978493 0.19990683 0.16889496 -0.12968919 -0.07429467 -0.24950175 0.28471187 -0.30374348
0.26245472 0.0739898 0.069864154 -0.39344844 -0.0652021 0.39283976 -0.21525022 0.20707597
0.25089133 -0.083536595 0.26280987 0.14875983 0.1547737 -0.3231897 0.25366557 -0.22387934
0.18936284 0.15796353 -0.19161046 0.17061087 -0.24575858 -0.29569462 -0.00102326 0.078589484
-0.2612059 -0.23537548 -0.16784942 -0.21102941 0.22097221 -0.030577838 0.34361356 0.020212144
-0.096215725 0.24781151 -0.21356843 0.1158599 0.0217848 -0.2132892 -0.20128423 0.07573863
0.06767511 0.15252823 0.28402638 0.21387847 -0.026891707 0.06455253 0.24749321 0.13785285
-0.3004663 -0.023014588 0.034560423 -0.29008973 0.35595345 -0.23261666 -0.06716394 0.19471624
00000000: 29dd 7d3d 60b4 4c3e cdf2 2c3e 3ecd 04be
00000010: ce27 98bd 637d 7fbe c1c5 913e 4484 9bbe
00000020: 7760 863e f787 973d f014 8f3d 1372 c9be
00000030: ae88 85bd 4b22 c93e 8e6a 5cbe b90b 543e
00000040: d474 803e 3c15 abbd 048f 863e 7f54 183e
00000050: ff7c 1e3e 1f79 a5be 74e0 813e a040 65be
00000060: 55e8 413e 31c1 213e 8835 44be 9eb4 2e3e
00000070: 23a8 7bbe 4965 97be e81e 86ba 86f3 a03d
00000080: c8bc 85be 4506 71be b8e0 2bbe 1818 58be
00000090: 8a46 623e 607e fabc 1eee af3e f093 a53c
000000a0: c00c c5bd 4dc2 7d3e afb1 5abe f547 ed3d
000000b0: 0976 b23c 7c68 5abe 741d 4ebe db1c 9b3d
000000c0: 4099 8a3d 5c30 1c3e e86b 913e f502 5b3e
000000d0: ff4b dcbc 1e34 843d dc6e 7d3e 4c29 0d3e
000000e0: b8d6 99be 1789 bcbc 3b8f 0d3d a486 94be
000000f0: 883f b63e 1033 6ebe 3f8d 89bd b263 473e

AmpNet.0.conv1.frequency_process.process1.0.bias f4 [8]
0.043133877 0.1718983 -0.1698617 0.07183203 0.27292067 0.38643596 -0.101657316 0.17552143
00000000: 26ad 303d 1c06 303e 3af0 2dbe ac1c 933d
00000010: 42bc 8b3e efda c53e b631 d0bd e4bb 333e

AmpNet.0.conv1.frequency_process.process1.2.weight f4 [8, 8, 1, 1]
0.0023646504 0.401927 -0.11105708 -0.08376604 -0.30013058 -0.29052016 0.31960124 -0.49362537
0.0072082966 -0.14479719 -0.13114683 0.08225887 -0.009469058 0.09190159 0.36684355 -0.24194872
0.32168117 0.03419482 -0.33332363 -0.037914004 -0.040246107 -0.28950688 0.18003957 -0.552778
-0.17017616 0.5043294 0.27032173 0.04195209 -0.3435497 -0.096246675 -0.12215511 -0.49013442
-0.1354404 0.38572958 -0.35817936 -0.110446 -0.008117924 -0.20938139 0.19574018 -0.1730642
0.35884488 -0.3066198 0.10677335 -0.015205381 0.38406146 -0.21916753 -0.29393935 0.4448783
0.024589596 0.35386717 -0.022121362 -0.18479286 0.09186559 0.37638903 -0.10128433 -0.0049804403
0.052562468 0.26249158 0.093486466 0.020667374 -0.32155478 -0.09258155 0.029926285 -0.49823773
00000000: 40f8 1a3b 60c9 cd3e e571 e3bd 888d abbd
00000010: b7aa 99be 0fbf 94be c6a2 a33e 77bc fcbe
00000020: 9333 ec3b b745 14be 5b4b 06be 5777 a83d
00000030: 1c24 1bbc e736 bc3d ebd2 bb3e 68c1 77be
00000040: 65b3 a43e de0f 0c3d 65a9 aabe b74b 1bbd
00000050: 1ad9 24bd 3f3a 94be 4b5c 383e dc82 0dbf
00000060: a942 2ebe bb1b 013f 9c67 8a3e f4d5 2b3d
00000070: bfe5 afbe fa1c c5bd 752c fabd e6f2 fabe
00000080: e3b0 0abe 597e c53e 4963 b7be 8331 e2bd
00000090: 0b01 05bc 1368 56be 1d70 483e be37 31be
000000a0: 84ba b73e 45fd 9cbe fcab da3d fe1f 79bc
000000b0: b4a3 c43e 746d 60be 387f 96be 17c7 e33e
000000c0: 1f70 c93c 142e b53e dc37 b5bc 573a 3dbe
000000d0: 0724 bc3d 10b6 c03e 296e cfbd f632 a3bb
000000e0: be4b 573d 4c65 863e d575 bf3d a04e a93c
000000f0: d4a2 a4be 659b bdbd f827 f53c 0419 ffbe

AmpNet.0.conv1.frequency_process.process1.2.bias f4 [8]
-0.2862409 -0.30203333 0.12830569 -0.4058088 0.10136608 0.37091646 -0.10346576 -0.31226817
00000000: 2b8e 92be 1da4 9abe 9162 033e 2cc6 cfbe
00000010: 0599 cf3d c3e8 bd3e dbe5 d3bd 9de1 9fbe

AmpNet.0.conv1.frequency_process.process2.0.weight f4 [8, 8, 1, 1]
0.0056957994 0.023569407 -0.33242738 -0.32629547 0.0447768 0.260501 0.14769195 -0.3907668
-0.10462044 0.4322812 -0.082397304 -0.008872734 0.071897194 -0.124416046 0.049421564 -0.30728552
0.122543424 -0.18473366 0.2222156 0.36254492 -0.21541722 0.03293128 0.029578634 -0.3319923
-0.22711083 0.100736365 0.045241438 -0.423891 0.16868757 -0.24701379 -0.31660593 0.31581602
-0.24487796 -0.011865533 0.010946358 -0.2466499 -0.18645571 -0.0662486 -0.2799025 -0.14152767
-0.38417476 -0.23185228 -0.18613707 -0.25956377 -0.23412932 0.472722 0.33679894 0.15622017
0.32796824 0.19053058 -0.2556517 0.18068962 0.1052425 -0.053320285 0.26100588 -0.029656537
-0.41352016 -0.0071498426 -0.27013627 0.11818892 -0.41145185 -0.01082952 0.38706222 -0.15312086
00000000: d4a3 ba3b a114 c13c ec33 aabe 3310 a7be
00000010: e167 373d 6360 853e 8f3c 173e 9612 c8be
00000020: 3e43 d6bd f653 dd3e ebbf a8bd f25e 11bc
00000030: d63e 933d d7cd febd 446e 4a3d 8754 9dbe
00000040: 0cf8 fa3d d22a 3dbe 7c8c 633e 7d9f b93e
00000050: 5596 5cbe f3e2 063d e44e f23c e5fa a9be
00000060: be8f 68be de4e ce3d 164f 393d 3e08 d9be
00000070: 6fbc 2c3e 2ff1 7cbe 2c1a a2be a3b2 a13e
00000080: 4ac1 7abe a767 42bc 5a58 333c cb91 7cbe
00000090: 3fee 3ebe 59ad 87bd 614f 8fbe a1ec 10be
000000a0: 8eb2 c4be af6a 6dbe b79a 3ebe 8be5 84be
000000b0: 99bf 6fbe 9e08 f23e e970 ac3e 2ef8 1f3e
000000c0: 74eb a73e 731a 433e c8e4 82be b306 393e
000000d0: 6189 d73d 5f66 5abd 90a2 853e 44f2 f2bc
000000e0: eab8 d3be 3a49 eabb 4d4f 8abe 080d f23d
000000f0: d1a9 d2be 4d6e 31bc 052d c63e b7cb 1cbe

AmpNet.0.conv1.frequency_process.process2.0.bias f4 [8]
-0.21908964 -0.19704252 -0.0032183942 -0.3297523 -0.10655807 -0.025774073 -0.25059816 0.36666113
00000000: 0959 60be 84c5 49be b2eb 52bb 4bd5 a8be
00000010: 1e3b dabd 2624 d3bc 674e 80be 02bb bb3e

AmpNet.0.conv1.frequency_process.process2.2.weight f4 [8, 8, 1, 1]
0.072418846 0.045421403 0.0075319307 -0.5282837 -0.003969027 -0.2015188 0.21062624 0.22166315
-0.049564026 -0.47275484 -0.1882504 -0.09851752 0.26150075 -0.18693809 -0.2850601 0.3414412
0.06973155 -0.04997572 0.41473427 0.04723791 -0.18872352 0.267123 0.49363637 -0.031674705
-0.31590912 -0.27383608 -0.21778016 0.27764204 0.22187051 0.11328871 0.014072541 0.061089575
0.10348343 -0.085303046 -0.34798 -0.20305641 0.1296647 -0.087081976 0.208031 0.19729716
0.30101267 0.09457557 -0.07063648 -0.14115448 -0.21876939 -0.16189712 -0.15365252 0.07671727
0.4530908 -0.00827864 -0.004457007 -0.11239293 -0.18022192 0.41271445 -0.24841645 0.23725761
-0.1457236 -0.27363133 0.41583765 -0.41823837 -0.062264744 -0.0050325515 0.23809947 0.23212937
00000000: 5550 943d cb0b 3a3d 6ace f63b 9a3d 07bf
00000010: 9d0e 82bb f25a 4ebe 68ae 573e aafb 623e
00000020: a603 4bbd ec0c f2be b6c4 40be 8ec3 c9bd
00000030: 6de3 853e b36c 3fbe 66f3 91be 62d1 ae3e
00000040: 6acf 8e3d 57b3 4cbd 0d58 d43e 8a7c 413d
00000050: bd40 41be 59c4 883e e8bd fc3e 56bd 01bd
00000060: d7be a1be 3e34 8cbe c301 5fbe 1927 8e3e
00000070: 0632 633e e903 e83d 8490 663c 1039 7a3d
00000080: 1fef d33d 5db3 aebd 6f2a b2be 05ee 4fbe
00000090: d3c6 043e 0958 b2bd 1406 553e 4408 4a3e
000000a0: 551e 9a3e d6b0 c13d dca9 90bd cd8a 10be
000000b0: 1505 60be 5cc8 25be 1657 1dbe f21d 9d3d
000000c0: 84fb e73e 22a3 07bc 160c 92bb 442e e6bd
000000d0: 188c 38be 4f4f d33e e260 7ebe a9f3 723e
000000e0: 9138 15be 6819 8cbe ace8 d43e 5723 d6be
000000f0: 5109 7fbd 1ae8 a4bb 59d0 733e 52b3 6d3e

AmpNet.0.conv1.frequency_process.process2.2.bias f4 [8]
-0.34897387 -0.31554988 0.25614744 0.14995858 -0.2861749 -0.121826105 0.48239702 -0.0694693
00000000: b4ac b2be c18f a1be c225 833e be8e 193e
00000010: 8485 92be f77f f9bd befc f63e ec45 8ebd
